backend/nfc_hospital_system/ml_models/hospital_simplernn.tflite (tflite, 50276 bytes, 9 tensors)

arith.constant3 f4 [1, 16]
000000 49 ae ac 3d 4c 20 05 3e 97 5b 00 3f e6 90 05 3f
       0.0843168 0.13000602 0.50139755 0.5217422
000010 02 17 c1 3e 12 b8 bc be b0 cf 05 bf 96 d7 07 be
       0.37712866 -0.36859185 -0.5227003 -0.13265833
000020 25 6b fa bc d9 85 93 3e 4d 97 38 be 93 e3 91 3d
       -0.030568669 0.28813055 -0.18026467 0.071234845
000030 56 fc e2 be bd 1d cc be 17 5f d7 3e da 70 81 3d
       -0.44333142 -0.39866439 0.42064735 0.06320353

arith.constant4 f4 [16, 32]
000000 ec b3 89 be 76 1a 0d bc d1 c1 36 be 41 d0 09 be
       -0.26895082 -0.008612266 -0.17847373 -0.13458349
000010 c8 01 a0 bd b7 b8 92 3c 03 c0 5f be 19 92 63 bd
       -0.0781284 0.017910345 -0.2185059 -0.05555925
000020 14 6b a4 3e 0c 15 97 bd b3 aa 4d 3e c3 89 30 3c
       0.32112944 -0.07377061 0.20084648 0.010775032
000030 04 12 b7 bd 9a 08 3d 3e f0 24 42 3e c8 86 a3 be
       -0.08938983 0.18460312 0.18959403 -0.31938767
000040 20 3d 5a 3d 1a 04 9f be ee 1a a9 be 33 5f 6c be
       0.05328095 -0.31057817 -0.33028358 -0.2308319
000050 89 10 1e 3e 37 b3 cf 3d 5e e9 3e be 58 dc 3d bc
       0.15435995 0.101416044 -0.1864371 -0.011588179
000060 ae 18 a9 3d d5 c4 c8 3d 30 a4 86 3c 6a 43 f3 bd
       0.082566604 0.09803168 0.016435713 -0.118780926
000070 d5 83 a1 be 5a 9a 89 3e 12 b9 68 be 77 eb f6 3c
       -0.31545892 0.26875573 -0.22726849 0.030141575
000080 b5 00 8e bd 55 99 9e bd 8c 1d 5b be a4 e0 9b 3d
       -0.069337286 -0.077440895 -0.2139799 0.07611206
000090 88 f5 a8 be c7 21 8a be d1 6f 64 be 4f e5 ce bd
       -0.32999825 -0.26978895 -0.2230828 -0.10102331
0000a0 62 b8 4f be a2 65 9b be fd a8 ca bd 38 2c 42 be
       -0.2028518 -0.30350977 -0.09895513 -0.1896218
0000b0 1f 8b cc bd 7b db b8 be 89 b3 0f be 39 cf c4 3d
       -0.09987473 -0.3610495 -0.14033331 0.09609837
0000c0 13 bd 3c be c1 6e 3b 3e a5 75 05 3e 85 fe 80 3d
       -0.18431501 0.18303968 0.13033159 0.06298546
0000d0 d2 cd 21 3e e1 21 90 be 97 7b 5b 3e 74 d3 63 be
       0.1580117 -0.28150848 0.21433865 -0.22248632
0000e0 ed 6f 97 3c 85 f3 68 be 29 40 0d 3d ec 11 c2 bd
       0.018485988 -0.22749145 0.034485016 -0.094760746
0000f0 c7 dd c1 3d 1f dc 9b be 6d 50 9a 3d 39 27 0f be
       0.09466129 -0.30441377 0.07534871 -0.13979806
000100 49 97 b5 3e 82 5b 7a 3d 2b a5 2e 3e b6 6f aa be
       0.35466984 0.061122425 0.17055194 -0.33288354
000110 c0 62 48 3e 1e c8 84 be 50 d0 3c be 74 1e 31 3e
       0.1956892 -0.25933927 -0.1843884 0.17296773
000120 d0 e6 e7 3c ef 26 34 3e e0 cf cd 3d ed ba 3c be
       0.028308302 0.17592977 0.10049415 -0.18430682
000130 75 98 1b 3e e6 10 0e be 13 f5 88 3e 8f ff 29 bd
       0.15194876 -0.13873634 0.26749477 -0.041503485
000140 0a a5 3d 3d f5 6d 92 be 0c 14 34 be 0f 72 d1 3d
       0.04629997 -0.28599516 -0.17585772 0.10226833
000150 1b 70 3b be a5 3c 95 3e 62 ed 9b be e5 6a 3d 3e
       -0.18304484 0.2914783 -0.30454546 0.18497808
000160 12 22 48 be 20 64 0c be af b5 31 be 20 7a 38 be
       -0.19544247 -0.1371007 -0.17354463 -0.18015337
000170 9b 4c 69 be 0e 26 9b 3e df cf 82 3e 60 24 24 3e
       -0.22783129 0.3030247 0.25549218 0.16029501
000180 6a 81 21 3e 57 e1 42 3e 91 c5 7f 3e a9 70 38 be
       0.15772024 0.19031273 0.2497771 -0.18011726
000190 91 bd dd bd ea 06 67 3c f3 51 58 be c3 fa e2 bd
       -0.108271725 0.01410077 -0.21125011 -0.11082985
0001a0 58 61 0f 3e 59 63 02 3e 65 81 02 be d3 f2 27 be
       0.14001977 0.1273321 -0.12744673 -0.16401224
0001b0 fb e5 41 3e 73 93 57 bd 67 ac 24 3d 28 06 91 be
       0.18935387 -0.052630853 0.04020348 -0.2832501
0001c0 e2 1f 86 3e 9c a9 4e be ef d4 ec 3d 5a 78 34 3e
       0.261962 -0.20181888 0.11564051 0.17624035
0001d0 34 ba cb bd 66 2b 9d 3d 2c f5 05 3c db 56 ac be
       -0.09947625 0.07674293 0.008176129 -0.33660015
0001e0 7a 8b 80 bd f2 5f 20 3e 84 0b 81 3e ce 7f e8 3d
       -0.06276603 0.156616 0.25204098 0.11352502
0001f0 65 52 1e be cd 02 ff 3d cf 5d d9 bd 3d e4 f7 3d
       -0.15461119 0.12451706 -0.10613596 0.1210408
000200 98 0b 9a 3e 3f 55 2d 3e 4a 1e a1 be 3e 59 80 be
       0.3008697 0.1692705 -0.3146842 -0.25068086
000210 5a c2 a4 3e 1a 2e 1d be 07 fd 93 3e 5a 7a 97 be
       0.32179528 -0.15349618 0.28903982 -0.29585534
000220 6b c8 bf 3e 5c ab 88 3e ee 4a 80 be 3c 4e 83 be
       0.37457594 0.26693237 -0.25057167 -0.25645626
000230 40 c3 9c 3e ac 65 04 3d 06 f9 25 3d 6d 0a 37 be
       0.30617714 0.032323524 0.04052069 -0.17875071
000240 26 77 2b 3d f1 4b 8d be 2d c4 0f be 0c a4 15 be
       0.041861676 -0.27597 -0.14039679 -0.1461336
000250 12 98 44 bd ca 0a 7e be 14 00 bf bd 12 97 eb bd
       -0.047996588 -0.24808803 -0.09326187 -0.11503424
000260 3a ec 42 bd 10 17 17 bd 29 a6 5a 3e 78 bf ac be
       -0.047588564 -0.03688723 0.21352448 -0.3373983
000270 01 4f 53 3e 9e 61 92 bc 5e f1 3c 3e 2f ce 3f be
       0.20635606 -0.017868813 0.1845145 -0.18730997
000280 8c dd bc 3e 0c 3e a3 bd 83 90 09 3e 93 52 12 be
       0.36887777 -0.07970819 0.13434033 -0.14289312
000290 34 51 1e 3e 3c ef 96 3e 16 ff 1f 3e 82 1d 29 be
       0.15460664 0.29479396 0.15624651 -0.16515163
0002a0 2a 6d 9f 3e 39 c1 95 bd ad 65 c8 bd 3e 0f 6f be
       0.31137973 -0.07312245 -0.09785018 -0.23345658
0002b0 e4 48 fa 3d 4c 0d 5e 3e 50 6c 97 bd 55 e4 5e be
       0.12220934 0.2168476 -0.07393706 -0.2176679
0002c0 41 94 00 3e 07 a9 90 3e fd da 57 3e 34 c8 7b 3e
       0.12556554 0.28253958 0.21079631 0.2458809
0002d0 d4 74 4d be 1c 6b 53 3d c3 51 84 3d 99 0c 3b be
       -0.20064098 0.05161582 0.06460907 -0.18266524
0002e0 10 ea ac be fe d4 6f 3e 9b 8d 80 3e a1 86 09 be
       -0.33772326 0.23421094 0.25108036 -0.13430263
0002f0 39 4a 36 3d 24 fc aa 3d 25 2d 80 bb 23 96 eb 3d
       0.044504378 0.08348873 -0.0039116316 0.11503246
000300 f4 e1 b0 3e bf 15 80 3e 62 3b 9d be a9 60 e5 3d
       0.3454739 0.2501659 -0.30709368 0.11200077
000310 63 3b 1d 3d 20 35 8e 3d 1e 41 a2 be 19 a2 16 3e
       0.038386714 0.069437265 -0.31690305 0.14710273
000320 ba cb bd 3d 94 35 37 be 50 d5 11 3e d8 ef 10 be
       0.092673734 -0.17891532 0.14241529 -0.14153993
000330 d6 57 87 be 24 d8 0e 3e d1 85 d4 bc f3 88 87 be
       -0.264342 0.13949639 -0.025942715 -0.2647167
000340 ca 15 92 3e 08 b2 ca 3d 65 5c c8 be 8f 9c 8d bd
       0.2853225 0.09897238 -0.3913299 -0.06914627
000350 70 00 80 be bb dd b1 3e 93 cc 9e bd ec e1 6b 3e
       -0.25000334 0.3473948 -0.07753863 0.23035401
000360 ca 63 80 be 60 a4 a3 be f2 5a 10 be 0d f3 28 3e
       -0.25076133 -0.31961346 -0.14097193 0.16498967
000370 a4 34 85 3e 8b 9d a7 3c 6f 85 9c be bf a6 bf bd
       0.26016724 0.020460865 -0.30570552 -0.09357976
000380 8c 46 46 3d 87 12 d2 bd 9c 65 98 bb b6 27 24 be
       0.048407122 -0.1025744 -0.0046507847 -0.16030774
000390 00 85 97 be 0a 6a 8b bd f8 13 99 bd e5 ed 81 be
       -0.29593658 -0.06807335 -0.07474512 -0.25376812
0003a0 a9 02 20 be 50 52 9f be 67 09 23 3a 4a e4 a5 bd
       -0.15626015 -0.31117487 0.00062193576 -0.08100183
0003b0 a3 f1 cf 3c 86 96 70 be 14 58 73 be a4 da 3f 3e
       0.025383776 -0.2349492 -0.23764068 0.18735749
0003c0 05 df 51 be 59 dc cb 3d 4b aa c3 3d ac 1a 99 3d
       -0.20495231 0.09954137 0.09553965 0.074757904
0003d0 89 4f d6 3c be 73 c2 be 83 51 64 3e a8 a0 8e be
       0.026160972 -0.3797893 0.22296719 -0.27856946
0003e0 04 39 ba bd 4a 11 0a be 44 1c fc 3d 6c 35 a5 be
       -0.09092906 -0.13483158 0.12310079 -0.3226732
0003f0 e0 cd c9 bd 43 da a5 be 24 1f b2 3d 8f c3 f8 bc
       -0.09853721 -0.32393083 0.08697346 -0.030366687

arith.constant6 f4 [16]
000000 dd 4d 3f bd 2a e8 a5 3d 3e eb 71 bd 97 97 5c bd
       -0.046705116 0.081009224 -0.059062235 -0.053855505
000010 de 3c 87 bd ce 97 87 bd 70 b9 84 bd ba 9c 9c bd
       -0.06603406 -0.06620751 -0.06480682 -0.07647081
000020 05 ea c6 bc a2 9f 93 bd 34 ef 93 bd a6 b1 44 3c
       -0.024281511 -0.07208182 -0.07223359 0.012005245
000030 27 8e 57 bd 0c 97 8f bd 95 82 89 bd b6 1a 90 3d
       -0.0526258 -0.07011232 -0.0671436 0.07036345

arith.constant20 f4 [64, 15]
000000 35 55 dc 3d 3d 3b 23 3c f7 76 e3 3d 52 6a 80 be
       0.107584395 0.009962854 0.11106675 -0.25081116
000010 22 57 14 3d df b8 96 bd e6 6e d4 bc 0b 32 29 be
       0.03621591 -0.0735948 -0.025931787 -0.16522996
000020 d1 92 d7 3d 19 d3 43 3d 8c f7 3b be f4 a0 dd bd
       0.1052605 0.04780874 -0.1835615 -0.10821715
000030 14 f3 5b 3e 2e 07 18 3e aa 1f 8b be 8c ac ca 3d
       0.21479446 0.14846489 -0.27172595 0.09896192
000040 24 25 4a be eb 7c 15 3c 85 79 80 be 5c c8 85 3e
       -0.1974073 0.009124021 -0.25092712 0.26129425
000050 76 87 7a 3e dc 28 7e bd a0 9f 17 bc 06 14 81 be
       0.24465737 -0.062050685 -0.009254366 -0.2521059
000060 7a 54 bd 3d b7 0d 29 3e 3e 4b 2e 3b 27 85 7b be
       0.09244628 0.16509138 0.002659514 -0.24562512
000070 bc f8 67 3e 83 ee 30 3e 3c f4 c9 3e c3 20 6e 3e
       0.22653478 0.17278485 0.3944415 0.23254685
000080 b9 7b 88 3b f4 5a 01 be a2 2d 25 be 90 a3 73 be
       0.0041651395 -0.12632352 -0.16130689 -0.23792863
000090 4f ee 9b 3d 37 51 12 3d 9f 8b 19 3d ed 1c 17 3e
       0.07613813 0.035721984 0.03748667 0.14757128
0000a0 ea 9a c8 3d e3 f8 3c be d1 e6 c3 3d a5 f7 64 be
       0.097951725 -0.18454318 0.09565509 -0.22360094
0000b0 49 5e 4f be dd 1d a7 3d 8f 37 eb 3d 9a 2e d8 3d
       -0.2025081 0.08159993 0.11485206 0.105557635
0000c0 6e cf e9 3d 05 b8 f7 bd 9d fa 4e 3d 1f bc 97 3d
       0.11416517 -0.12095646 0.050531972 0.07408928
0000d0 c8 d8 9a be 99 fc e2 3d 2f 04 bf 3d ba 10 9d be
       -0.30243516 0.110833354 0.0932697 -0.30676824
0000e0 a6 70 c8 bc 73 c4 ed bd 8f 25 5b be 68 96 11 be
       -0.024467777 -0.11609735 -0.21401046 -0.14217532
0000f0 a8 20 24 3e 45 00 09 3d 04 eb c6 3d 29 09 15 be
       0.16028082 0.033447523 0.097127944 -0.14554276
000100 63 06 04 be 34 7a 0b be 24 e2 b1 bd 78 4d f2 bc
       -0.12893061 -0.13620836 -0.08685711 -0.029577956
000110 b7 a2 b3 3c b1 3b f8 bc ab 3b 4f be 3d cf 88 bd
       0.021928174 -0.0303019 -0.20237605 -0.066801526
000120 d2 8b 05 3c 1a 10 53 3e 82 ca 5e 3e 59 0d 22 3e
       0.008151012 0.20611611 0.21756938 0.15825404
000130 78 e9 35 3e ee ff e7 bd 44 8e b4 3d 10 0b c1 3d
       0.17764843 -0.113281116 0.088161975 0.09425938
000140 70 51 30 bd dc 8c 85 be e4 f1 33 3e 53 59 9a be
       -0.043046415 -0.2608403 0.17572743 -0.30146274
000150 9a 59 f3 bc 5a cf 69 be 1b 15 30 3e 99 4d 9f be
       -0.029705811 -0.22833005 0.17195551 -0.3111389
000160 81 6e 96 bd 28 83 14 3e 69 de 42 3e be a3 1c be
       -0.07345296 0.14503157 0.19030155 -0.15296838
000170 95 b5 ef 3d e0 90 0e 3d d9 2d fa 3c 26 31 18 3e
       0.11704556 0.034806132 0.03053944 0.14862499
000180 26 15 4f bd a6 b6 8e be b6 6a bb 3d 2c eb c7 3d
       -0.050557278 -0.27873725 0.09151213 0.09761652
000190 d9 3b 1d 3d eb 7d e4 bd 2f c3 65 be 99 f8 92 3b
       0.038387153 -0.111568294 -0.22437738 0.0044852016
0001a0 57 d5 ac 3d 5a e1 05 3e 29 94 a0 3d dc 15 47 bd
       0.08439129 0.13074246 0.07840759 -0.04860483
0001b0 3e cd 11 3e ce 3f 86 3e 8c f0 34 3d fd 9c 4b 3e
       0.1423845 0.26220554 0.044174716 0.19884105
0001c0 95 3d af bd ca da 29 3e 69 eb d9 3d 31 35 27 be
       -0.08556668 0.16587368 0.10640604 -0.16328885
0001d0 ee f1 41 be da 1d 8c 3e bc 90 06 3e 0f e8 23 be
       -0.18939945 0.27366525 0.1314115 -0.16006492
0001e0 03 ea 7a be ee 0a 7f 3e 97 2f 84 be 50 78 18 3e
       -0.24503331 0.24906513 -0.25817558 0.14889646
0001f0 4f aa 14 3e 95 28 c3 bc 1d ec b6 3d b8 92 83 3e
       0.14518093 -0.023823062 0.08931754 0.25697875
000200 b6 f9 2d be 47 b4 64 be 5a 88 1a 3d 33 b7 e1 3d
       -0.16989788 -0.22334395 0.03772769 0.110212706
000210 27 8f 84 3c f9 12 8b bd 17 2c 57 be b9 98 d8 3d
       0.016181542 -0.06790728 -0.21012913 0.105760045
000220 f4 a7 0d 3d 21 aa 90 be ec aa 24 3e 10 2c 3a 3e
       0.034584 -0.28254798 0.16080827 0.18180871
000230 4f 61 52 3e 47 20 1e be 1d 4d 92 3e 3f f4 64 be
       0.20544933 -0.15442 0.28574458 -0.22358797
000240 d5 1c 60 be ba fb 2d bd 41 dd 01 3e f2 ba 8e 3e
       -0.21885999 -0.042476393 0.12682058 0.27877003
000250 ed 84 0a be 6b 21 77 3d ae 49 45 3d 2e 1d 8b be
       -0.1352727 0.060334604 0.04816597 -0.271707
000260 ae bf ed 3d 1f e8 83 bd 71 8a 0e bd 50 20 2d 3e
       0.116088256 -0.06440758 -0.034799997 0.16906857
000270 e3 18 74 3e 89 fb 5f 3e 3b d4 ce bd 52 45 bb 3d
       0.23837619 0.21873297 -0.100990735 0.09144081
000280 79 2b 8e 3e 10 c8 88 3d 90 5e 32 3e f9 ee f3 bd
       0.27767542 0.06678784 0.17418885 -0.11910815
000290 94 dc 39 bb df 47 ba bd 27 84 83 3e 7d ed 55 be
       -0.0028360235 -0.090957396 0.25686762 -0.20891376
0002a0 0e 54 3d be a4 7e 16 3c 8b 4b 49 3d 89 5a 80 be
       -0.18489096 0.009185467 0.04914431 -0.25069073
0002b0 0d 81 9f 3b e3 b5 66 3e c5 68 c7 bc 0a 2f ad bd
       0.004867679 0.22530322 -0.02434195 -0.084562376
0002c0 9f 0c d3 bd ff 08 d5 3c ec 78 54 bd 00 55 ab 3c
       -0.10305142 0.026005266 -0.051873133 0.020914555
0002d0 00 9d cd 3d 4e 1f 14 be a4 7a 93 3e 66 b9 95 3e
       0.10039711 -0.14465067 0.28804505 0.2924301
0002e0 40 53 92 3e 6a a5 13 be 91 51 80 3e 54 78 42 3d
       0.2857914 -0.14418569 0.2506223 0.047478035
0002f0 23 14 59 bd b7 24 c6 3d d6 9b 01 be 98 23 83 3d
       -0.05299772 0.096749716 -0.12657103 0.06403273
000300 ca 79 73 bd 93 5e 4e 3e 6a 7b cb bc fb 2a 53 bd
       -0.05944232 0.20153265 -0.024839122 -0.05155466
000310 a2 50 5f be aa f1 a0 3d d6 62 da 3d 20 c7 5b 3e
       -0.21808103 0.07858594 0.10663383 0.21462679
000320 e8 d0 63 3e 6d 1f e9 bc 7a fa 35 3b cd b1 54 be
       0.2224766 -0.028457368 0.0027767704 -0.2077095
000330 ee d2 17 be c4 15 43 3e 23 7e 8c be 0d 12 ec 3d
       -0.14826557 0.19051272 -0.27439985 0.115268804
000340 97 71 61 3e 6d 21 36 3e 41 bc 79 be 66 da 2f bd
       0.22015987 0.17786188 -0.2438822 -0.04293289
000350 ea e3 c5 bd 83 af 5f bd 3d b4 df bc c4 9e 87 bd
       -0.09662612 -0.05461074 -0.027307624 -0.06622079
000360 80 6a 9d 3d 60 7b 25 3e 19 5f 81 be c5 87 cb 3d
       0.07686329 0.16160345 -0.25267866 0.09938005
000370 4a f0 b1 bd 90 e9 31 3d 65 bd d7 3d 17 90 04 be
       -0.086884096 0.043435633 0.10534171 -0.12945591
000380 6e c7 61 3d 6d ff d7 be 1f 45 0a 3e 58 3b 11 bd
       0.05512183 -0.42187062 0.1350293 -0.035456985
000390 ac 39 37 be d5 28 78 3e 95 b8 85 3b 6a 79 07 3e
       -0.17893094 0.24234326 0.004080842 0.1322991
0003a0 f3 4b 46 be f5 6c 8c 3d 4f e0 21 be 58 eb 79 3e
       -0.1936491 0.068567194 -0.15808223 0.24406183
0003b0 db 32 7b 3e 1c 60 e1 bd 55 25 54 3d 2e d8 25 3e
       0.24531119 -0.110046595 0.051793415 0.16195747
0003c0 cd 4c cd 3e 54 17 5e be 7c 91 b3 3c 1b 34 11 be
       0.40097657 -0.21688586 0.021919958 -0.14180033
0003d0 db 20 30 3e 39 28 22 be 3c b7 2c 3e 4a 83 da 3c
       0.17200033 -0.15835656 0.16866773 0.026673932
0003e0 0a 76 67 3e c5 27 44 be 27 78 6d bd d2 ef 9d 3e
       0.22603622 -0.19155796 -0.057975914 0.3084703
0003f0 92 15 39 3d 30 59 5a be 61 1f 89 3e f9 4e df 3d
       0.045186587 -0.21323085 0.26781753 0.10903735

arith.constant21 f4 [64, 64]
000000 9a ef 99 be 47 39 2b be b2 14 e4 3d 59 c1 df 3d
       -0.30065614 -0.16721068 0.1113676 0.1092555
000010 ad c4 83 3c 7a 3a 8f 3d e3 43 be 3c d6 36 46 bd
       0.016084993 0.069935754 0.02322573 -0.04839214
000020 82 aa 60 3d e4 60 1d 3e 36 ef b8 3c 82 a4 1c 3d
       0.05485011 0.15368992 0.022575002 0.038242824
000030 d8 86 aa 3d 99 64 ab bc fc 68 65 3d b8 58 4b bd
       0.08326501 -0.020921992 0.056008324 -0.049645156
000040 06 e2 2a 3e 31 64 ad 3d d9 6a 39 3b aa d4 26 be
       0.16687784 0.084663756 0.0028292446 -0.16292062
000050 22 c8 21 3d 87 bb 31 bc c7 c4 72 be 24 b2 14 bd
       0.039497502 -0.010847933 -0.23707877 -0.0363027
000060 26 c0 4a 3e 69 0e db bd 4c 2c 29 be a3 90 fc 3d
       0.19799861 -0.10696108 -0.16520804 0.12332275
000070 b8 d8 a1 bd ae ec 93 3d 30 52 64 3d cf 2f 14 be
       -0.07902664 0.072228774 0.055742443 -0.14471363
000080 75 cb 15 3d c0 b6 1b 3e f7 83 42 be b8 1d 93 bc
       0.036570985 0.15206432 -0.18995653 -0.017958507
000090 ca 81 54 be 4e c9 3d be 27 82 3f 3e b1 c2 94 3d
       -0.20752636 -0.18533823 0.18701993 0.07263697
0000a0 e2 c4 c2 bc 3d 4e 08 3e 59 41 bd 3c 1b 88 d9 3d
       -0.023775522 0.13311096 0.02310245 0.10621663
0000b0 03 2a 1e be 66 52 65 3d f6 aa 12 be ec aa 8e bc
       -0.15445714 0.055986784 -0.14323029 -0.017415486
0000c0 49 ec 11 3e dd a6 6b 3e 5e 22 16 3e 68 00 78 3e
       0.14250292 0.23012872 0.14661548 0.24218905
0000d0 ee e5 73 3e 8a 1b c6 3d bd 87 8d be 79 d9 87 bd
       0.2381818 0.096732214 -0.27642623 -0.066332765
0000e0 de 55 94 bc 65 86 80 bd 2f 13 45 3d 18 1b 05 be
       -0.01810735 -0.06275634 0.048113998 -0.12998617
0000f0 15 1b 2a 3e 84 26 15 3d 6a 81 c8 bd 98 e4 06 3e
       0.16611893 0.036413684 -0.09790309 0.13173139
000100 bd 5e 9f 3d 72 c5 22 be d7 53 cb 3c 18 3b 16 3c
       0.07781742 -0.15895632 0.024820251 0.0091693625
000110 50 91 70 3e 32 a2 00 bd 58 f1 ea bd 47 a1 b5 bd
       0.23492932 -0.03140468 -0.11471814 -0.08868652
000120 58 54 55 bd 7d c5 9c bc 01 dd 84 be 20 2e 08 3e
       -0.05208239 -0.019137139 -0.25949863 0.13298845
000130 53 21 ba bd 7d 1f 82 ba 45 d1 5d 3d 2b 6d cb 3d
       -0.09088387 -0.0009927597 0.054154653 0.099329315
000140 e2 f0 27 3e 4f 9d 9d bd 04 b7 85 bd 3c cf 80 bd
       0.16400483 -0.0769602 -0.06529048 -0.06289527
000150 2a 04 d9 3d 6f fa be 3c e6 f3 2c 3e 80 ab 07 3e
       0.10596497 0.023312775 0.16889915 0.13249016
000160 50 03 73 bd 4d 6d 52 3d c5 a6 da bd 65 12 c3 3c
       -0.05932933 0.05137377 -0.1067634 0.023812482
000170 69 b3 ea 3c fb fa f3 bd 47 7d 84 be d3 a0 da bd
       0.028650003 -0.11913105 -0.2587683 -0.10675206
000180 97 de 64 bd 96 a9 51 bc 6b e8 86 3d 34 58 e8 3d
       -0.05587634 -0.01279678 0.06587299 0.113449484
000190 27 9f 9c 3c 6e 05 10 3e 35 40 a0 bd ad 78 47 3d
       0.019118859 0.14064571 -0.078247465 0.04869907
0001a0 51 c6 18 3e e4 7e 69 3e 7a ce 3d 3e ce 14 45 be
       0.14919402 0.22802311 0.18535796 -0.19246218
0001b0 c9 96 7c bd 8e 9f a4 bd 7c 6c 2e be 42 30 5c bd
       -0.061667237 -0.08038245 -0.17033571 -0.05375696
0001c0 85 e9 18 3e 35 d4 5f bd d0 d7 c1 3d 15 5a 03 3e
       0.1493283 -0.054645736 0.09464991 0.12827332
0001d0 e4 d6 ec bc 19 69 f0 bd 55 95 83 3d 49 6a 52 bd
       -0.028911062 -0.11738796 0.06424967 -0.051370893
0001e0 df 90 40 bb c1 02 32 be 81 8a 01 3e 40 2f 66 3d
       -0.0029383225 -0.17383863 0.12650491 0.056197405
0001f0 0c 6d b0 bd fe d6 52 3e 1e 70 b5 bd b9 68 c3 3e
       -0.08614549 0.20589826 -0.08859275 0.38165835
000200 db f9 a0 3e 77 1c f3 bc 60 0a 4f bd 32 fc 32 3e
       0.31440625 -0.029676659 -0.050547004 0.17479017
000210 28 63 17 bd dd 9e fe bd 6d 2b 4b 3e 2e 87 f9 bc
       -0.036959797 -0.124326445 0.19840784 -0.030459967
000220 dc 40 a4 3d 6d 2a 56 be f0 97 e0 3b 22 37 95 bd
       0.080201834 -0.20914622 0.00685405 -0.072859064
000230 86 36 74 bc 57 99 5a 3c bd d7 0a be 12 e0 d9 bd
       -0.0149055775 0.013342223 -0.1355886 -0.10638441
000240 72 ea 23 3e 7a a3 f8 3c 7e 1d 40 3c 49 8d 8f bb
       0.16007403 0.03035139 0.0117257815 -0.004380856
000250 6f d4 a8 3d 1d 3c 91 bd 48 af 57 be 6c 2d e5 bd
       0.082436435 -0.07091544 -0.21062958 -0.11190304
000260 dc 1a 04 3e 51 09 21 3e 36 6c 87 3b 63 ab da bd
       0.12900871 0.1572621 0.004132773 -0.10677221
000270 7c 69 1a bd 06 dc a6 bd 1d 09 54 be ac 6e 86 3c
       -0.037698254 -0.08147435 -0.20706601 0.016410194
000280 49 d2 56 3e fb a5 2f 3d 98 b4 87 3e dd 3f 2b be
       0.20978655 0.0428829 0.2650497 -0.1672358
000290 48 2d 64 bd 32 03 53 be 6d e9 ab be c1 b5 eb bd
       -0.055707246 -0.20606688 -0.33576527 -0.11509276
0002a0 ca f9 e2 3d 5e 9a 94 bd 00 96 c1 bd 12 48 99 3d
       0.110828 -0.07256006 -0.09452438 0.074844494
0002b0 c2 33 c9 be ee 16 eb bd 86 82 38 be 33 6f 9c 3d
       -0.392973 -0.11478983 -0.1801854 0.07638397
0002c0 e9 31 99 3d 2f 4f ae 3c 7e 2d 50 bd ec c7 63 bd
       0.07480223 0.021277992 -0.050824635 -0.055610582
0002d0 8d d3 d9 3c 0e d9 4d 3e c5 6d c7 bd 22 49 26 bc
       0.026590133 0.20102331 -0.09737734 -0.010149272
0002e0 cb 7c 0e bd 61 d9 ff ba 7c 89 00 be 37 f7 2a bd
       -0.03478698 -0.001951974 -0.12552446 -0.04173967
0002f0 39 ae bb 3d 5f 98 91 3c fa 46 d4 bd 07 e0 68 3e
       0.0916409 0.017772852 -0.103651 0.2274171
000300 07 2d bc bd 18 8b db 3d 03 b2 9f 3d 84 5d a5 bd
       -0.09188276 0.107198894 0.07797625 -0.08074477
000310 df 0d 80 3e 5a bf cc bc ae 8c 04 3c 4f 34 75 be
       0.25010583 -0.024993587 0.008090181 -0.23945735
000320 4c ae e6 bc f8 f1 8b 3d 61 4a 53 be 47 b8 a6 bd
       -0.028159283 0.06833261 -0.20633842 -0.08140617
000330 15 43 03 bd f2 f2 a3 bd 4b 00 22 be 11 67 86 3a
       -0.032046396 -0.080053225 -0.15820424 0.0010254105
000340 83 ee 72 3c 53 18 b5 3d e3 17 f6 3c d9 47 cf 3d
       0.014827373 0.0884253 0.030040687 0.10121126
000350 5c bb 9c bd 99 62 6e 3e 84 d7 b6 bd de fd 83 3c
       -0.076529235 0.232798 -0.08927825 0.016112264
000360 ad 0d 7d 3c 30 37 a2 3e 49 36 61 3e 1e 5d f5 bd
       0.015445155 0.3168273 0.21993364 -0.11980651
000370 45 ad de bc cc 2a 19 3d b4 ee 78 bd 26 df 12 be
       -0.02718223 0.03739433 -0.06077452 -0.14342937
000380 c8 18 2d 3e 63 7d 32 3e ef 58 cf bd e6 aa 1d 3e
       0.16903985 0.17430644 -0.101243846 0.15397224
000390 70 db bb 3b d7 48 35 3e 0a 55 88 bb e3 0b 9d 3d
       0.005732946 0.17703567 -0.004160528 0.07668283
0003a0 49 0e a3 bd bc a8 78 be 48 85 1d be c9 93 e7 3d
       -0.07961709 -0.24283117 -0.15382874 0.11307485
0003b0 5e c2 f9 3c 80 5d 37 3d 57 c4 fe bb 1e 9a 92 bd
       0.03048819 0.044766903 -0.0077748704 -0.07158302
0003c0 57 99 e5 3c 5d 2b 34 bd 85 ee 2a 3c ca d4 0d bd
       0.02802722 -0.043986667 0.010432844 -0.03462676
0003d0 68 bf 2a 3e 0d ec d5 bc 11 90 87 be 6b 22 2e 3d
       0.16674578 -0.026113534 -0.264771 0.042513292
0003e0 10 0b 72 3e eb a6 e1 bd 2d 42 76 be a9 2a fb 3c
       0.23637033 -0.11018165 -0.24048682 0.03065999
0003f0 14 b3 0c 3e 36 6b 01 3a 8f a2 81 bd b8 ff cb 3d
       0.13740188 0.0004936935 -0.06329834 0.09960884

arith.constant22 f4 [64]
000000 3d c7 83 bb f4 f3 04 bd fe 9d 89 3b 61 54 a9 bb
       -0.004021554 -0.032459214 0.0041997423 -0.0051675295
000010 77 94 37 bc 62 9d 92 bc f0 c7 38 bd 0f 4c 6c bb
       -0.01120483 -0.017897312 -0.04511255 -0.0036056077
000020 51 00 90 3c 08 e4 76 bc af b3 94 3c 12 8b f7 bb
       0.017578276 -0.015069015 0.018152086 -0.0075544203
000030 aa 3d a8 3c 68 13 6d 3c e8 93 22 3c d2 35 16 3c
       0.020537216 0.014469959 0.009922959 0.009168105
000040 d3 6d 19 bc 24 d0 9e bb e2 dd 61 3c bf a3 98 ba
       -0.009364563 -0.0048465896 0.013785811 -0.001164548
000050 07 43 a1 3c 02 86 b9 3a 6c b2 a9 3b 74 c6 41 bb
       0.019685281 0.0014154317 0.0051787402 -0.002956775
000060 98 3c 79 bc b2 6c ee 3c 0b 9f 37 3c 3b ae 5e bc
       -0.015212201 0.029104564 0.011207352 -0.0135913445
000070 bb aa bf ba 16 37 de bc c8 0e 69 bb 03 db a0 39
       -0.0014623025 -0.027125876 -0.0035561789 0.00030680755
000080 c3 b4 e1 bc 66 01 03 bd c6 86 b7 bc 80 87 38 3c
       -0.027552014 -0.031983756 -0.022403132 0.0112627745
000090 8a e7 fd bb 7a dd 47 3c bb 8b c8 3c fa 92 c7 bc
       -0.007748549 0.0121988 0.024480691 -0.024362076
0000a0 6c 47 14 bc a5 78 1e bc 2a de 8e 3c e3 a9 2e 3d
       -0.009050231 -0.009672319 0.01743992 0.042642485
0000b0 22 55 a4 bb b7 aa e8 bc d0 c4 8f 3c 44 4d 85 bc
       -0.0050150314 -0.028401716 0.017549902 -0.016272195
0000c0 c7 e5 a3 3c 90 c5 ce ba 5d d0 b8 3b f9 8a 04 3c
       0.020007027 -0.0015775431 0.005640073 0.008089774
0000d0 42 5d c0 bb e4 bd 51 3a a3 28 36 bb 6e b3 0b 3d
       -0.005870492 0.0008001013 -0.0027795217 0.034106664
0000e0 3c 1f 3b bb 85 fb d4 bc 84 1d ac bc 3e b7 8c bc
       -0.0028552553 -0.02599884 -0.021010168 -0.01717722
0000f0 34 49 f9 3b c4 1b 16 bc 75 8d bf 3b f2 d7 48 3b
       0.0076076034 -0.009161893 0.0058457204 0.0030646292

arith.constant26 f4 [32, 64]
000000 1f 86 39 3e a6 b7 45 3c 8d f5 dd bd 09 95 3d 3e
       0.1811757 0.012067711 -0.10837851 0.18513884
000010 37 ba b9 3d 19 84 bd bd 79 70 49 3e 36 e0 2e 3e
       0.09068721 -0.09253711 0.19671811 0.17077717
000020 a7 75 81 be ae 29 69 bd 02 64 47 3c 3f e5 16 3e
       -0.25285074 -0.056924514 0.01216984 0.14735888
000030 96 0f f4 bd b9 cd 0b 3e 99 72 2a be 32 e3 81 be
       -0.11917035 0.13652696 -0.16645278 -0.2536865
000040 aa f7 3e 3e 13 24 55 be 99 91 95 3c dd b7 c2 bd
       0.18649164 -0.20814542 0.018257903 -0.095077254
000050 57 dd 19 bd ac 8f 76 bd d1 39 d8 3d a3 4b 38 bd
       -0.0375646 -0.06019561 0.105579026 -0.044994008
000060 39 d2 56 3e 8e e8 2b bd f5 d1 2e 3e 5d 9e 2f 3e
       0.20978631 -0.04196983 0.1707228 0.17150255
000070 e7 48 d9 3d 2c b0 1f be bf 17 47 3e b5 8f 12 bd
       0.10609608 -0.15594548 0.19442652 -0.03578158
000080 7d 02 84 bc 4b 3f 87 3c 16 26 80 3e b6 ad d9 bd
       -0.016114468 0.016509673 0.25029057 -0.10628836
000090 82 e7 c8 bd cf 39 b9 bd d1 2f c5 bd 01 36 2d be
       -0.098097816 -0.09044229 -0.09628261 -0.16915132
0000a0 dc 96 d7 bd 05 06 ae 3d d2 7d eb bd 9d af b1 bd
       -0.10526821 0.08497242 -0.11498608 -0.08676074
0000b0 7c 59 3a 3a f4 90 f7 3d d1 0a 20 bd a9 25 8d 3d
       0.0007108671 0.120881945 -0.039072815 0.06891949
0000c0 db bf 93 3d e8 da d4 3d b7 30 b4 3c c9 dd 93 bd
       0.07214328 0.103933156 0.021995885 -0.072200365
0000d0 9d 3d ea bc de fa 80 3c 82 19 3a 3e 4b a5 53 3d
       -0.028593833 0.015744623 0.18173793 0.051671308
0000e0 27 c3 2a 3e 4e cd e5 3d b2 9e 0d 3e 55 f4 22 be
       0.16676007 0.112207994 0.13830069 -0.15913518
0000f0 94 8a 6f be 76 2c 40 be 9c 4f 6b be 91 9b 03 3e
       -0.23392707 -0.1876696 -0.22979587 0.12852313
000100 0e 74 60 be bf 23 2a 3e 89 9f 20 be 03 a1 4f bc
       -0.21919271 0.16615199 -0.15685858 -0.0126726655
000110 47 76 6f bd 44 9a a0 bd 8f 3f 39 bd f5 d4 f1 3d
       -0.058462407 -0.07841924 -0.04522663 0.118081965
000120 80 36 3a 3c 7e 78 c9 bd 41 01 10 be c4 ca 73 3e
       0.011365533 -0.09837435 -0.14062978 0.23807818
000130 d1 93 15 bd c4 f2 b7 3d b2 37 8a bd 07 32 81 be
       -0.03651792 0.08981851 -0.06748904 -0.2523348
000140 1d 78 a1 bd f6 c0 5b bd 67 fc 71 be 60 1d 3f be
       -0.07884238 -0.05365082 -0.2363144 -0.1866355
000150 0c 3c 1e 3e 09 cb 7c be 1b db 0c bd 4f c0 36 3e
       0.15452594 -0.24686827 -0.034388643 0.17846797
000160 a7 14 af 3d 98 be 26 be be 21 13 be 68 54 2c 3e
       0.08548861 -0.16283643 -0.1436834 0.16829073
000170 7c b4 0a bc 48 ef 88 bd 33 1d 35 be 51 6d cd bd
       -0.008465882 -0.06686264 -0.1768692 -0.10030616
000180 8e 49 c7 bd fd c1 42 bc 5a 22 27 3e df 39 61 bd
       -0.09730826 -0.011887071 0.16321698 -0.05498683
000190 31 cb 22 be 67 3b 23 bd cf 6a 48 be a0 96 77 3d
       -0.15897824 -0.039851572 -0.19571994 0.06044638
0001a0 ed ee c6 bd 70 4f 8a 3e 84 79 e9 bd b9 12 2c bd
       -0.0971354 0.2701373 -0.114001304 -0.042010043
0001b0 d8 6f e9 bd 25 02 4f 3e e9 c1 d0 bd 0a c0 51 3e
       -0.113982856 0.20215662 -0.101932354 0.20483413
0001c0 8f 6e 06 bd 7a f3 f2 3d a8 6c 29 3e 67 95 bf 3d
       -0.03282028 0.11862846 0.16545355 0.09354668
0001d0 79 96 5e be c8 55 33 3e ff c5 ff bc 6e aa 0b bd
       -0.21737088 0.17513192 -0.031222342 -0.03409808
0001e0 81 ed 35 be d5 6c 3e be 24 36 2c be 79 f3 da bd
       -0.17766382 -0.18596204 -0.16817528 -0.1069097
0001f0 0a 1e 19 3e de ec 06 3e b4 c2 52 3e ea e6 1f 3e
       0.14952865 0.13176295 0.20582086 0.1561543
000200 c4 56 6b 3c 75 ae 5e be c3 23 16 bd c2 8e 59 be
       0.014363948 -0.21746238 -0.0366552 -0.21245864
000210 8c e9 d9 3d d5 b2 10 be 67 ef 7f be 1e 4a a9 bc
       0.10640249 -0.14130719 -0.24993668 -0.020665225
000220 b9 bd 51 3d a2 28 cd bd 59 f5 2b 3e 37 50 30 3e
       0.051206324 -0.10017516 0.16792811 0.172181
000230 72 bb 3d bd 93 8d 7f bd cb 86 a7 bd 26 86 bd bd
       -0.04632134 -0.062390875 -0.081800066 -0.092541024
000240 af 8f 02 3e e0 4f 0d bc fa 95 3c be 0b c8 4a be
       0.12750123 -0.008625001 -0.18416587 -0.19802873
000250 12 d6 cf 3d bb 6a 22 3e 99 63 67 bd 76 c0 64 be
       0.101482525 0.15861027 -0.056491468 -0.22339043
000260 1b 9e 16 bd d4 8b 98 bb e0 1c d4 3d fa 93 5f 3d
       -0.036771875 -0.0046553407 0.1035707 0.05458448
000270 cb d8 15 be a5 8f 19 be 69 9d 98 bd c5 00 80 3e
       -0.14633481 -0.14996202 -0.074518986 0.25000587
000280 b8 40 4b bb ee fe 2d be aa 3c 4a bc 80 3b 27 bc
       -0.0031013917 -0.16991779 -0.012343565 -0.010207057
000290 a6 2f 25 bd 2e 93 32 3e 79 1b 41 be 21 bb a7 3a
       -0.040328644 0.17438957 -0.18858136 0.0012796858
0002a0 b9 5e a2 bd 96 fe 50 3d c8 e8 32 3e 1e 5c 3b 3e
       -0.07928223 0.051024042 0.17471611 0.18296859
0002b0 c6 d9 c6 bd 8d d0 21 3e 86 15 f5 3d e2 95 0c be
       -0.09709506 0.15802212 0.11966996 -0.13729051
0002c0 00 f1 6e 3d fc c5 48 bd 5f f2 3d bd 05 2f e7 3c
       0.058335304 -0.049016938 -0.04637372 0.028220663
0002d0 22 90 27 be f1 c8 66 be 0a c9 13 3e 36 39 fd 3d
       -0.16363576 -0.2253759 0.14432159 0.12364428
0002e0 2b 86 7f 3e 19 f5 e2 3d f1 51 55 be 3a 10 0f bd
       0.24953525 0.11081905 -0.2083204 -0.034927584
0002f0 c6 6f 48 3e 84 72 2b be 89 91 76 3d ed 8c 0b 3e
       0.19573888 -0.16742903 0.060197387 0.13627978
000300 56 73 a5 bd 43 f7 60 be 3d 9a 89 bd 87 19 69 be
       -0.08078639 -0.21969323 -0.06718872 -0.22763644
000310 fc a7 50 be 0a 78 45 3e 9f e4 56 be 46 84 d4 3d
       -0.20376581 0.19284073 -0.2098565 0.10376792
000320 b3 f6 8d 3d a9 9b b3 3d 65 ff 59 3e eb 70 27 3e
       0.0693182 0.08769924 0.21288832 0.16351669
000330 6e a0 35 3d 12 09 ee bd ce 7a 62 3e 6c 2f 25 be
       0.04434245 -0.11622824 0.22117159 -0.16131371
000340 da fa d4 bd 92 78 02 bd 66 c6 47 be f2 fe 8d 3e
       -0.10399409 -0.031853266 -0.19509277 0.2773357
000350 9e 1d 3c 3e 79 fd 06 be 9d 99 0c 3e ce d8 98 3d
       0.18370673 -0.1318263 0.13730474 0.07463227
000360 58 49 15 3d 97 47 2d bd 58 45 6c 3d 5d 20 4b be
       0.0364469 -0.0423046 0.05768332 -0.19836564
000370 be b8 b1 3c 41 e2 4a 3e 89 0e 42 3d 5b 22 c7 bd
       0.021694537 0.19812872 0.047377143 -0.0972335
000380 66 ba 8a be 0a f1 a5 3d f3 b5 f2 bd 70 a2 62 be
       -0.27095336 0.08102615 -0.1185111 -0.22132277
000390 cc 14 63 be 94 cf 24 be 83 dc b0 3d e5 d3 3f 3e
       -0.22175902 -0.1609481 0.08635809 0.18733175
0003a0 6a 91 6c be 4c 97 52 3c 06 74 0e 3e 87 22 64 3e
       -0.23102346 0.012853455 0.13911447 0.22278796
0003b0 de b2 84 3e 48 16 3f be 0f da 91 bd 9e b3 b2 bd
       0.25917715 -0.18660843 -0.071216695 -0.087256655
0003c0 5f a1 5e 3e 69 e0 28 3e cb 39 67 3e 55 17 fa 3d
       0.21741246 0.16491856 0.2258064 0.122114815
0003d0 47 a2 7e 3e 1c 7c 89 3d 23 f5 85 bc 8b e9 08 bd
       0.24866591 0.06713125 -0.016352242 -0.03342585
0003e0 2e dc 6b 3e c1 5c 81 be e7 36 c9 3c 6d 04 1c 3e
       0.2303321 -0.25266078 0.024562312 0.15236063
0003f0 6e 66 89 bd dc 6d be bd 17 54 d1 3d 55 a8 08 3e
       -0.0670899 -0.09298298 0.10221117 0.13345464

arith.constant27 f4 [32, 32]
000000 96 dc 18 be 18 3f e7 3d ea e1 77 3e 06 d1 61 3e
       -0.14927897 0.11291331 0.24207273 0.22052392
000010 d2 d5 05 3e 12 7b b6 3e be a6 31 be 40 a0 51 be
       0.13069847 0.3564077 -0.17348763 -0.20471287
000020 4f f1 47 bd d3 28 db 3d d6 ea f0 bd 67 4e 5e bd
       -0.048814114 0.10701146 -0.117635414 -0.05427399
000030 44 d3 75 bd f1 ec 98 3e 16 f6 d6 3d 95 75 8c 3e
       -0.06001593 0.29868272 0.10496156 0.27433458
000040 7f f9 71 3d 19 8b 76 3d 68 5b 8f bd f1 82 3d 3e
       0.05907583 0.060191248 -0.06999856 0.18506981
000050 d7 98 49 3e e5 4d f1 3c 2e 42 42 be 4d ba 56 be
       0.1968721 0.029456088 -0.18970558 -0.20969506
000060 34 ca 53 be c0 c7 82 3e 7f 88 01 be 27 72 91 bd
       -0.20682603 0.25543022 -0.12649725 -0.07101851
000070 1b 69 b8 bd 3c 9a 46 3e a0 6e 29 3e bd 91 07 bd
       -0.09004422 0.19394773 0.16546106 -0.03309797
000080 87 e0 27 bd 26 30 a6 3e cd 3e 23 be 8d f1 85 3e
       -0.04098561 0.3245861 -0.15941925 0.2616085
000090 8a 0f e8 3d 9f 6b 22 3e 9c 22 c5 3d a5 a2 55 be
       0.11331089 0.15861367 0.09625742 -0.20862825
0000a0 2a 47 08 3e 3d 33 72 bd b1 78 10 be eb 53 5f 3e
       0.13308397 -0.059130896 -0.1410854 0.21809356
0000b0 c9 dd 6e bc 47 96 01 3d a0 ef 17 be 8a 4c db bd
       -0.014579245 0.031637456 -0.14837503 -0.10707958
0000c0 b8 b6 a2 3e 14 5c de 3c 59 9b 27 3e 18 07 db bd
       0.31780028 0.027143516 0.16367854 -0.106947124
0000d0 82 af a6 bd 19 c0 a9 3e 72 6d 3b be 64 96 32 3b
       -0.08138944 0.3315437 -0.18303469 0.0027250284
0000e0 bc cf 4d be b5 00 61 be bc 31 e5 3e e0 4b 5e bd
       -0.20098776 -0.21972926 0.44764507 -0.05427158
0000f0 b1 2f 3d 3e 2f bf 42 bc 8f 71 c0 bd b0 06 55 be
       0.18475224 -0.011886402 -0.093966596 -0.20803332
000100 e2 ab d0 3d 29 a0 8f be e4 15 1a 3e 3c 85 3e bc
       0.10189034 -0.2805188 0.15047413 -0.011628445
000110 e2 d7 4c 3e dd 51 a1 be 2e 67 a4 bd c2 5a 0a 3e
       0.20004228 -0.3150777 -0.080274925 0.13511184
000120 07 a1 6f be 83 79 66 be 8f 5e 95 bd 02 0b f0 bd
       -0.23401271 -0.2250729 -0.07293426 -0.117208496
000130 36 b7 28 3e 95 74 15 3e 3e 72 6c be 51 94 7b bd
       0.1647614 0.14595254 -0.23090455 -0.061420742
000140 38 aa 0a bc 30 dd 87 bd 7d 0d 27 be e5 af 97 3d
       -0.008463435 -0.06633985 -0.16313739 0.07406596
000150 52 b2 13 3e e3 8b a6 3e 87 6e 51 3e 5c dc 38 bd
       0.14423493 0.325286 0.20452319 -0.045132026
000160 03 a2 6d 3d d8 25 83 3e d8 bf 6d 3e cd 04 a3 3d
       0.058015835 0.2561481 0.23217714 0.079599
000170 38 3e e9 3d 4f d3 11 bd ea e7 4b 3d 40 ad e7 bc
       0.113888204 -0.03560191 0.049781717 -0.028280854
000180 65 a6 fd 3e ea bc 6a 3e 1d 54 c7 bd 7e d4 7a 3e
       0.4954101 0.22923627 -0.0973284 0.24495122
000190 bb 5d 33 bc eb 28 23 be b8 7b 7e 3e f3 71 b8 bd
       -0.01094764 -0.15933578 0.24851882 -0.09006109
0001a0 75 46 55 3e 16 76 50 3d 7f 90 8a 3d 13 1c cb bd
       0.20827658 0.050893866 0.06765842 -0.09917464
0001b0 33 14 35 3b 1b a7 9e 3c 21 3f 55 be b6 ca 11 3e
       0.0027630448 0.019366791 -0.20824863 0.14237484
0001c0 9a 8f cb bb e3 ae 70 bd ae fe 69 be 87 7b 81 3e
       -0.006212187 -0.058760535 -0.22851059 0.25289556
0001d0 63 56 4b bd e5 d0 9e bd 92 b1 13 be 99 eb 18 3e
       -0.04964293 -0.07754687 -0.14423206 0.14933623
0001e0 25 53 00 3e a0 ef b7 3d c4 39 80 bd 49 42 60 3e
       0.12531717 0.08981252 -0.06261018 0.21900286
0001f0 76 b7 3c be cc d5 0f 3c 71 ae 3d 3e 28 80 87 3d
       -0.1842936 0.0087790005 0.18523575 0.06616241
000200 5e 4f 33 be e4 db f2 3d 44 94 3c 3c 2f 7e 83 bd
       -0.17510745 0.11858347 0.011509959 -0.06420552
000210 9d 9e 12 bd 06 f5 80 be e0 29 f1 bd f9 eb f0 bc
       -0.035795797 -0.25186938 -0.11775565 -0.029409396
000220 5c 6e 48 3e ab 05 be bd 31 2b f7 bd 5c 33 9c be
       0.19573349 -0.09278425 -0.12068785 -0.30507934
000230 18 ee dd bd 22 d5 86 bd 8d bb 4d bc b6 65 b0 bd
       -0.108364284 -0.065836206 -0.012556923 -0.0861315
000240 a4 6e 28 be ec b0 68 ba 6a c7 29 be 95 95 b2 be
       -0.16448456 -0.0008876461 -0.16579977 -0.34879747
000250 5c c4 b9 3d c1 d8 26 3e 8b 4c d1 be 35 83 17 3e
       0.09070656 0.16293623 -0.4087871 0.14796145
000260 31 bd 11 3e 89 fe e9 bd ae 11 cc 3d ba 3d 8f be
       0.14232327 -0.11425502 0.0996431 -0.2797678
000270 13 95 3e be 51 4c 7c 3e 07 4d 12 3e 41 1f df 3a
       -0.18611555 0.24638487 0.14287196 0.0017022864
000280 1b 00 76 bd b6 61 75 3e 4e 99 82 be 69 f5 3e bd
       -0.060058694 0.23963055 -0.25507587 -0.04662076
000290 72 00 89 3e fa 08 81 3d f7 d3 cb 3d e3 4b 86 3d
       0.26758152 0.0630054 0.099525385 0.06557443
0002a0 6a d3 29 be d8 8b a5 3d 1d 4a a2 3e f6 79 a5 bb
       -0.16584554 0.08083314 0.3169717 -0.0050499393
0002b0 ee 13 c2 3e 92 4e 5b 3e 8b 41 53 3e 62 34 04 3d
       0.3790583 0.21416691 0.20630471 0.03227652
0002c0 91 a2 6d be be a1 15 bd f2 1e 01 bb 36 16 50 be
       -0.23206545 -0.036531202 -0.0019702283 -0.20320973
0002d0 1a 5d 85 3d c1 75 84 3d 44 73 24 be bf 00 6d 3e
       0.06511898 0.06467772 -0.16059595 0.23144816
0002e0 04 4e 93 be 54 b4 5e 3e f9 37 a4 3d a2 e6 f9 3d
       -0.2877046 0.21748477 0.080184884 0.12202193
0002f0 b0 40 aa bd 3c 82 9e 3c 0c 5f 0b be 02 e4 5a bd
       -0.083131194 0.01934921 -0.13610476 -0.0534401
000300 21 a2 fc 3d a4 52 9f 3d da a3 08 bc 73 4b eb bd
       0.12335611 0.07779434 -0.0083398465 -0.11489
000310 cc 75 69 be 51 00 f5 3c 1b 10 0b be 24 d5 62 bc
       -0.22798842 0.029907377 -0.13580362 -0.013844762
000320 13 89 7b be dc 52 f3 be 8b e2 86 be 60 1b 8e bd
       -0.24564008 -0.47524154 -0.26344714 -0.06938815
000330 88 c0 24 be 5e 99 64 3e 8c 4d b7 3e bf bf 57 3d
       -0.1608907 0.2232413 0.3580135 0.052673098
000340 89 f0 3f 3e 53 35 1e bd 30 50 ac bd 0d 57 69 3d
       0.187441 -0.038625073 -0.08413732 0.056967784
000350 4c c4 ef 3c 81 77 3c be 99 4c 87 3c b0 1e 9e 3e
       0.029268406 -0.18404962 0.016516017 0.30882788
000360 a2 48 53 3d d1 29 95 bd bf 31 20 3e 4c e1 2d 3e
       0.05158294 -0.072833665 0.15643977 0.16980475
000370 ff 74 1d be 33 87 7b be aa 40 cd bd 1c c2 c7 3c
       -0.15376662 -0.24563293 -0.10022099 0.02438455
000380 80 37 95 3e 23 d2 a1 be 03 b7 6c be cb 91 9d 3e
       0.29143906 -0.31605634 -0.23116688 0.30775294
000390 2e 86 ca bd a7 da 4f 3e aa c1 ca 3a 75 cc c4 bc
       -0.09888874 0.20298253 0.0015469093 -0.024023274
0003a0 44 03 35 be 3a 39 88 be 1b 1a 79 3d 10 d0 4b bd
       -0.17677027 -0.2660616 0.06081591 -0.04975897
0003b0 75 2b 85 bd f7 4b a6 be 17 c4 93 3d 42 d5 14 3e
       -0.065024294 -0.32479832 0.072151355 0.14534476
0003c0 09 e7 7f 3c c9 d5 51 3e 85 76 0f 3d c1 f2 6f be
       0.015619048 0.20491709 0.03502514 -0.23432447
0003d0 ee 28 10 3e 2b 44 25 3e d3 7a 3c 3c 7e 6d 1d be
       0.14078113 0.16139285 0.011503893 -0.15373799
0003e0 2e 90 43 3d 6f ab 42 3e 4e 89 37 3d ab 96 79 bd
       0.047744922 0.19010709 0.04480868 -0.060934704
0003f0 a0 ad 79 be 8a 98 2f bd 8c a8 18 bd 27 b6 34 3d
       -0.24382639 -0.042870082 -0.037270114 0.044119027

arith.constant28 f4 [32]
000000 2a ee 18 bd 53 70 1b bd 5d cc 5a 3d 7b 72 f7 3c
       -0.037336506 -0.037948918 0.053417552 0.030205956
000010 73 c1 d6 bc ed 17 1c bd c1 bb c6 3c dd 80 50 bb
       -0.02621529 -0.038108755 0.02425945 -0.003181509
000020 35 48 9a bd 0e bc eb bc 00 de 57 3d 42 b0 e6 3c
       -0.07533304 -0.028776195 0.05270195 0.028160218
000030 2e 3f 97 bc 99 a6 0f bd 81 f9 0b bc 6a 36 21 3d
       -0.018462744 -0.03507099 -0.008543373 0.039358534
000040 7b 9f 85 bd 57 b9 27 3d 23 67 12 3d 0c a4 0a 3d
       -0.06524559 0.04094824 0.03574289 0.033847854
000050 3b 88 4d 3d 10 33 2e 3c ac 0d 95 3d 8e d0 36 3c
       0.050178748 0.010632291 0.07277998 0.011158122
000060 50 6d 65 3d 71 e0 13 bc 8f d0 31 bd cf d3 a3 3d
       0.05601245 -0.009025679 -0.043411788 0.07999384
000070 c8 df c2 bc a5 81 8e bd fe 37 81 bc 28 cb 45 3d
       -0.023788348 -0.069583215 -0.01577377 0.048289448
