backend/nfc_hospital_system/ml_models/hospital_lstm.tflite (tflite, 153252 bytes, 9 tensors)

arith.constant3 f4 [1, 16]
000000 26 47 d6 be b5 fa bb 3e a4 9c c5 3e 59 6a 23 3d
       -0.41851157 0.36714712 0.3859607 0.039896343
000010 37 a3 7d be eb 90 7d 3e cf 17 53 3e a7 79 06 3f
       -0.24769293 0.24762313 0.20614551 0.52529377
000020 8f e7 0d 3e 93 d0 b3 3e 44 13 bd be fe f7 06 be
       0.13857864 0.35120067 -0.3692876 -0.13180539
000030 75 3f c7 3e 5c 03 86 bc f5 1d 03 bf 4f 9e f9 3d
       0.389156 -0.016359024 -0.51217586 0.12188398

arith.constant4 f4 [16, 32]
000000 18 95 27 3e 5f bc 0a be 17 02 4c 3e 7c e1 65 bc
       0.16365469 -0.1354842 0.19922672 -0.01403081
000010 d6 26 54 be eb 48 9d bd 37 c7 a8 3e da 1b 1c bc
       -0.2071794 -0.076799236 0.3296449 -0.009528125
000020 8e 68 8a 3e 38 6b 32 be 94 75 61 bd cc ec 4c be
       0.27032894 -0.17423713 -0.055043772 -0.20012206
000030 1f ad eb bb a3 39 ae be b9 ea 81 be 90 04 fa bc
       -0.0071922685 -0.34028348 -0.25374392 -0.030519754
000040 6b a9 5b bd 27 ab 86 be 05 95 12 be bc e8 68 3e
       -0.053628366 -0.26302454 -0.14314659 0.22745031
000050 55 81 5e 3e 2d 33 ac be 44 c5 a3 bd 5c 12 8f 3e
       0.21729024 -0.33632794 -0.0799661 0.27943695
000060 9e 5b 8a 3d 41 a9 88 be 2f 82 bd bd 8d 72 c6 3d
       0.06755756 -0.2669163 -0.09253346 0.096898176
000070 d6 a1 8a be 2e 13 de bd 5e 3c 60 be 76 b7 aa be
       -0.27076596 -0.10843502 -0.21898028 -0.33343095
000080 52 bc 79 3e 07 f7 30 bd 5a c2 9f 3e 64 63 db bd
       0.24388245 -0.043204334 0.31202966 -0.10712317
000090 23 f2 bd 3d 6c 7c c3 be c2 85 22 3e 94 b3 81 3e
       0.092746995 -0.38180864 0.15871337 0.2533232
0000a0 78 40 4c be e8 88 37 be 3c d9 82 bd 5e 8b f4 3c
       -0.19946468 -0.1792332 -0.063890904 0.029851612
0000b0 6f 27 88 bd 16 ae 1a bd 97 ee 59 bc b7 35 fd 3c
       -0.06648146 -0.037763678 -0.013301513 0.030909402
0000c0 20 a5 8a 3d 8d 84 6b bc cd 05 3d 3d 40 1a a3 3e
       0.06769776 -0.014374864 0.04614811 0.31855965
0000d0 82 55 ad be 7c 7c 10 bd f0 86 ea bd 52 31 63 3d
       -0.338543 -0.035274968 -0.114515185 0.055466957
0000e0 80 27 88 bd 47 74 1e 3e 3d 93 7b be f1 82 c9 3d
       -0.06648159 0.15474044 -0.24567886 0.09839428
0000f0 55 ba 8f 3e 15 f7 9e bd 6b 83 96 be be 74 5f 3e
       0.28071848 -0.07761971 -0.2939714 0.21821877
000100 67 ad 06 bd 88 46 87 be 37 99 84 3e 2d 45 14 be
       -0.032880213 -0.26421 0.25898144 -0.14479513
000110 e2 c6 59 bd be 6e 8c 3e 53 25 0e be ae ff a4 3e
       -0.053168185 0.2742824 -0.13881426 0.32226318
000120 26 f8 a5 be ec 4b 4c 3e 06 30 95 3e b5 ed f5 3d
       -0.32415885 0.19950837 0.291382 0.1200823
000130 46 29 5a 3e 57 4e 01 be f4 b1 74 be 05 c9 99 3e
       0.21304807 -0.1262754 -0.23896009 0.30036178
000140 b9 6e 8b 3d 0d 3f 09 be 1a 0c 2e bd 2a e5 e7 bd
       0.06808228 -0.13402958 -0.04249201 -0.113230065
000150 fa 98 0e 3e 05 de 52 be 8b 09 a2 be 17 ff 99 3e
       0.13925543 -0.20592506 -0.31647906 0.3007743
000160 36 02 9d be b9 b2 56 be 49 c5 6e be 00 c1 89 3e
       -0.3066575 -0.20966615 -0.23317446 0.2690506
000170 e1 ee a9 be 61 95 f5 bd 0d 3b 8e 3e 06 c4 94 3e
       -0.33190063 -0.119913824 0.27779427 0.29055804
000180 ab fc 51 be 5d 4f 9b 3b 4f b8 bb be d4 c0 a4 3e
       -0.20506541 0.0047396854 -0.36664054 0.32178366
000190 03 d7 b6 3d 4e eb fa bd ca 28 84 be 0a 9c 81 be
       0.08927729 -0.12251912 -0.2581237 -0.2531436
0001a0 d7 10 a8 3d b7 f5 f3 bd 0d b5 08 be 3a 1b 4e be
       0.08206337 -0.11912101 -0.13350315 -0.20127574
0001b0 1b 82 20 be 29 9c a7 bd 40 82 0d be 7e a5 77 3e
       -0.15674631 -0.08184082 -0.13819218 0.24184224
0001c0 e2 1a 9b be 94 59 51 3c 1f 8b f8 bd 19 98 60 bd
       -0.30293947 0.012777705 -0.1213591 -0.05483255
0001d0 a6 81 a6 be dd 7f 79 be 69 6d 02 bc 15 92 11 3e
       -0.3252079 -0.24365182 -0.007960656 0.14215882
0001e0 07 11 53 3d 18 6a 3f 3e 8e 2d 7c 3e 68 b3 3c 3e
       0.05152991 0.18692815 0.24626753 0.18427813
0001f0 00 ca 26 bc 5a e6 ad be 29 b2 7f be 09 b2 79 3d
       -0.0101799965 -0.33964807 -0.24970306 0.060960803
000200 ec ac 99 3e 28 f1 9a be 40 44 46 be e8 c8 94 be
       0.3001474 -0.30262113 -0.19361973 -0.2905953
000210 25 fe e1 bc 97 4f 8e bd 26 92 11 be a9 dd 9a be
       -0.027587006 -0.06948774 -0.14215907 -0.30247238
000220 75 06 b8 bd 2e e1 cd bd 5d 16 a9 bb e1 02 0b be
       -0.089856066 -0.10052715 -0.0051601366 -0.13575317
000230 3d b1 f4 bd a1 cd c6 be 0d 73 27 3e 71 94 28 be
       -0.11947868 -0.38828757 0.16352482 -0.16462876
000240 6a 2f 0c bd 7a f6 8b 3e b0 0a 11 be 8d 91 21 bd
       -0.034224905 0.27336484 -0.14164233 -0.03944545
000250 d0 9b 99 bc 08 e6 6d be 73 20 90 be 41 d6 7a 3c
       -0.018751055 -0.23232281 -0.28149757 0.015309871
000260 cf 02 b1 3d 1d 57 b2 bb 4b 99 fa 3c 1a ec 1f be
       0.08643114 -0.0054425136 0.030590674 -0.1561741
000270 93 10 7b 3e db 71 a1 3d 87 cb a3 3d db 9d 7d 3e
       0.24518041 0.07883044 0.07997804 0.24767248
000280 a3 0b a1 bd 0b 49 92 be e4 b0 a5 3e 10 0a b1 be
       -0.07863548 -0.28571352 0.3236152 -0.3457799
000290 b4 29 2c be da d0 55 3c cd 71 b2 3d 5c 30 8b bd
       -0.16812783 0.013050282 0.08713112 -0.06796333
0002a0 64 d7 78 3e ba d4 44 be 46 86 fd 3d dd 10 cb bd
       0.24300915 -0.19221774 0.12379126 -0.09915326
0002b0 6c 9f 71 be 09 1a 9f 3e e0 59 df 3d f5 0f 3e be
       -0.23595971 0.3107455 0.10905814 -0.18560775
0002c0 49 5f 84 bd 78 7e 06 3e cc a5 71 be d1 58 9f bd
       -0.06463487 0.13134181 -0.23598403 -0.07780612
0002d0 74 ce dd 3d b9 8f 88 3e 0f df ec 3d 71 52 6b 3d
       0.108303934 0.26672152 0.115659826 0.05745167
0002e0 58 35 60 ba 47 5d 32 3e d5 6b 01 3d 16 e7 24 be
       -0.0008552871 0.17418395 0.031596977 -0.16103777
0002f0 0a 16 ad be 25 10 c0 3e f0 b5 2d 3e ec 16 30 bc
       -0.33805877 0.37512317 0.16963935 -0.0107476525
000300 f2 52 87 bd 26 11 21 be 8f c5 69 be e8 7d 31 3d
       -0.066076174 -0.15729198 -0.22829269 0.043332964
000310 ec 61 89 3d bb b7 34 3d ad b8 97 be 1c b4 a8 bd
       0.0670813 0.04412053 -0.29633084 -0.08237478
000320 b8 50 97 bc 94 18 b8 3e 0d 3d 83 3e 64 6f 55 be
       -0.018471107 0.35956252 0.25632516 -0.20843273
000330 e6 3e 0d be b5 ff 0c bc 3f 93 98 3d 60 3b aa bc
       -0.13793525 -0.008605887 0.0744996 -0.020780265
000340 5a 94 b8 3e 0d 7c 4e be 6a df 28 3e 71 ee 9b b9
       0.36050683 -0.20164509 0.16491476 -0.00029741557
000350 01 b1 36 3e fa 96 32 3e 87 d8 e8 3d f9 76 80 3e
       0.17840959 0.17440405 0.11369424 0.2509077
000360 bd 75 8a 3e c2 7b 42 3e fc 63 1c bc 7f 4d 9e 3e
       0.27042952 0.18992522 -0.0095453225 0.309185
000370 2b 2e dd 3d d0 d6 a3 3e d0 07 97 be 19 f5 38 3e
       0.107998215 0.31999826 -0.29498148 0.18062247
000380 0c 38 9f 3d fe 11 3f be 03 8a a3 be 0e 29 61 3e
       0.07774362 -0.18659207 -0.31941232 0.21988317
000390 c0 ed 6e 3e c3 cf 86 be 71 37 5d be eb 96 b5 bd
       0.23332882 -0.26330385 -0.2160318 -0.08866676
0003a0 70 d2 12 be 1e a6 a6 3e 12 fa 7c 3e 98 47 8a bd
       -0.14338088 0.32548612 0.24704769 -0.06751937
0003b0 18 f0 4c be cd 5f 35 3c eb 7e a6 be db d2 2b be
       -0.20013463 0.011070204 -0.32518706 -0.16779654
0003c0 04 91 3a 3d e9 d6 98 be 0b 69 2a 3e 4f cf 59 bd
       0.045548454 -0.29851463 0.16641633 -0.05317622
0003d0 10 90 b5 3d 7d 27 5a bd 5f ad b8 be 74 ab 8e 3e
       0.08865368 -0.053260315 -0.36069772 0.27865183
0003e0 d6 e6 10 be 6d 58 73 3e 13 53 87 3e 36 c2 19 bd
       -0.14150557 0.237642 0.26430568 -0.03753873
0003f0 99 50 0f 3e b9 16 2f be b3 f7 28 3e 07 06 3a 3e
       0.1399559 -0.17098512 0.1650074 0.18166362

arith.constant6 f4 [16]
000000 57 8a 55 bd 89 b8 0f 3d ce 4f 36 3d 9a 5c 15 3d
       -0.052133884 0.035088096 0.0445097 0.036465265
000010 f3 c3 95 bc 6e 0c 52 3d ae 47 3c 3d 6b 52 0e 3c
       -0.018281912 0.051281385 0.045966797 0.008686642
000020 d7 03 1e 3d ec fc 65 3d 12 a0 74 bd 5c 3d 49 bd
       0.03857788 0.05614941 -0.059722967 -0.049130782
000030 0d ce 39 3d f9 01 2f bd 7d e6 49 bd 6f 9f e0 3c
       0.04536252 -0.04272649 -0.049292076 0.027419774

arith.constant20 f4 [256, 15]
000000 d1 fe 3c bc c1 77 5a bd e5 5a f1 3d 20 2e 34 be
       -0.011535362 -0.053336862 0.11784915 -0.1759572
000010 c8 16 44 be a3 e1 29 3d a4 93 3b 3d 49 6d 50 3d
       -0.19149315 0.04147495 0.045795098 0.050885472
000020 13 b6 c9 bd 21 0e 41 3c ce 9e 15 be d9 cb 50 3d
       -0.09849181 0.011783154 -0.1461136 0.050975654
000030 7a 05 cd bd b6 a3 f6 3d 23 44 0c 3e 15 ba d1 bd
       -0.1001081 0.12042944 0.13697867 -0.102405705
000040 10 35 be 3d c4 e9 4b bd 32 84 d8 bb c3 77 ee 3d
       0.092874646 -0.049783483 -0.006607556 0.116439365
000050 75 54 ff bc 30 73 80 3c 32 60 09 3e c8 96 55 3d
       -0.031168202 0.015679926 0.13415602 0.05214575
000060 00 4a af 3b da 7a 45 3c dc ba 80 3d 81 c3 48 bd
       0.0053493977 0.012053216 0.062856406 -0.049014572
000070 16 d1 fa bd 3e c5 c5 bc 05 dc 4b 3d b3 82 04 be
       -0.12246911 -0.024141904 0.049770374 -0.12940483
000080 06 66 ab 3d 28 f2 82 bb 70 cb 30 be ed fc 25 be
       0.08369069 -0.0039961524 -0.17265105 -0.16209765
000090 cd d6 5d 3d aa 96 c8 3d 26 a5 96 3c 91 cd c1 bd
       0.054159928 0.09794362 0.018389296 -0.09463037
0000a0 4b 0c 8f 3d f4 38 b7 3c a2 8a b2 3d b5 ac 00 be
       0.069847666 0.022366025 0.08717848 -0.12565883
0000b0 dd fb a1 3d 35 3d 02 3d 72 76 79 3d 3a fe 36 be
       0.07909367 0.031796653 0.060903974 -0.17870417
0000c0 67 78 3e bd 87 81 ce 3c fc 77 ac 3d 34 af a7 3c
       -0.046501543 0.025208248 0.08421323 0.020469286
0000d0 ec d5 a0 3d d2 21 36 be 0b 62 ad bd c1 9e 96 bd
       0.07853302 -0.17786339 -0.08465966 -0.07354499
0000e0 21 a1 cd 3c 35 ab 2b be 07 60 b1 bc 33 f4 b8 bd
       0.025101246 -0.16764529 -0.021652235 -0.09030952
0000f0 8d c9 04 be 55 a3 c6 3c f3 ba fe 3c 43 cd fc 3b
       -0.1296751 0.024247805 0.031095004 0.007714899
000100 06 dc e2 3c a2 e0 40 be 20 53 01 be 82 88 12 be
       0.027692806 -0.1883569 -0.12629366 -0.14309886
000110 7d 4b ee bd c5 bf ad bd 33 85 02 3e 40 53 43 3d
       -0.11635492 -0.08483843 0.12746124 0.047686815
000120 4d 09 0f be 08 c3 a5 bd 2f 5a c8 bb aa 7a 4c 3e
       -0.13968392 -0.0809384 -0.0061142663 0.19968668
000130 f9 1a 23 3d 5e b9 b9 3d df 40 00 3e 77 a2 d2 bd
       0.039820645 0.09068559 0.12524746 -0.10284894
000140 ea cd 1a bc 53 69 a3 3d 9f 59 88 3d a1 4f c6 bc
       -0.009448508 0.079790734 0.06657719 -0.024207892
000150 00 0d f0 bd 7d ee 24 bd b5 05 13 3e 3f ff 1a 3d
       -0.117212296 -0.040266503 0.14357646 0.037841078
000160 11 35 27 3d fe a2 67 3d 49 56 42 be 7f 69 fb bd
       0.040822092 0.056551926 -0.18978228 -0.12275981
000170 e9 8d 8f bd e6 03 b0 3d 8c b2 e3 3d f3 22 24 be
       -0.07009489 0.085944936 0.111180395 -0.16028957
000180 fe 9f 15 be d3 4d d8 bb 11 f1 1d 3e a1 ad 1c be
       -0.14611813 -0.0066010742 0.15423991 -0.15300609
000190 2f bb 53 3d 75 ae 10 be 93 66 3b bd 99 92 10 be
       0.051692184 -0.1412905 -0.04575212 -0.14118423
0001a0 fe 04 08 be a3 f7 ef 3d 22 88 01 be 0c 9c fd bd
       -0.13283154 0.11717155 -0.12649587 -0.12383279
0001b0 88 62 6f 3d b1 25 dc 3d 38 1a 9d bd 5d 4b 6c 3d
       0.058443576 0.107493766 -0.076710165 0.05768906
0001c0 f8 8f 41 3d 12 bf 08 be 73 0f 00 be b8 5f ad 3d
       0.04725644 -0.13354138 -0.12505893 0.084655225
0001d0 ba b8 5c 3d d0 65 0f bd 32 bf 98 3d ff b5 17 be
       0.053887106 -0.035009205 0.074583426 -0.1481552
0001e0 03 6e fd bd 5c 21 06 be c8 e6 41 bd 82 26 c9 bd
       -0.12374499 -0.13098663 -0.04733923 -0.09821798
0001f0 22 d2 d1 3d a9 24 3b 3d 1f 2d 7b 3d 4b 24 23 3e
       0.10245158 0.04568926 0.061322328 0.15931813
000200 f2 f2 b4 bd 91 d3 17 bd 07 f5 5c 3e ab e9 97 3c
       -0.08835401 -0.037067 0.21577846 0.018544039
000210 16 dc 8e 3b d4 ff 1d 3e ec 7b f2 bc a4 99 53 3c
       0.0043597324 0.15429622 -0.029600106 0.012915049
000220 f2 43 27 3d 60 5b ad 3d 8b 8b ce bb 75 5d 34 3e
       0.040836282 0.08464694 -0.006303256 0.17613776
000230 f7 fc 76 bd 0d 6a 03 be fb 23 f6 bd 6f 24 88 3d
       -0.06029984 -0.12833424 -0.120185815 0.06647574
000240 5d 39 ac bd b9 54 14 bc c3 7d fc bc a6 b6 ad bd
       -0.08409379 -0.009053403 -0.030821687 -0.08482103
000250 f2 84 4b 3d d1 81 34 3e f6 33 ca bc d6 8b 3a bc
       0.049687333 0.17627646 -0.02468298 -0.011385879
000260 d2 ae 4b 3d 69 08 4f bb 6c 5b 1b be 27 ce bd bd
       0.04972727 -0.0031590706 -0.15171593 -0.09267836
000270 ad d3 b3 bd 79 71 8a bd 7d 81 31 bd 2e 48 05 be
       -0.08780608 -0.067599244 -0.04333638 -0.13015816
000280 fe 41 a2 bd 2a 53 f3 bd f0 81 a6 3d c3 46 8e 3a
       -0.07922743 -0.11881097 0.08130252 0.0010854829
000290 c4 8a c1 bd 9c 70 de 3d 62 17 9f 3d 32 c3 fc 3d
       -0.094502956 0.10861322 0.07768132 0.12341918
0002a0 fa e4 34 3c c3 d8 10 be ac f9 b4 bd ce f6 59 3d
       0.01104092 -0.14145188 -0.08836684 0.053213887
0002b0 78 14 ed ba f2 95 6e bc bb 18 b5 bd af bf 3e bd
       -0.0018087765 -0.014562117 -0.088426076 -0.046569522
0002c0 31 cf 05 3c 28 6e 0d be 34 fe 86 bd 3c 8d 80 3d
       0.008167074 -0.13811553 -0.06591454 0.06276938
0002d0 cb 35 6d 3c 1a 54 ca 3c e3 19 0a 3e ea f7 2e be
       0.014478157 0.024698306 0.13486437 -0.17086759
0002e0 43 d2 5c 3d ed 01 46 bd 1b 26 12 be ce fd 12 3e
       0.05391146 -0.04834168 -0.14272349 0.14354631
0002f0 95 5c 9e 3d 49 7a bd bd 30 d3 bb 3d ba 0e b9 3c
       0.07732502 -0.0925184 0.0917114 0.02259003
000300 da 58 40 3d 0e cc 7e 3d de 25 38 bd e9 43 a1 3d
       0.046959735 0.06220632 -0.044957988 0.07874281
000310 93 75 5f 3d cd 19 49 bd 08 83 f6 3d c8 8e 97 3d
       0.054555487 -0.04909687 0.12036711 0.0740028
000320 08 88 e5 bd 14 86 cd bd 40 e7 25 bd bf 28 cc 3d
       -0.112075865 -0.10035339 -0.04050374 0.09968709
000330 5d 41 28 3d ff df e8 bc d3 0d 6e bd 9e 2c cb bc
       0.04107796 -0.028427122 -0.058118653 -0.024801549
000340 c8 17 0e bd ce d9 1e be f5 ee 03 3d a9 ff f0 bd
       -0.03469065 -0.15512773 0.03221031 -0.11767513
000350 05 e8 4f bd 45 1a 57 3b ed 8f e1 bd 02 e7 12 be
       -0.05075838 0.0032822054 -0.1101378 -0.14345935
000360 ac 6e d8 bd 10 d4 ee bd 5f 46 d7 3d 4b cd bb bd
       -0.10567984 -0.116615415 0.10511469 -0.09170016
000370 9b 15 bb 3d b1 e9 4c bd de 20 c5 bc 00 92 fb bd
       0.0913498 -0.050027553 -0.024063524 -0.12283707
000380 46 4f a1 bd b8 73 2d 3e ef ec 2e bd f4 2e ff bd
       -0.07876448 0.16938674 -0.042706426 -0.124601275
000390 e2 5b a8 3d 9c 28 9a 3d 29 cd 43 be 39 43 ef bc
       0.0822065 0.07527277 -0.19121231 -0.029206859
0003a0 10 97 96 bd fd 2f 38 3e 48 6d 66 bd ec 22 f0 bd
       -0.07353032 0.17987056 -0.056256562 -0.11725411
0003b0 09 0d 86 bc 50 e1 81 3d 10 bf 7d bd 1c 04 0b 3d
       -0.016363638 0.06341803 -0.06194979 0.033939466
0003c0 08 be 42 bc cf 8f b1 bd d0 bc 6f bb f0 bb 72 bd
       -0.011886127 -0.086700074 -0.0036581047 -0.059261262
0003d0 87 dc c9 bc 0b c0 fd bd 6f 23 bb 3d 4b 7a 9a 3d
       -0.024641288 -0.12390145 0.09137618 0.07542857
0003e0 5d 20 89 3d d6 98 ba ba d7 ce 14 3e d8 f1 01 3e
       0.06695626 -0.0014236222 0.14532028 0.12689912
0003f0 27 9f 96 bc b5 7f e2 bd d2 d1 e0 3d f5 f7 b1 3d
       -0.018386437 -0.110595144 0.1097752 0.08689872

arith.constant21 f4 [256, 64]
000000 e0 26 1a bd 79 e9 76 bd d3 4a af bd 8f d8 19 3b
       -0.03763473 -0.06028125 -0.085591935 0.0023475026
000010 3d 83 80 3d b2 12 63 3c 99 cd 7c 3d 24 b9 59 bc
       0.06275032 0.013859438 0.06171951 -0.01328877
000020 c1 d0 27 3d 17 6e 58 bd d2 9a e5 bc e2 b6 1e 3c
       0.040970568 -0.052839365 -0.028027926 0.009687157
000030 cf 3d a3 bd 25 fe de 3c 7c 8e 2a bd ef 1c 5e 3c
       -0.079707734 0.027220795 -0.04163979 0.013556703
000040 1e 0a 66 bd d3 e0 78 3d 38 2b 35 bb 94 e3 cb 3d
       -0.056161992 0.060761284 -0.0027644169 0.099555165
000050 ea 2b 9c bd 9b 9c 61 3e 2e 83 60 bc f7 96 21 3d
       -0.076255634 0.22032396 -0.013703151 0.039450612
000060 c1 cd 83 3d 9b ef 41 3c e1 a0 87 bd 54 cd f7 bc
       0.06435729 0.011836912 -0.06622482 -0.030249275
000070 3d 83 0d 3c 7b 04 a4 3d 3f e4 fe 3c bb 34 81 bd
       0.008637247 0.08008667 0.031114696 -0.06308886
000080 38 5d 57 bd fb 29 88 bd b0 e4 1f bd 8b 58 10 3e
       -0.052579135 -0.06648632 -0.039036453 0.14096276
000090 dd 9e 0a be 39 65 ae 3d 5e 20 e6 3c c5 2b ff bc
       -0.13537164 0.085154004 0.028091606 -0.0311488
0000a0 aa f7 3e bd 5f 3e ee 3c ad e6 96 3b 0c 86 5e bd
       -0.04662291 0.029082475 0.0046051354 -0.054327056
0000b0 65 a8 bf ba 20 eb 12 3d 07 dd a5 38 e4 a3 b9 bd
       -0.0014622329 0.035868764 7.908983e-05 -0.09064463
0000c0 d1 99 ba bd bd 88 b4 bc 5f c4 df bc 09 44 1d be
       -0.091113694 -0.022037858 -0.027315317 -0.15357985
0000d0 0b 1e c7 bd 3c 03 52 bd f4 fe c4 bd 41 0d 85 3b
       -0.09722527 -0.051272616 -0.09618941 0.004060418
0000e0 6a e3 fa bd 68 2f df bb 9f bc cc bd 06 bf e3 3c
       -0.12250407 -0.006811071 -0.09996914 0.027801048
0000f0 8f cc 92 3c 60 4a c7 bd 46 0c 51 3d 2f fe 6b bc
       0.017919807 -0.09730983 0.051037095 -0.014403864
000100 21 5a 69 3d fd 2c 2d bd 3e 8a 3e be be c3 e0 bb
       0.05697072 -0.042279232 -0.18607423 -0.006859272
000110 dd 34 48 3d d2 ef 95 3d 2c 3e 31 3c 87 2c 9a 3c
       0.04887854 0.07321133 0.010818046 0.01882006
000120 4b 4f 00 3e 5d de 9a 3d 4a 0d 0e be 92 4b 98 bc
       0.12530248 0.07561944 -0.13872257 -0.018590722
000130 f6 df 69 3d 1d ab 46 3c a9 fe ee bd 2a 18 a5 bd
       0.05709835 0.0121257575 -0.11669666 -0.080612496
000140 56 2e c3 bd 8e 11 86 3c c8 c8 7a bd 5b 41 04 3d
       -0.09530322 0.016365793 -0.061226636 0.03228889
000150 08 3f 4a bc e2 4b bd 3c 30 84 8a bd aa cc ed bc
       -0.012344129 0.023107473 -0.06763494 -0.029028255
000160 fc a8 30 3b 31 33 93 3d ab c4 a0 bd 31 71 c3 3d
       0.0026956191 0.07187498 -0.078500114 0.09543074
000170 60 da a6 3b 31 97 a0 3c a7 ef 25 3d 49 12 2a bd
       0.0050919503 0.019603344 0.040511753 -0.041521344
000180 ef 0b ba 3d a0 4f fa bd cc 2d 8e 3c c7 58 19 bc
       0.090843074 -0.122222185 0.017355822 -0.009359545
000190 91 ec 79 3d 2f cb 3d bd 92 58 16 3d db 38 00 3e
       0.061016623 -0.04633635 0.03670556 0.12521689
0001a0 74 e6 7e 3d 52 a2 d6 3d 31 bf 01 bd 0b 85 ee 3d
       0.062231496 0.10480179 -0.031676475 0.1164647
0001b0 6f 69 9c 3d c4 91 60 3d 34 18 51 bd eb a3 cd bc
       0.07637297 0.054826513 -0.051048473 -0.025102576
0001c0 9c 44 9d 3d 15 03 5e bd 50 40 ab 3b c6 a0 13 bd
       0.07679102 -0.054202158 0.0052261725 -0.036041997
0001d0 a5 fc 33 3c 22 20 38 3e cc 74 87 bb a9 d4 65 3e
       0.010985528 0.17981008 -0.0041337963 0.22444405
0001e0 d9 73 8f 3d b0 2b 86 bd 88 64 2d bd 83 4b 27 bd
       0.07004518 -0.065513015 -0.042332202 -0.040843498
0001f0 52 15 0f 3d cd fc 06 bd a7 a7 0b bd cb 9e 35 bc
       0.034932442 -0.032955933 -0.034095433 -0.0110852225
000200 54 b8 40 3e b5 e7 ef bd 75 b4 7e 3d f0 7a 1a 3d
       0.18820316 -0.117141165 0.062183816 0.0377149
000210 cf 98 94 bd 33 f2 a4 bd 13 14 5f 3d 0e 08 fd 3a
       -0.072557084 -0.08054008 0.054462504 0.0019304769
000220 69 83 b7 3a e1 a2 40 3d 6f 69 9f 3d 0b 36 8f bd
       0.0014000955 0.047030333 0.07783782 -0.0699273
000230 fc 52 cf bc 3b 13 34 3d ef 06 37 bc c8 39 0e 3d
       -0.025308125 0.043963652 -0.011171087 0.034723073
000240 7f 1f f7 bd dd e7 d8 3d 35 af e8 3b 90 42 f3 3c
       -0.12066554 0.105910994 0.0071009644 0.029694825
000250 80 cd 32 bd 42 1c ac 3d 27 e2 10 bd 7e 45 8a 3d
       -0.04365301 0.08403827 -0.035371926 0.06751536
000260 b3 a8 1d ba 5d a7 5c 3d fb 94 43 3d 20 b0 2e be
       -0.0006014213 0.053870548 0.0477495 -0.17059374
000270 fc 0b 6c 39 7c 85 11 3e d5 1c 4a 3c 4f 1c cc bd
       0.00022511178 0.14211076 0.012335976 -0.09966337
000280 b2 bc 9f bd 74 7b cf bd 32 b4 34 3d a2 08 36 3e
       -0.07799663 -0.10130969 0.04411716 0.1777673
000290 a8 20 2e 3c a3 ed 1b 3d 2b a9 2a bc a1 dc db bc
       0.010627903 0.038068425 -0.010416309 -0.026838602
0002a0 6f 0c aa 3d 9d 25 ba bd e3 96 df bd a4 7a 61 bd
       0.08303153 -0.090892054 -0.10917451 -0.0550486
0002b0 aa 5f 22 3c 2b 48 8c 3d 38 5f e6 bd 0d 0e e5 3d
       0.009910503 0.068497024 -0.1124863 0.111843206
0002c0 fc 58 10 3e 8c 9b b4 3b 8f 50 43 bd 59 fd 93 3d
       0.14096445 0.0055117067 -0.04768425 0.072260566
0002d0 f6 f7 29 be f1 54 1a bb 18 b6 86 bc e8 a6 54 bd
       -0.16598496 -0.0023549164 -0.016444251 -0.051916987
0002e0 b7 41 3a 3d 33 32 15 bd 99 ff 86 bd 24 83 e4 bc
       0.045472827 -0.036424827 -0.0659172 -0.027894564
0002f0 d2 e6 4c bb 21 71 75 bc 7b ed 2e bd 3b 35 73 bd
       -0.003126551 -0.014980585 -0.042706948 -0.059376936
000300 6f d5 f8 3d 21 23 c4 bd f5 bf 0a 3d 5b a5 8e 3c
       0.12150084 -0.09577013 0.03387447 0.017412832
000310 24 8b b1 3c 0b ef aa bc 63 d5 89 3d 99 ef 6c 3d
       0.021672793 -0.020865938 0.067301534 0.057845686
000320 3b 97 91 3d d4 b5 d5 bd 7a a7 62 3c 4a 32 1a be
       0.07108923 -0.104350716 0.013833875 -0.15058246
000330 07 9e db 3d e0 0c f2 bc f3 5a 2c 3e 94 3d 8a bd
       0.10723501 -0.029547155 0.1683157 -0.06750026
000340 4b 8c f0 bc c6 1f 11 ba e5 45 b0 bc 07 99 d1 bd
       -0.029363772 -0.00055360456 -0.021517703 -0.10234266
000350 07 f3 1c bd 4e cf c7 3d 06 5a 47 be 67 84 53 bd
       -0.038317706 0.09756337 -0.19467935 -0.05163994
000360 cf dc 8c bd 3b 19 1e 3e 3b fd 6a bd 27 2e 5a 3d
       -0.068780534 0.15439312 -0.057370406 0.05326667
000370 e2 1b 5c 3d 81 e7 96 3d d7 4d a3 3a 0f 1e ae 3c
       0.05373753 0.073683746 0.0012459111 0.021254567
000380 2f 88 9d 3d ae 34 03 be 22 60 c6 bd 8e 9c 16 3d
       0.076919906 -0.12813064 -0.09686305 0.036770396
000390 ac a7 62 bc 94 a0 ee bc 62 0d 57 bd 3c c9 bc bc
       -0.013833921 -0.029129304 -0.052502997 -0.023045175
0003a0 6e ad 32 3d 4c 9d a8 3c 52 43 62 bd fe dd ae 3d
       0.043622427 0.020582817 -0.055239983 0.085384354
0003b0 a3 c5 b2 3c 5d 07 9e bd 22 8f 5d 3d 4c 3d b2 3c
       0.021822756 -0.07716248 0.05409158 0.021757744
0003c0 6f 0f 0a 3d 64 f3 40 bd 09 44 10 3d b9 2f 6c 3d
       0.033706125 -0.047107115 0.035221133 0.0576627
0003d0 68 b0 db bd 82 9f 8d bd 0b 29 5a 3d c0 cf d9 3c
       -0.10727006 -0.06915189 0.053261798 0.02658832
0003e0 8d d7 fc bd fa 88 b6 3d a8 81 43 be a1 7a 63 3d
       -0.123458005 0.08912845 -0.19092429 0.05553687
0003f0 72 e3 7f bd 84 a6 bb 3c 5b a3 a0 bd da f7 cd bd
       -0.062472768 0.02290655 -0.078436576 -0.100570396

sequential_3_1/lstm_2_1/while/lstm_cell_1/add_1/ReadVariableOp f4 [256]
000000 36 20 15 bd 0a 16 0f bc f6 c4 a0 bc 6f 6a db bc
       -0.036407672 -0.008733282 -0.019625168 -0.02678415
000010 11 2b fe bc 4b 5c f8 b9 d1 4b ab bc 2a 6b 09 bd
       -0.031026395 -0.0004737101 -0.020910176 -0.033549465
000020 3a 13 2a 3b ef 72 3e 3c 5d c6 1a bd 5f 00 00 bd
       0.0025951401 0.011624082 -0.03778683 -0.031250354
000030 97 a4 54 3c a2 6c 00 bd 38 e1 08 bd f3 3f 16 bc
       0.012978694 -0.0313536 -0.03341791 -0.00917052
000040 00 50 1f bb 00 8e 2f bd 93 fa 96 bc b4 59 09 bb
       -0.0024309158 -0.04286003 -0.01843003 -0.0020958008
000050 8e 0b dd bc a5 71 04 bd 36 14 e8 bc b7 63 3f bc
       -0.026983049 -0.032334942 -0.02832995 -0.011681489
000060 64 b0 15 bc 68 05 bc bc 5d 9a a2 bc 63 d1 8e 39
       -0.009136293 -0.022951797 -0.019848997 0.00027240356
000070 25 bd 18 bd dc 0f dc bb 0d d8 f4 ba 90 8c db bc
       -0.037289757 -0.006715758 -0.0018680111 -0.026800424
000080 73 07 00 bb b4 b4 bf bc 2f 6b 3d bc 29 13 ad bb
       -0.001953569 -0.023401596 -0.011561199 -0.005281825
000090 c3 81 2d bc 24 49 e2 bc 84 0d 88 ba 45 16 81 3c
       -0.01059002 -0.027622767 -0.0010380005 0.01575769
0000a0 eb 2e 00 bd 3e ec 6d bc 13 ea 07 3b 19 6e 4a 3d
       -0.031294744 -0.014521657 0.0020738884 0.049421404
0000b0 94 61 0e bd 84 ef 10 bc 9f 90 0c bd ef 82 83 3c
       -0.034761027 -0.0088461675 -0.03431761 0.016053645
0000c0 57 9d 88 bc 94 36 1f bd f2 41 1c bd ac 12 a9 bc
       -0.016676588 -0.03887041 -0.038148828 -0.020638786
0000d0 ac ff e2 bc 77 9d ac bc 08 30 11 bd de 58 b2 bc
       -0.027709804 -0.021071179 -0.035446197 -0.02177089
0000e0 c1 53 0a bd 26 29 61 bc 6f c8 bf ba 00 4e 95 bc
       -0.03377128 -0.013742721 -0.0014631877 -0.01822567
0000f0 bd 62 7a bc e5 db f7 bc 3b 85 eb bb f1 25 a7 bc
       -0.01528233 -0.030256221 -0.007187513 -0.020403834
000100 72 49 7c 3f eb 00 7e 3f 91 1e 7c 3f 41 3e 7a 3f
       0.9854957 0.9922015 0.9848414 0.9775124
000110 bb d5 7d 3f c5 25 81 3f 59 b3 79 3f 13 93 77 3f
       0.9915425 1.0089651 0.9753929 0.9670879
000120 89 c4 78 3f e4 fd 81 3f 05 e5 7a 3f 88 c1 6f 3f
       0.9717489 1.0155606 0.98005706 0.9365468
000130 3d d6 7d 3f 37 b9 7b 3f 0d 79 7c 3f 17 92 79 3f
       0.99155027 0.9832949 0.9862221 0.9748854
000140 b8 80 7f 3f 88 5f 78 3f 75 d3 79 3f 58 b7 7d 3f
       0.99805784 0.9702077 0.9758828 0.99107885
000150 a8 49 7b 3f 3c 0c 7c 3f 1c 1b 75 3f 9c 73 7c 3f
       0.98159266 0.9845617 0.9574449 0.98613906
000160 5c 22 7d 3f 38 2d 7e 3f 3f 77 7c 3f 00 51 77 3f
       0.98880553 0.9928775 0.98619455 0.9660797
000170 40 3b 77 3f 75 d4 7e 3f 7a 69 80 3f c8 03 72 3f
       0.96574783 0.99542934 1.0032189 0.9453702
000180 bc 39 80 3f 11 c7 79 3f 64 3d 7c 3f c3 fd 78 3f
       1.0017619 0.97569376 0.98531175 0.9726221
000190 dd 4e 7e 3f 6c 74 77 3f e9 8d 81 3f 44 b9 80 3f
       0.99339086 0.9666202 1.0121433 1.0056539
0001a0 88 7e 78 3f 62 2f 7b 3f c3 04 80 3f 9a 98 81 3f
       0.9706807 0.98119175 1.0001453 1.0124695
0001b0 04 30 7d 3f 8e 84 77 3f 3f 4b 78 3f 9d d0 84 3f
       0.9890139 0.9668664 0.96989816 1.0376164
0001c0 9b 3d 7d 3f a4 6f 77 3f 68 cb 76 3f 12 2a 78 3f
       0.9892213 0.96654725 0.96404123 0.96939194
0001d0 37 de 79 3f 90 b1 7c 3f 53 db 77 3f bb 26 78 3f
       0.976047 0.9870844 0.9681904 0.969341
0001e0 19 3d 79 3f ba 4c 7e 3f b8 1e 7e 3f d0 16 7e 3f
       0.9735885 0.99335825 0.99265623 0.9925356
0001f0 29 56 7d 3f 76 d5 7a 3f ab 63 7c 3f 4e 6b 7a 3f
       0.98959595 0.97981966 0.9858958 0.97819984
000200 d5 b4 d6 3b 34 29 14 3c a9 c4 14 bb 4f ed 65 3c
       0.0065523186 0.009043027 -0.0022700226 0.01403363
000210 a5 cc 75 bc 68 5d fc 3c 85 c7 cf 3a ae 22 27 3c
       -0.015002404 0.030806258 0.0015852308 0.010201139
000220 b8 73 54 bc af 12 14 bc 45 7b a0 bb 24 d0 26 3b
       -0.012967043 -0.009037658 -0.0048975074 0.0025453651
000230 fa d9 9b 3c 78 a1 42 3c ef 86 38 3c c2 9a 8e bb
       0.019024838 0.011879317 0.011262639 -0.0043519447
000240 3c 1a 2b 3b 19 1d 87 3c 60 49 00 bd 57 cc c6 bc
       0.0026108166 0.016493367 -0.031319976 -0.024267359
000250 79 a7 b2 bb ab 5f af 3b a6 4e 2a bc e1 d8 83 3b
       -0.005452093 0.0053519807 -0.010394728 0.0040236567
000260 c9 e2 84 bc b1 b1 30 bc f7 0f df bb 61 fd f8 3b
       -0.01622142 -0.010784552 -0.006807323 0.0075985645
000270 1c 22 28 ba e8 b5 34 bc 33 11 d4 3c d8 54 83 39
       -0.0006413774 -0.011029698 0.025887107 0.0002504948
000280 d1 57 cc 3c de 75 05 bc 82 84 0c 3c 76 3a e7 ba
       0.024944218 -0.0081457775 0.008576514 -0.0017641324
000290 34 94 ec ba 8e 00 d4 bc 14 3c 23 3c cd 8c 84 3c
       -0.0018049539 -0.02587917 0.009963054 0.01618042
0002a0 da ab ff 3a fc da 95 bb c1 f1 42 bc 08 f1 9b 3b
       0.0019506172 -0.004573224 -0.011898459 0.004758958
0002b0 44 5c 79 3c d6 e8 9b 3b b2 38 8d bc e6 09 e6 bb
       0.015219752 0.004757981 -0.017238948 -0.007020223
0002c0 e8 05 a6 39 21 91 07 bb cc 54 cd bb 15 4c 87 3b
       0.00031666388 -0.0020685869 -0.006266212 0.0041289427
0002d0 d5 c7 b6 bb 27 28 5c 3c 0e e6 51 bc ae aa 0b bc
       -0.005578021 0.013437307 -0.012811197 -0.00852458
0002e0 0f 34 cb bc d3 ef 9a b9 74 83 e8 ba de 05 56 3c
       -0.024805097 -0.00029551852 -0.0017739371 0.013062922
0002f0 aa 51 7f 3b d1 75 ed bc d8 5c 59 bc ba 28 4a bc
       0.0038958588 -0.028986843 -0.013266765 -0.0123388115
000300 39 b1 19 bd 3d bf 22 bc a8 90 b0 bc 42 d2 df bc
       -0.03752253 -0.00993329 -0.021553352 -0.027321938
000310 35 c2 00 bd 82 55 8c 3b 59 f4 a9 bc ab cd 02 bd
       -0.03143521 0.0042826543 -0.020746397 -0.03193442
000320 88 5c 28 b9 d1 c3 42 3c 74 eb 12 bd ed 7c 03 bd
       -0.00016056199 0.011887507 -0.035869077 -0.03210156
000330 60 d5 3c 3c 08 89 04 bd 18 d9 07 bd 57 a7 28 bc
       0.011525482 -0.032357246 -0.03316602 -0.010293803
000340 19 13 4b bb bd 23 29 bd ee 29 90 bc e9 94 25 bb
       -0.0030986725 -0.04129385 -0.017598119 -0.002526576
000350 85 69 cd bc b0 07 00 bd 3f 89 eb bc 3a 00 46 bc
       -0.02507473 -0.03125733 -0.028751967 -0.012085015
000360 fd df eb bb 5e 49 c3 bc fd 7d 9d bc 80 51 af 39
       -0.0071983323 -0.023838695 -0.019225115 0.00033439323
000370 21 16 1b bd aa ec d4 bb c5 11 5d bb 83 d4 e5 bc
       -0.0378629 -0.006497939 -0.0033732515 -0.028055435
000380 00 17 5a ba 38 39 cd bc 0a fd 7a bc a6 fd ae bb
       -0.00083194673 -0.025051698 -0.015319118 -0.005340296
000390 a4 9a 4a bc 4c 1c e3 bc bf 0f f8 b9 a7 2c 87 3c
       -0.012365971 -0.027723454 -0.00047313978 0.016500784
0003a0 81 04 ff bc c5 6f 7f bc 95 a4 5d ba 03 6f 4e 3d
       -0.031130077 -0.015590613 -0.00084550056 0.050398838
0003b0 db b4 0e bd 80 9e ba bb fc b9 10 bd cf ea 92 3c
       -0.034840446 -0.005695164 -0.03533362 0.017934231
0003c0 6b 9f 7f bc b7 78 23 bd 2a 12 1c bd 22 f8 8d bc
       -0.015601973 -0.039910045 -0.03810326 -0.017330233
0003d0 ca 23 df bc aa 25 92 bc 73 d6 19 bd d4 73 b0 bc
       -0.027238745 -0.017840225 -0.03755803 -0.021539606
0003e0 5b 5c e6 bc 1e 77 54 bc bf c7 90 ba bb c2 a5 bc
       -0.02812021 -0.012967853 -0.0011045857 -0.020234456
0003f0 63 08 74 bc e3 1b 00 bd a2 7d 0a bc ac 85 ad bc
       -0.014894578 -0.031276595 -0.008452805 -0.021181904

arith.constant25 f4 [128, 64]
000000 06 21 ef bc 84 ab 09 3e d6 90 60 3c 53 8f 95 3d
       -0.029190551 0.13444334 0.013706407 0.073027276
000010 ed 56 af bd 88 8f ec 3d 49 8e e4 bc 83 57 f3 bd
       -0.08561502 0.11550814 -0.027899878 -0.11881926
000020 46 29 01 be 06 83 27 be dc 4b 17 be 35 09 21 be
       -0.12613401 -0.16358575 -0.14775032 -0.15726168
000030 59 21 a4 bd 0b f5 06 be 4a ee 22 3e d7 bd 13 3c
       -0.08014173 -0.13179414 0.15911213 0.009017429
000040 15 b1 6d bd c4 72 22 be fd 62 d7 3d 31 3c c5 3d
       -0.058030207 -0.15864092 0.105169274 0.09630621
000050 49 b4 cf 3d 38 23 7e 3d 07 7f 6e 3d 5b ad 7d bc
       0.101418085 0.062045306 0.05822661 -0.015483226
000060 5c c0 b1 3c 95 1e a4 3c 22 09 b1 bc 32 f0 0b be
       0.02169817 0.020034114 -0.0216108 -0.13665846
000070 20 ab e3 3d f0 a3 85 bd 67 46 e4 bd dd 12 1d 3e
       0.11116624 -0.06525409 -0.11146241 0.15339227
000080 33 7b 67 3d 26 6b f1 bc 65 52 15 3d f6 00 f0 3d
       0.056513976 -0.029470038 0.03645553 0.11718933
000090 99 cd 98 bd 35 f6 1a be 78 b6 05 bd 04 ff ff 3d
       -0.0746109 -0.15132983 -0.03264472 0.12499812
0000a0 f8 0d d5 3d 9f 8d 99 bd 00 45 2c 3e 64 64 d8 bd
       0.10403055 -0.07497715 0.16823196 -0.10566023
0000b0 08 92 1d 3e fe b1 b7 bc ed f2 03 be 7c a7 81 bd
       0.15387738 -0.02242374 -0.12885638 -0.06330773
0000c0 ec 1e 64 3d 66 de bc 3d 69 d7 d8 bd 79 46 0c 3e
       0.055693552 0.09222107 -0.10587961 0.13698758
0000d0 78 1f da bd 9e 79 6f 3d 2a 71 b6 bc 32 57 d0 bd
       -0.106505334 0.058465593 -0.022270758 -0.10172881
0000e0 58 b8 c5 3d 91 4a 16 3e 29 97 ae 3d 1a 91 bb 3c
       0.096543014 0.14676882 0.08524925 0.022896338
0000f0 da 0f 16 3e 5e bc 23 3b d7 24 e2 3c 8b f5 ce 3d
       0.14654484 0.0024984102 0.027605457 0.10105427
000100 af db ee bc c7 5b ce 3b 6b d2 68 3c 99 a4 01 3e
       -0.029157488 0.006297562 0.014210324 0.12660445
000110 f7 88 26 be 56 94 e3 3d b8 a1 8c 3d 27 d0 ff bd
       -0.16263185 0.11112277 0.06866783 -0.12490874
000120 76 5f 08 be cf d3 c5 bd e1 28 52 3d 1a 91 a7 bd
       -0.13317665 -0.0965954 0.051308516 -0.08181973
000130 63 ce 9d 3d 9b 8f 85 bc 69 e3 af bc d3 12 06 bd
       0.07705381 -0.016303828 -0.021470742 -0.032732796
000140 f1 ea e7 3d 3e 7a 3e bc 46 40 d5 3c af 02 47 3c
       0.113241084 -0.0116258245 0.026031625 0.012146636
000150 9e 27 cd 3d 71 b6 1d 3e 16 b3 17 be 0e 12 9e 3d
       0.10017322 0.15401627 -0.1481441 0.077182874
000160 74 54 13 be 2a 24 a9 3d 6f 5c f4 bc ff 1c 71 3e
       -0.14387685 0.08258851 -0.029829232 0.23546217
000170 16 2f 13 3e 08 ee 26 3d 57 11 68 3d 53 f4 77 bd
       0.1437343 0.040754348 0.05665716 -0.06053574
000180 2f 57 16 bc ea 3b dc 3d d9 b0 7a 3d ad 46 c6 3c
       -0.00917606 0.10753615 0.06120381 0.024203623
000190 f8 10 8f 3d ef ac c1 3d 9d 94 0e 3e c8 6f 17 3e
       0.069856584 0.094568126 0.13923879 0.14788735
0001a0 9c 69 12 3d ac ac 12 be f6 5b 90 3d 1a 0a 04 3e
       0.03574525 -0.14323682 0.0704879 0.12894478
0001b0 f2 f2 62 3c 82 49 b8 bd 12 8f 8c 38 a4 c1 a2 bd
       0.013851868 -0.089983955 6.702369e-05 -0.0794709
0001c0 7c d8 cd 3b 78 11 03 3d 44 fb 35 bc dd b3 46 bd
       0.0062819105 0.03199908 -0.01110727 -0.048511375
0001d0 b6 a1 a9 bd 78 65 2b 3e d7 3d 50 3d 28 34 5d bd
       -0.08282797 0.16737926 0.050840225 -0.05400482
0001e0 6f 31 0d be ed d6 9d bc 72 24 4b bd 52 71 e8 3d
       -0.13788389 -0.019267524 -0.049595304 0.11349739
0001f0 87 0f 21 3d d1 74 31 3d 19 21 f9 bc cc ff 1d be
       0.03932145 0.043324295 -0.03041129 -0.1542961
000200 55 ab 57 bd c4 67 a9 bd b0 75 31 3e c6 c4 66 3d
       -0.05265363 -0.08271745 0.1733005 0.05634
000210 73 a8 01 3e 89 d4 ab bd 7d 67 4d 3c 1d 4a 54 be
       0.12661915 -0.08390147 0.012536881 -0.20731397
000220 c1 ad 30 3d 0c c8 2e be 99 c9 c2 3b 04 93 07 3e
       0.043134455 -0.170685 0.0059444425 0.13239676
000230 bd e1 9e bd 7b 83 ef bc 72 11 db bd 4d 9e ff bd
       -0.077579 -0.0292375 -0.10696687 -0.12481365
000240 78 0b 16 be 37 99 19 be aa 94 ae 3d c2 35 04 3e
       -0.14652812 -0.14999853 0.08524449 0.12911132
000250 8a ed e9 3d 9c 56 b6 bd 2a d3 13 be b0 11 60 bd
       0.1142226 -0.08903238 -0.14436021 -0.054704368
000260 e4 6c 24 be 12 19 0c 3d 5d 9a ae bc dc ef 42 3e
       -0.16057163 0.034203596 -0.02131384 0.19036812
000270 9d d0 b6 3d 55 d4 f2 bd 86 fa ee bd 0d 7e 02 3e
       0.089265086 -0.11856905 -0.11668877 0.12743397
000280 6b 56 b5 3c dc 00 3b be f5 ba c9 3b 94 23 bf bc
       0.022135934 -0.18262047 0.00615632 -0.023332395
000290 a8 f6 a7 3d 1d cf 96 bd 57 94 28 be 3c 25 46 bd
       0.08201343 -0.073637225 -0.16462837 -0.048375353
0002a0 f5 86 6b 3d 37 15 29 be f7 91 1a be 61 46 41 3e
       0.057501752 -0.16511999 -0.15094744 0.18874504
0002b0 80 0f 65 bd de f4 0f be 3a 8f 0d 3e 05 57 90 3b
       -0.055922985 -0.14058253 0.13824168 0.004404905
0002c0 26 88 60 3d 6f f0 bf 3c 98 32 88 3d 93 05 18 be
       0.05481734 0.023430077 0.06650275 -0.14845876
0002d0 e1 2a 5c 3d d1 a0 90 3d 69 1a 9d bc 44 d5 1b be
       0.05375183 0.07061923 -0.019177632 -0.15218073
0002e0 26 4d aa bd 01 1e 94 3d 9c 5e e7 3c aa 80 88 b9
       -0.08315496 0.07232285 0.028243355 -0.00026035804
0002f0 2c c7 80 3d c1 cc ce 3d 81 6b 10 3e 51 b2 20 3d
       0.06287989 0.100976475 0.1410351 0.039232556
000300 bf 29 87 3d 86 01 1e 3d a0 a0 a4 bd f8 d5 30 bd
       0.06599759 0.03857567 -0.08038449 -0.043172807
000310 52 f7 d4 bd 0d 92 2f 3e 43 ae dc bc 98 6f 19 3e
       -0.10398735 0.17145558 -0.026938563 0.14983976
000320 da 30 2d be 00 5f b6 3c 89 fc 70 bc cc c4 6e be
       -0.16913167 0.022262096 -0.014708647 -0.2331726
000330 bc fa c2 3d 59 11 2b 3d 48 3e 73 bc a6 41 26 be
       0.0952048 0.04176459 -0.014846392 -0.1623598
000340 f8 1d 60 3d 27 f5 0f bd 1c f9 34 3d d1 48 c0 bd
       0.05471608 -0.035145905 0.04418288 -0.093888886
000350 7f 20 5a bd 9a cf 02 bc 0d bd 57 3d e8 e2 95 3c
       -0.053253647 -0.007984066 0.052670527 0.018296674
000360 a7 ee a6 3d 49 9d 1a 3e ed 9b a1 3c d2 14 95 bd
       0.08150988 0.15099062 0.019727672 -0.07279362
000370 b4 30 50 3e 1b 5e e6 3d 38 77 03 3e c9 40 94 3d
       0.20331079 0.11248418 0.12838447 0.07238919
000380 4d 5e 08 3e 59 4b 41 3d 69 55 c0 bd 66 9f de bd
       0.13317223 0.047190998 -0.09391291 -0.108702466
000390 c4 6d f1 3d 89 2f c8 3d 3d 01 c2 3d 84 8c 1d 3e
       0.11788514 0.097746916 0.094728924 0.15385634
0003a0 4f ae 02 3e ce 96 4a be b2 c5 38 bd 3e 95 74 3e
       0.12761806 -0.1978409 -0.045110412 0.23885056
0003b0 e9 bc d8 bd 00 ef b2 3d 5c d1 73 bd bb fe 0a 3e
       -0.10582907 0.08736992 -0.059525833 0.13573734
0003c0 92 f9 fc 3d fa dd a9 3d b9 b5 d2 bc dc 91 48 bc
       0.12352289 0.08294292 -0.025721418 -0.012241807
0003d0 a4 a8 b5 bd 4c 23 65 bd fa aa 10 3e e0 14 3c 3c
       -0.08870056 -0.055941865 0.14127722 0.011479586
0003e0 7a 1f 0c 3d 99 4e e1 bd 66 15 27 3e f8 74 cc bc
       0.034209706 -0.110013194 0.16316757 -0.024958119
0003f0 08 b0 7d 3d d3 43 9d bc 9b 25 51 be 9f 6e 77 bd
       0.061935455 -0.01919738 -0.20424502 -0.06040823

arith.constant26 f4 [128, 32]
000000 33 ff b0 3d 96 9a 49 bc 7c c4 91 3d 3d 25 f7 3d
       0.086424254 -0.012304923 0.071175545 0.120676495
000010 e0 ef 2a bc 89 f2 26 be 8e 69 fe bd 33 09 3c bd
       -0.010433167 -0.16303457 -0.12422477 -0.04590721
000020 0f 9c eb bd 8c 59 9a bd ea 7f 12 3c 5f 43 de 3c
       -0.11504375 -0.07536611 0.00894163 0.027131734
000030 99 7b 29 be f9 ce 1d be 4d e4 42 be 4b eb be 3c
       -0.16551055 -0.15410985 -0.19032402 0.023305556
000040 43 d2 9f bc c6 41 03 be 57 76 8a bc 9c 45 9e bc
       -0.01950944 -0.1281806 -0.016902132 -0.019320302
000050 0d 1b f4 3c 50 02 32 3e 3d f9 18 3d 73 f6 28 bd
       0.029798055 0.17383695 0.037347067 -0.041250657
000060 34 d6 37 bc a8 88 90 bd c4 5e 30 be 3c a0 f2 bd
       -0.011220504 -0.07057315 -0.1722365 -0.118469685
000070 98 e2 de 3c 69 5f 11 be ce 8e ea 3d 70 e9 93 be
       0.027207658 -0.14196552 0.11453019 -0.28889036
000080 fe 15 b1 bd e0 f7 17 3b 71 21 66 bd ce 4d 6c bd
       -0.08646773 0.0023188516 -0.056184236 -0.057691388
000090 f4 12 82 bc 94 39 61 bd 03 45 9f 3d 5e 0e e9 bd
       -0.015878178 -0.05498655 0.07776835 -0.113796934
0000a0 d5 ac 89 bd fe ef 25 bb 4f a5 07 bd 3c d4 52 bc
       -0.06722418 -0.0025320048 -0.033116635 -0.012867983
0000b0 f2 87 78 3d f7 e3 2e 3d 3f 25 d4 3d 2a d1 95 3d
       0.060676523 0.042697873 0.10358667 0.073152855
0000c0 3e 0c 0b 3e d2 19 9e 3d 35 8d 97 3c c3 05 c4 bd
       0.13578889 0.077197686 0.01849995 -0.095714115
0000d0 67 b8 b5 3d 91 b4 f4 bd 20 c1 b9 3d d5 26 c3 3d
       0.088730626 -0.11948503 0.09070039 0.09528891
0000e0 ce 4c cd bd 36 d8 31 bd af 83 0a 3e 52 d8 c2 3d
       -0.10024415 -0.043419085 0.13526796 0.09513916
0000f0 a3 69 d6 bd 30 db 29 3e 78 62 40 be 15 ad 11 3b
       -0.10469367 0.1658752 -0.18787563 0.002222841
000100 c6 cc cc 3d 5d 90 51 bd c3 4a f0 bc eb df af 3d
       0.09999995 -0.051163066 -0.029332524 0.08587631
000110 c0 15 11 be e2 84 e8 bd e7 4a 21 3d 94 4e 78 3d
       -0.14168453 -0.113534704 0.039378073 0.060621813
000120 28 25 e8 3d 40 08 65 bd 7c b4 71 bb fb df 12 3e
       0.11335212 -0.05591607 -0.0036881259 0.14343254
000130 21 3f b9 bd 49 62 8c 3d 9e 16 cd bd 85 c3 c8 3c
       -0.09045244 0.06854684 -0.100140795 0.024507293
000140 a2 4e f0 3d 98 01 64 3b 40 76 53 3e a1 f6 0c bd
       0.11733748 0.003479099 0.20650578 -0.03441489
000150 9d 30 61 be 3d 4f 44 be 82 9f d0 bc ae c2 88 3c
       -0.21991201 -0.19170852 -0.025466684 0.016694393
000160 a6 6d 4d bd cc e2 13 be 2b db 73 3d 1c f1 54 3d
       -0.050153397 -0.14441985 0.059535187 0.051987752
000170 13 d3 ae bd f3 7b 78 3c 26 a9 1d 3e 19 fd 39 bc
       -0.08536353 0.015166271 0.15396556 -0.011351847
000180 f1 fa 79 bd 56 b2 49 bd 1d 55 ab bd b6 7f a3 bc
       -0.061030332 -0.04924234 -0.083658434 -0.019958358
000190 e0 8b 7a 3d 5f 3b 42 be 1c d5 82 3c 68 05 fa 3d
       0.06116855 -0.18967961 0.01597076 0.122080624
0001a0 36 6a 56 bd 2a e9 6e bd e2 9b de bd f2 05 66 bd
       -0.052347384 -0.05832783 -0.10869576 -0.056158014
0001b0 be 58 c1 3a 77 10 fa 3d 14 91 5d be 56 ca ad bd
       0.0014751179 0.12210172 -0.21637374 -0.08485858
0001c0 8c 1c da 3d 02 74 64 bc da 0a 0d 3a 3b 3d ed 3d
       0.10649976 -0.013943674 0.000538034 0.115839444
0001d0 5a 09 a4 3d fd a5 b8 3c 41 43 a1 bd d5 ce 6c 3d
       0.08009596 0.022540087 -0.07874156 0.057814438
0001e0 b9 aa 2a bd 7d e8 88 bd 4c 8e ef bc 87 3f 3d be
       -0.04166672 -0.066849686 -0.029242657 -0.18481265
0001f0 1d 69 cd 3d 8a 23 88 bd c8 3b 26 be 2a a1 8d bd
       0.100298144 -0.066474035 -0.16233742 -0.06915505
000200 62 29 cc bd 08 2b 75 3d f1 41 cb 3c 92 18 58 3d
       -0.09968831 0.05985549 0.024811717 0.052757807
000210 83 b4 1d bd d6 80 ed bd 9e ef 07 3e 9b 8c 88 3d
       -0.038502228 -0.11596839 0.13275 0.06667443
000220 05 03 c7 bd 01 65 dd 3d fd 4a 20 be d3 53 8f 3d
       -0.09717373 0.108102806 -0.15653606 0.0699841
000230 43 d6 0e be 2b 52 44 3e e1 76 73 bd 77 d7 26 bd
       -0.13948922 0.1917197 -0.059439544 -0.040732827
000240 9c 02 e7 3c 22 44 86 bb a5 1e cc bc c9 de 4a 3d
       0.028199486 -0.0040974775 -0.024916956 0.04952887
000250 c8 ed 3c 3d 4f bf a0 bd 86 99 cf bd ca a4 a6 3b
       0.046125203 -0.07848989 -0.10136704 0.0050855624
000260 6f aa b1 3d 6f 45 b5 bd 46 aa 6d 3b 18 8c a4 bd
       0.08675086 -0.08851134 0.003626482 -0.08034533
000270 fc 60 1a be 4e 9e 70 bd 01 31 32 3d 9a f5 81 3d
       -0.15076059 -0.05874472 0.043503765 0.06345673
000280 0c 6a c4 3d dd 19 90 bb a0 9c 1d be e8 ba 04 3e
       0.09590539 -0.0043976144 -0.15391779 0.12961924
000290 fe 4b 7b bd 69 2e df 3c ed 89 b0 3d 98 98 8f bc
       -0.06135177 0.02724381 0.08620057 -0.017528817
0002a0 21 39 1e 3c 36 fc a7 bb 86 e2 01 bc 53 6d 0c be
       0.009657175 -0.0051265014 -0.007927543 -0.13713579
0002b0 9f 50 08 3c 81 4e 98 3c ba 4e 13 3d 34 18 67 3b
       0.008320003 0.018592121 0.03596375 0.003526223
0002c0 c2 0a 03 3d ee 02 02 3d 11 02 16 3d 23 0e 1f bd
       0.03199268 0.031741075 0.036623064 -0.03883184
0002d0 98 9a 42 be c7 20 ef 3c 85 0d 87 bd ba e6 05 be
       -0.19004285 0.029190434 -0.065943755 -0.13076296
0002e0 e4 82 c0 bc c7 51 ad 3d 19 4e c0 bd 16 97 0d 3e
       -0.023499914 0.084628634 -0.09389896 0.13827166
0002f0 9d b0 2f 3e 12 34 8e bd 8e 6b a9 bd f1 69 dd 3c
       0.17157216 -0.069435254 -0.082724676 0.027028056
000300 81 9e 5a be f1 a9 16 3e e1 8a 3e bd e4 3f ce 3d
       -0.21349527 0.14713265 -0.046519164 0.1007078
000310 8c 6b 85 bd e1 00 cc 3c 76 b6 8a bd 73 57 79 bb
       -0.065146536 0.024902763 -0.06773083 -0.0038046509
000320 8b ba 1b 3d 3c e9 7d 3d 30 34 99 3c 1f 17 de 3d
       0.038019698 0.061990008 0.018701643 0.10844254
000330 da 55 03 3e 3e b6 ca bd 38 56 9d bd 06 02 0c be
       0.12825719 -0.09898041 -0.076824605 -0.13672647
000340 eb 50 d8 3d 14 2e 1f 3d e3 d0 52 3d 0d e3 82 bd
       0.10562309 0.038862303 0.05146874 -0.06390963
000350 4f ac b9 3d e8 29 8c bd 92 e8 9c 3d 3c 75 0d 3e
       0.090660684 -0.068439305 0.07661547 0.13814253
000360 1f 3f a1 3d 57 a1 df 3d 6f 49 17 3c c2 3f c8 bc
       0.078733675 0.10919445 0.0092338165 -0.024444465
000370 f5 da b3 3d e9 d7 c3 bd 73 6b 31 bd 73 bf fe 3c
       0.08781997 -0.09562666 -0.043315362 0.03109715
000380 a2 f4 e1 3d 54 fb b2 3b 13 f2 96 bc 8e 1b 38 3e
       0.11032988 0.0054620896 -0.018425977 0.17979261
000390 47 56 f8 bc cb 9c 26 3c b4 13 85 3c b5 56 cf 3d
       -0.030314578 0.010169218 0.016244747 0.1012396
0003a0 ee 16 80 bd bb b5 fd bd 0c f8 22 bd 50 88 a7 3d
       -0.062543735 -0.12388178 -0.039787337 0.081802964
0003b0 df 7b e3 bd fc 30 c6 bc 16 3d 35 be 29 dc 0c 3e
       -0.11107611 -0.02419328 -0.17699084 0.1375586
0003c0 28 25 3c bd 77 68 b9 3d d3 81 19 3e 29 f2 25 bd
       -0.045933872 0.09053128 0.1499093 -0.040514145
0003d0 fa dd 27 bd 3a 0b db 3d 3e 7a c2 3d 6a d4 25 3e
       -0.040983178 0.10695501 0.09495972 0.16194311
0003e0 03 b8 d0 39 10 ed 26 bc 1c 64 c5 3c 22 5f 2a 3d
       0.0003980995 -0.010188356 0.024095587 0.041594632
0003f0 56 89 b0 bd 76 e3 65 bd 3b da 6d bc fc a2 46 3e
       -0.08619945 -0.056125127 -0.014517362 0.19398111

sequential_3_1/lstm_3_1/while/lstm_cell_1/add_1/ReadVariableOp f4 [128]
000000 68 59 72 bc 93 53 5d bc c5 78 0c bd ca 5f 81 bc
       -0.014791824 -0.013508695 -0.034294862 -0.015792746
000010 ad b4 00 bd 0b 6a 75 3c 7f e7 8f bc 56 46 52 bc
       -0.031422306 0.014978896 -0.01756644 -0.012834152
000020 98 ec 03 bd c2 5f 00 3c eb 56 20 bd 68 22 9e bc
       -0.032208055 0.00783533 -0.03914539 -0.019303516
000030 f7 ab 04 bd 64 95 88 bc 32 7e 32 bd a0 26 3d bc
       -0.03239056 -0.016672798 -0.04357738 -0.011544853
000040 f0 8b 58 bb ae 91 68 bd 7e 0e e9 bc 4d 83 9b 3b
       -0.0033042394 -0.056779556 -0.028449293 0.004745877
000050 6b 6c 38 3c 0e 1e 2b bc 7a c8 86 bb 6e 63 77 bc
       0.011256318 -0.010444177 -0.004113254 -0.0150993895
000060 b4 ce 48 bc 61 f3 df bc d4 73 5d bd c4 4f ec bc
       -0.012256313 -0.027337732 -0.05406554 -0.028846629
000070 e6 aa ab bc 3b ac 88 bc 74 7b 39 bb 1d 78 0b bd
       -0.020955514 -0.016683688 -0.0028302344 -0.034050096
000080 d5 69 7b 3f 45 d8 79 3f bf 0d 7a 3f c3 84 7b 3f
       0.9820836 0.97595626 0.97677225 0.98249453
000090 61 19 79 3f a0 ae 82 3f 15 54 7b 3f 30 6a 81 3f
       0.9730435 1.0209541 0.98175174 1.0110531
0000a0 41 06 7a 3f b5 4d 7b 3f 54 87 77 3f f1 cd 7c 3f
       0.9766579 0.98165447 0.9669087 0.9875174
0000b0 de 12 78 3f a9 be 7a 3f 47 8e 78 3f 04 c4 7c 3f
       0.9690379 0.97947174 0.970921 0.98736596
0000c0 34 e6 7e 3f a1 6b 72 3f 39 21 79 3f 42 f9 80 3f
       0.9957001 0.9469548 0.9731632 1.0076067
0000d0 d9 e7 80 3f 95 fb 7d 3f 0d 60 82 3f ee 0d 7e 3f
       1.0070754 0.9921201 1.0185562 0.99240005
0000e0 4e 28 7d 3f 6f d2 7a 3f da 44 79 3f a2 d9 78 3f
       0.98889625 0.97977346 0.97370684 0.9720708
0000f0 5b 2e 78 3f 5e 94 7a 3f 53 47 80 3f 4d 9d 76 3f
       0.9694573 0.9788264 1.0021766 0.9633377
000100 78 d3 de bc bb ab 65 bc 7d ed 9a 3c 58 b2 5e bc
       -0.027200446 -0.0140179945 0.018912071 -0.013592325
000110 db 8f 06 bb 87 73 04 3d ed 8b 46 bc 5d 14 1c bc
       -0.0020532522 0.032336738 -0.012118322 -0.009526339
000120 ca cb 79 3c 55 93 db 3c f8 14 55 3c 51 df b6 bc
       0.015246341 0.026803652 0.013005488 -0.022323282
000130 42 5b 46 bb 1c 85 f1 bc c5 c1 49 3b 2b 85 8d 3c
       -0.0030266796 -0.029482417 0.0030785662 0.017275413
000140 0d b5 af bc 97 cf ab bc 3f dd 85 bc b0 69 38 bc
       -0.021448636 -0.02097301 -0.01634085 -0.011255667
000150 da 3a 0b bd b8 b3 7a 3c d5 b4 0f 3b fe 7e d8 3a
       -0.033991672 0.015301637 0.0021927853 0.0016517339
000160 5b f0 8f bc 12 68 c6 bc 48 5c 90 bc e0 90 ac 3c
       -0.017570665 -0.024219546 -0.017622128 0.021065176
000170 72 eb 40 bc b3 b8 1a 3c e1 00 23 bc cc 89 e8 ba
       -0.011774885 0.00944345 -0.00994894 -0.0017741262
000180 3d ee 87 bc c6 9a 57 bc 93 1d 15 bd 0f 5c 68 bc
       -0.016593093 -0.013159459 -0.036405157 -0.014182105
000190 d5 4e fe bc a2 10 57 3c 79 e4 9d bc 5a e5 72 bc
       -0.03104345 0.013126524 -0.019273983 -0.0148251895
0001a0 d3 f0 02 bd d7 ab 3b 3c 5c a8 20 bd ec db b7 bc
       -0.03196795 0.011454544 -0.03922306 -0.022443734
0001b0 91 82 08 bd 48 45 1d bc 9c 95 34 bd d2 54 4d bc
       -0.033327643 -0.0095990375 -0.04408799 -0.01253243
0001c0 46 ca 95 bb 27 79 6a bd 75 ed e9 bc 42 f0 af 3b
       -0.004571232 -0.057244446 -0.028555611 0.005369217
0001d0 7a 2a 09 3c 8a e9 25 bc d7 8f ae bb 7a 40 8f bc
       0.008371944 -0.010126481 -0.0053272056 -0.0174868
0001e0 2c 6b 55 bc 27 f3 d5 bc 75 61 5e bd 7f 98 ea bc
       -0.01302604 -0.02611692 -0.05429216 -0.028637169
0001f0 7c 13 a9 bc 7c 2e 8a bc 2d 3d 8c bb 99 17 09 bd
       -0.020639174 -0.016867869 -0.0042797537 -0.03346977
