backend/nfc_hospital_system/ml_models/hospital_lstm_new.tflite (tflite, 53856 bytes, 9 tensors)

sequential/dense/BiasAdd/ReadVariableOp f4 [16]
00000000: c5fa 3abd 58d1 74bc 1862 b8bc 27d1 adbc
00000010: cc17 f339 d51d b5bb 4c75 bc3d b392 2bbd
00000020: 37dd 0f3d 0b90 da3b 192d 3d3e 9f37 ea3d
00000030: 46f1 ef3c 358b ddbc 688d 3a3d 6738 853d
-0.04564931 -0.01494249 -0.022507712 -0.021217896 0.00046366302 -0.005527238 0.0920206 -0.04188795
0.035123076 0.0066700033 0.18474235 0.1143639 0.029289853 -0.027043918 0.04554501 0.065048985

sequential/dense/MatMul f4 [16, 32]
00000000: be61 97be 9a7d 45be 59ec 84be 650d 7b3e
00000010: 717c b63d db61 9bbe 0979 383e 5bec 603e
00000020: 6f63 c1bd 77da 06be 2c5b b0be f154 e23c
00000030: de7f 173e 34f1 7a3e b2dc 4cbe cb14 eabc
00000040: 097e 5dbe df5e 52be 8c75 073c f348 9bbe
00000050: 9794 cb3d 7a5e d6bc 79f3 00be fad0 32bd
00000060: 6251 bcbd 4aac 313e 9012 b7be c4f4 6cbe
00000070: 935d 10be 34f1 57be d1e6 af3d 6daf afbd
00000080: 6197 88be 6d55 f1bd dbad c839 76bb 73be
00000090: 45ec 88be b522 49bc f4c5 c73d fe67 9cbd
000000a0: 309c 53be 26eb 01be 5f1f 8c3e ce5d a6be
000000b0: 66f9 a5be dca0 943e 50fd 96be 1f46 0dbc
000000c0: 7742 8abd e7f2 b1be 9987 d83d b836 2d3e
000000d0: d71a 80be 7f17 96be 1027 a3be 8a7f 72be
000000e0: 0e72 82be ed40 fa3d a622 213c f9f0 45be
000000f0: 9492 33be 719c 38bd 5b13 a83d baea bcbe
00000100: 810e 62be 2c63 f53d e157 033d 6e70 50be
00000110: a066 f1bd 9310 813e 1e8c 32be d226 5e3e
00000120: 9756 f03c 28ac 2fbe 7865 0c3d 24bb a5be
00000130: 2f64 563e 5f2d 753e 2da8 8dbd eb80 7d3e
00000140: 4d62 943e edda 963e ab82 23be f1d7 78bc
00000150: 7ca9 d8be 1a2f 94be 5472 e3bd dd38 183e
00000160: dcc1 263e 5bea bc3d 5b27 00be 1743 92be
00000170: 8b4a 973e b626 ab3d 899a 31be cb4d 7a3e
00000180: a85e 583e 3ff2 16bd 7213 953d 1a7b 5d3e
00000190: ad3e 20be 570e 80be d2f9 91be 2d68 963d
000001a0: ee18 103e 53d7 ba3e 630c 1cbe 5c0e 8b3e
000001b0: 15e6 8c3d 953f 123e c3f2 0dbe 3088 05be
000001c0: 1508 f03c c6c1 e9bd 84f3 503e b521 1b3e
000001d0: 7b10 b0be d6c2 99be e000 0bbe 13b4 a7bd
000001e0: 86dd 49be 7450 0c3e 0d04 eebd a539 adbe
000001f0: 27d7 1d3e a71b bfbc 48df 663d 7548 a3be
00000200: c71f febc 3813 86be c1ea cdbe 7be2 af3e
00000210: 4e73 99be 8a13 72bd 13a8 053e 5c64 5abd
00000220: 118b e0bc 3422 b73c 3ad1 923d 641d 4b3e
00000230: 83ee 9fbe 3f4e dcbd de2c 033e 30ed 843e
00000240: 5c11 fcbc f625 943e f136 01be fcfb 51be
00000250: 195f 023e 620b 9bbd 7c25 88be b2dc 9fbe
00000260: 043d 583e 2d8e 6fbe bd5d 903e 1f67 6c3e
00000270: 5906 a8be 0dd6 603e 7fb5 78be 48bd 9dbe
00000280: 11ea 86be 5707 5cbc 7a1c 283d 5a91 b8bd
00000290: 4a8e 8f3e 33a5 af3e 4442 42be 0e74 acbe
000002a0: dfe4 a1bd 7cbf 8d3e ae73 8a3e 8dee 8d3e
000002b0: f4fe 293e 25ab 38be 7cbb 953d 02df 0abe
000002c0: a63f 16be fa52 a13e c0ae 8cbd 4609 87be
000002d0: 066f 7a3e 3650 d5bd e92c f4bd c88f 8fbe
000002e0: 52a7 b63d 1ee5 553e 7b40 88bc d937 20bc
000002f0: 6613 bf3d 469d 4f3e 578e 8ebe 29e1 2cbe
00000300: 7715 75be 224a c43e c43b 7d3e dd03 c3be
00000310: ea24 c5be 9727 7ebe 593e 833e 4a7e 2bbd
00000320: 1d4b 813e 8170 27be 34f5 cf3e 7ef4 7b3e
00000330: 9459 383e 50e0 98be 5588 3d3b e174 69be
00000340: 98eb b93e 297e ea3d 461c 613e 6bad 783e
00000350: 95c7 c03e 2e70 6d3e e6f2 c53e 6a6e 2ebe
00000360: 996c 80bb 1ecd b53e 03c3 a7be ff25 8d3e
00000370: 20cd f3bd 5c70 df3d b0f3 8dbe 4afb 00be
00000380: bff2 95be d4a5 c0be 775e dd3d c3ca 2cbe
00000390: 7dfb 48be 4792 003d 602f 483e b629 9d3e
000003a0: d60b 0cbe 6d6e af3b 9d17 c8be afd0 4e3d
000003b0: 6ed3 863e f8af 42be 5ca7 c0be 45de d2ba
000003c0: d611 1c3e 7ae8 303e c663 343e 32b9 37be
000003d0: a32b bdbd 2c74 be3b d119 513c bb68 c13c
000003e0: 648e 423d 00dc aa3e f1ba 583e 13bf 43be
000003f0: a741 7abe b03b 383e 17ed d9bd 73d8 8ebe
-0.2956676 -0.19286194 -0.2596157 0.24516828 0.08910454 -0.30348095 0.18014921 0.21965162
-0.094427936 -0.13169275 -0.3444456 0.027628394 0.14794871 0.24506074 -0.20006064 -0.028574368
-0.2163011 -0.20544003 0.008267771 -0.30329093 0.09940451 -0.026168097 -0.12592877 -0.043656327
-0.0919521 0.1735088 -0.3575635 -0.23140246 -0.14098196 -0.21088105 0.085889466 -0.08578382
-0.26677993 -0.11783872 0.00038276505 -0.2380198 -0.2674276 -0.012276341 0.097545534 -0.076370224
-0.2066505 -0.12687358 0.27367684 -0.32493442 -0.32416838 0.29028976 -0.29490137 -0.008622675
-0.067509584 -0.34755632 0.10572738 0.16915405 -0.25020477 -0.293148 -0.3186574 -0.23681465
-0.25477642 0.12219415 0.009834921 -0.19330205 -0.17536384 -0.04507107 0.08206817 -0.36897832
-0.22075845 0.11981806 0.03206623 -0.20355389 -0.11787152 0.25207958 -0.17436263 0.21694496
0.029338164 -0.17155516 0.034276456 -0.3236934 0.20936655 0.23943089 -0.069168426 0.2475621
0.28981248 0.29463902 -0.15967815 -0.015188203 -0.42316806 -0.28942186 -0.11105791 0.14865442
0.16284889 0.09224387 -0.12515013 -0.2856681 0.2954906 0.08356993 -0.17344107 0.24443738
0.21129858 -0.036852118 0.072790995 0.21628991 -0.15648909 -0.2501094 -0.2851091 0.07344089
0.1407201 0.36492404 -0.152391 0.27159393 0.06879822 0.14282067 -0.13862137 -0.13040233
0.029300729 -0.114139125 0.20405394 0.15149577 -0.34387574 -0.3003146 -0.13574553 -0.08188643
-0.1971341 0.13702565 -0.116218664 -0.33833042 0.15414105 -0.023328615 0.05636528 -0.31891218
-0.031021012 -0.26186538 -0.40218166 0.34352478 -0.29970783 -0.059100665 0.13052396 -0.053318366
-0.027410062 0.022355177 0.07168813 0.1983543 -0.31236658 -0.10757112 0.12810084 0.2596221
-0.030769996 0.28935212 -0.12618615 -0.2050628 0.1273159 -0.075705305 -0.26591098 -0.31223065
0.21117026 -0.2339408 0.28196517 0.23086213 -0.32817343 0.21956654 -0.24287985 -0.30808473
-0.26350453 -0.013429484 0.041042782 -0.090120986 0.28038245 0.34305725 -0.18970591 -0.33682293
-0.07904982 0.27685153 0.27041382 0.27721062 0.16601163 -0.18034036 0.073111504 -0.13561633
-0.14672717 0.3150862 -0.068692684 -0.26374263 0.24456415 -0.1041569 -0.119226284 -0.28039384
0.089186326 0.20888183 -0.01663231 -0.00977894 0.09329872 0.20274839 -0.27842972 -0.16882767
-0.2393397 0.3833781 0.2472983 -0.38088885 -0.38504726 -0.2481979 0.25633505 -0.041868486
0.2525262 -0.1635151 0.40616763 0.24604985 0.18002921 -0.29858637 0.0028920372 -0.22798492
0.36312556 0.114498444 0.21983442 0.24284904 0.3765227 0.23187324 0.3866188 -0.17034307
-0.003919196 0.35508054 -0.3276597 0.2756805 -0.11904359 0.10910103 -0.2772498 -0.12595859
-0.29286763 -0.37626517 0.10809033 -0.16874222 -0.19627185 0.0313895 0.19549322 0.30695885
-0.1367639 0.00535374 -0.39080516 0.050491985 0.26333183 -0.19012439 -0.37627685 -0.001608797
0.15241179 0.17276183 0.17616186 -0.1794174 -0.09236839 0.0058121886 0.012762503 0.02360951
0.047499076 0.33370972 0.21165062 -0.19115858 -0.24439107 0.17991519 -0.106409244 -0.27899513

sequential/dense_1/MatMul f4 [1, 16]
00000000: ed2b d53e 6d2d da3e a161 8bbd a685 c23e
00000010: dc59 743e 1a57 d43e 2f3c e9be 15cd f43e
00000020: e215 383e db3c d03e 0120 93be e3d1 9abe
00000030: 053a 023f 4072 843e fb85 58be 4501 ec3e
0.41635075 0.42612782 -0.068057306 0.3799259 0.23862404 0.41472703 -0.4555373 0.47812715
0.17977098 0.4067143 -0.28735355 -0.30238256 0.5086978 0.25868416 -0.2114486 0.4609472

sequential/lstm/while/lstm_cell/BiasAdd/ReadVariableOp f4 [256]
00000000: 7f88 a93e 042b a03c 7ad3 1f3b 5c62 9f3b
00000010: 0230 e93c 0a58 893d e6d6 333d 884b a93d
00000020: 87f0 923a 9dad 513c 1533 a83d bce4 aebb
00000030: 7083 1c3d ba49 243b 96c5 ce3c 806e a63d
00000040: 29ec e53d 169f 203d 5ed1 e0bc f7c8 15ba
00000050: 1e94 bfbc 7e9b 76bc 1f61 1d3d 92ca c5bb
00000060: 968e 183d b839 a03c 92aa 163d 7442 e53c
00000070: 927c b33c f2c4 52bc a978 d7ba d235 ce3d
00000080: a916 5dbc e48e 70bb f48e b53c fe69 5e3b
00000090: d24c 0a3d 060b 853c 1a59 0a3e d65f f7bc
000000a0: 9975 ee3c 1263 e63d 5524 693c 6cce 2f3e
000000b0: b567 cf3c 8e90 1c3d c5bb d2bc ccef 58bc
000000c0: b00f 573c b87b 1d3d bd7b fc3e 0d94 0c3d
000000d0: 9cc7 933c 3e58 423a 2e75 24bc bac4 86bb
000000e0: 51f4 463d 895b 6b3d f592 2b3c eeee 083d
000000f0: 851e 84bb 9b69 603d 6f99 f43b 288c 0c3d
00000100: 108e 4e3f a09c 7e3f f9b2 803f fd82 823f
00000110: d62a 843f 3506 873f 7d23 863f 927a 753f
00000120: 6a51 823f 60d2 833f cfc5 853f f737 793f
00000130: a9c1 813f 4da9 803f eaf7 843f 3213 763f
00000140: 2ebe 6d3f 6c09 843f 3eb0 783f 0f75 803f
00000150: 1327 793f c38e 7e3f 27bd 843f aa81 7f3f
00000160: 874b 853f 02e9 813f d201 863f 3b7f 823f
00000170: e05f 843f 2094 7a3f d331 803f 502c 8b3f
00000180: cebc 7c3f 597f 803f af56 833f 16a1 7f3f
00000190: a316 853f 506f 823f 622a 843f 0f42 7b3f
000001a0: 3e2c 843f 00c7 8e3f dd04 7f3f a51a 823f
000001b0: 59af 823f 317d 853f 6456 753f 1b1b 803f
000001c0: 0091 853f 349f 823f ced2 833f 181f 843f
000001d0: 9b98 843f c124 803f dbfa 793f 563b 813f
000001e0: 2ff6 893f 7143 873f 2f6d 823f f7b5 853f
000001f0: 71e6 803f d641 803f 6d6f 843f 12ca 843f
00000200: 74f0 8dbd ff9a 17bc b299 72bc 254c e43c
00000210: cff3 c23c 9693 ec3c ad5a 68bc 2371 03bd
00000220: f59b 7abc 250d ccbc 3397 b9bc 39d3 7cbc
00000230: 0f1e 71bb d567 dabb d583 293d 24bf adbb
00000240: af86 35bd 9fff f03c de4a 7cba 6149 8e3b
00000250: 922a c7bb 95a0 55bc 440a ed3c 532f 4bba
00000260: 511e 513c cc88 503c 19ae 153d cba2 b3bb
00000270: 347f 14bd 1f64 c0bc 814d 303c 3dbd cf3c
00000280: 040f a7bc 91a3 46bc 3a5e de3c 23a7 58bb
00000290: c926 cb3c 9db1 253c eff2 2cbc 06be ecbc
000002a0: 3b30 303d 8f77 a33c c5a5 39bc 0344 8c3c
000002b0: e731 b83c b0fc 9b3c 83fb 85bc 5d4c 96bb
000002c0: 67ca 043d 1f38 893c ed79 85bc 474f db3c
000002d0: 68f2 66bc 64fe 0b3c dc3c 943b 2402 0a3c
000002e0: 985a 8cbc d4c4 4abb bc8b c939 d3f8 003d
000002f0: f8b5 783a 0b32 f4bc 3ccd a3bb 749f 383d
00000300: 9d8b a43e 326c 9b3c affe 283b 76d1 863b
00000310: 32bc ee3c 5265 7c3d 5418 323d 75be af3d
00000320: 7453 32ba a0f2 5e3c 9e9a b63d b50d a0bc
00000330: ace1 2d3d 484e 0d3b c439 833c bf4d 133d
00000340: e931 0c3e df58 7b3c 8f0c dbbc 2e17 aabb
00000350: a4b6 cabc df86 80bc d732 263d 0952 a2bb
00000360: ffb0 0c3d 32cb 303c 2e99 183d 8049 d43c
00000370: dee5 d03c 177b 51bc f94b bb39 2ace c03d
00000380: 481d 60bc 11b0 1ebb 90e9 c53c d0a8 b13b
00000390: bc4f 053d c575 923c 745f 093e 6fcc febc
000003a0: e685 cc3c f907 ec3d 3e3f 703c 130b 343e
000003b0: f8b9 d73c e611 1f3d 5dd3 d7bc 529b 9cbc
000003c0: 68df 693c b8ad 203d 9fdc d23e ce70 133d
000003d0: 4d0f 8a3c 8467 65bb 2973 4fbc 3cd0 4ebb
000003e0: 78e6 4c3d 4639 6d3d 7702 433c a527 f43c
000003f0: 5f80 93bb bbb7 773d afbf ac3b 2787 ad3c
0.3311195 0.019551761 0.0024387524 0.0048640203 0.028465275 0.06706245 0.043906115 0.082663596
0.0011210599 0.01279774 0.08212868 -0.005337326 0.038211286 0.0025068359 0.0252407 0.08126545
0.112266846 0.039214216 -0.027443584 -0.0005713845 -0.023386057 -0.015051721 0.0384227 -0.006036111
0.037245356 0.019558772 0.036783762 0.027985789 0.021909986 -0.012864338 -0.0016439158 0.10068859
-0.013494172 -0.0036706263 0.022162892 0.0033937688 0.033764668 0.016240608 0.13510552 -0.030197065
0.02910881 0.11249365 0.014229854 0.17168587 0.025318006 0.038223796 -0.025724301 -0.013240766
0.013126299 0.038448066 0.49313155 0.03432088 0.018039517 0.0007413662 -0.010037703 -0.004112807
0.048572842 0.05746034 0.010472049 0.033430986 -0.0040319585 0.054788213 0.00746458 0.03431335
0.8068552 0.9945774 1.0054618 1.0196224 1.0325572 1.0548769 1.047958 0.9589015
1.0181096 1.0298576 1.0450991 0.9735102 1.0137225 1.0051666 1.0388157 0.9612304
0.92868316 1.0315375 0.97143924 1.0035723 0.9732525 0.9943659 1.0370225 0.99807227
1.0413674 1.0149233 1.0469306 1.0195078 1.0341759 0.9788227 1.0015205 1.0872898
0.98725593 1.0038863 1.0260829 0.9985517 1.0397533 1.019022 1.0325434 0.9814767
1.0326002 1.115448 0.99616796 1.0164381 1.0209762 1.042883 0.95834947 1.0008272
1.0434875 1.0204835 1.0298707 1.0321989 1.0359071 1.0011216 0.976484 1.0096233
1.0778254 1.0567456 1.018957 1.0446156 1.0070325 1.0020092 1.0346504 1.0374167
-0.069306284 -0.009253263 -0.014807152 0.02786834 0.023797898 0.028878968 -0.014181775 -0.032090317
-0.015295972 -0.024908612 -0.022655105 -0.015431219 -0.0036791598 -0.00666521 0.04138549 -0.0053023268
-0.044317897 0.029418765 -0.0009624193 0.0043422435 -0.006078073 -0.013038774 0.02893556 -0.00077508873
0.012763576 0.012727927 0.036542986 -0.005482053 -0.036254123 -0.023485241 0.010760666 0.02535879
-0.020392902 -0.012123958 0.02714454 -0.0033058606 0.024798768 0.010113147 -0.010555967 -0.028899204
0.043014746 0.01995447 -0.011331026 0.017122274 0.022484733 0.01904139 -0.016355282 -0.00458674
0.03241959 0.016750393 -0.01629349 0.0267712 -0.01409588 0.008544538 0.0045238566 0.008423362
-0.017133042 -0.0030940073 0.00038441818 0.031487297 0.00094875647 -0.029809019 -0.004998831 0.04507394
0.32137766 0.01897249 0.002578657 0.004114325 0.029142473 0.061620064 0.043480232 0.08581249
-0.00068025966 0.013607651 0.0891621 -0.019537786 0.042451546 0.0021561552 0.016018756 0.035962816
0.13690914 0.015341013 -0.026739387 -0.0051907515 -0.024745293 -0.015689312 0.04057583 -0.004953627
0.034348484 0.010790633 0.03725546 0.025913954 0.025500234 -0.012785695 0.00035724023 0.09414323
-0.013678856 -0.002421383 0.024159223 0.0054217353 0.032546744 0.017878423 0.13415319 -0.03110334
0.024966192 0.11524958 0.014663516 0.1758235 0.026333794 0.03883543 -0.026345903 -0.019117031
0.014274456 0.03922817 0.41183946 0.03599625 0.016853 -0.0035004327 -0.012661734 -0.0031557223
0.05002448 0.05791595 0.011902443 0.02980406 -0.004501387 0.060477953 0.005271874 0.02118261

sequential/lstm/while/lstm_cell/MatMul_11 i1 [256, 64] scale=0.0065756086 zero_point=0
00000000: 33fe fd43 1d7f 022e 1405 2d36 1f18 6236
00000010: 2352 fa0c 2e2e 2c55 1446 771b ff1d 4d04
00000020: f2f0 282b 3ff3 5bf9 2709 473c 1021 2a4f
00000030: 613f 483f 0354 4d16 f5ff 2357 1117 0b48
00000040: 0cf2 20fd 0109 f4f3 f900 04f7 fe13 0802
00000050: f703 f7ed f200 fdf6 fe06 0000 0005 14f6
00000060: f8fb f108 f7fb 01f8 fcf1 ff09 0200 13ff
00000070: f402 0d04 f0f4 0df8 0c04 090a 03f2 ef14
00000080: f719 f702 fcf1 0503 f903 fd03 04fb 0506
00000090: f302 f700 0efa ebfb f7f7 0404 000a 0a03
000000a0: f704 fcf6 0b10 0801 f906 f606 07f0 f8f6
000000b0: f505 fe09 0400 0808 080c f501 0f06 0dfe
000000c0: f4fb ff0a 0108 0600 06f5 0dfd 0201 fc00
000000d0: 0bfe f2f8 0b06 0df9 feff 0a04 13f4 ef03
000000e0: fe0e 06fe 0604 fdfb f40d f409 ef08 ed04
000000f0: f2e4 0c0e 1b07 f2fd 120d 04fc 08e7 f6ed
0.33535603 -0.013151217 -0.019726826 0.44056576 0.19069265 0.8351023 0.013151217 0.302478
0.13151217 0.03287804 0.2959024 0.35508287 0.20384386 0.1578146 0.64440966 0.35508287
0.2301463 0.5391999 -0.03945365 0.0789073 0.302478 0.302478 0.2893268 0.55892676
0.13151217 0.4602926 0.7824974 0.17754143 -0.0065756086 0.19069265 0.50632185 0.026302435
-0.092058524 -0.10520974 0.26302433 0.28275117 0.41426334 -0.08548291 0.5983804 -0.046029262
0.25644875 0.059180476 0.46686822 0.39453653 0.10520974 0.21699509 0.27617556 0.5194731
0.637834 0.41426334 0.4734438 0.41426334 0.019726826 0.5523511 0.50632185 0.1446634
-0.0723317 -0.0065756086 0.2301463 0.57207793 0.111785345 0.151239 0.0723317 0.4734438
0.0789073 -0.092058524 0.21041948 -0.019726826 0.0065756086 0.059180476 -0.0789073 -0.08548291
-0.046029262 0.0 0.026302435 -0.059180476 -0.013151217 0.124936566 0.05260487 0.013151217
-0.059180476 0.019726826 -0.059180476 -0.124936566 -0.092058524 0.0 -0.019726826 -0.06575608
-0.013151217 0.03945365 0.0 0.0 0.0 0.03287804 0.13151217 -0.06575608
-0.05260487 -0.03287804 -0.09863413 0.05260487 -0.059180476 -0.03287804 0.0065756086 -0.05260487
-0.026302435 -0.09863413 -0.0065756086 0.059180476 0.013151217 0.0 0.124936566 -0.0065756086
-0.0789073 0.013151217 0.08548291 0.026302435 -0.10520974 -0.0789073 0.08548291 -0.05260487
0.0789073 0.026302435 0.059180476 0.06575608 0.019726826 -0.092058524 -0.111785345 0.13151217
-0.059180476 0.16439022 -0.059180476 0.013151217 -0.026302435 -0.09863413 0.03287804 0.019726826
-0.046029262 0.019726826 -0.019726826 0.019726826 0.026302435 -0.03287804 0.03287804 0.03945365
-0.08548291 0.013151217 -0.059180476 0.0 0.092058524 -0.03945365 -0.13808778 -0.03287804
-0.059180476 -0.059180476 0.026302435 0.026302435 0.0 0.06575608 0.06575608 0.019726826
-0.059180476 0.026302435 -0.026302435 -0.06575608 0.0723317 0.10520974 0.05260487 0.0065756086
-0.046029262 0.03945365 -0.06575608 0.03945365 0.046029262 -0.10520974 -0.05260487 -0.06575608
-0.0723317 0.03287804 -0.013151217 0.059180476 0.026302435 0.0 0.05260487 0.05260487
0.05260487 0.0789073 -0.0723317 0.0065756086 0.09863413 0.03945365 0.08548291 -0.013151217
-0.0789073 -0.03287804 -0.0065756086 0.06575608 0.0065756086 0.05260487 0.03945365 0.0
0.03945365 -0.0723317 0.08548291 -0.019726826 0.013151217 0.0065756086 -0.026302435 0.0
0.0723317 -0.013151217 -0.092058524 -0.05260487 0.0723317 0.03945365 0.08548291 -0.046029262
-0.013151217 -0.0065756086 0.06575608 0.026302435 0.124936566 -0.0789073 -0.111785345 0.019726826
-0.013151217 0.092058524 0.03945365 -0.013151217 0.03945365 0.026302435 -0.019726826 -0.03287804
-0.0789073 0.08548291 -0.0789073 0.059180476 -0.111785345 0.05260487 -0.124936566 0.026302435
-0.092058524 -0.18411705 0.0789073 0.092058524 0.17754143 0.046029262 -0.092058524 -0.019726826
0.11836095 0.08548291 0.026302435 -0.026302435 0.05260487 -0.16439022 -0.06575608 -0.124936566

sequential/lstm/while/lstm_cell/MatMul i1 [256, 11] scale=0.007502925 zero_point=0
00000000: 2116 3828 3010 f6fd 030e 09e9 0c0c f600
00000010: 09ec 0d0e f0f4 ed19 04f0 f806 02fe 0ff0
00000020: 0f10 05f4 f40d 0801 09ed fc13 06f3 f8f5
00000030: f6ef 091a eef4 ff02 0df7 fd08 0bfa f808
00000040: f909 020b 0b18 09f0 fb10 05f3 141e 15ff
00000050: ff16 fd0e e911 0501 f614 f00a 1106 fcf0
00000060: 1608 ec19 1c0c fe08 0ee9 0800 f80f 1e21
00000070: f01f 0efc fef1 0d08 fff1 0006 070d f1f9
00000080: ed13 0b00 ec01 fd07 0607 f908 f914 f311
00000090: f605 fb12 fd05 0eed 0ff1 f5f8 fa0a f801
000000a0: f5f8 0500 110f 0c06 09fb 0d06 0702 0902
000000b0: 1020 0011 f81f f2f8 fe00 0af8 fd06 0f05
000000c0: fa11 f302 fdf7 0d12 0910 080c f10c f50b
000000d0: fef4 0b08 fded f1f3 fcef 0dfa f9f4 eafc
000000e0: 0603 f1ee ffff 0210 07fa f60b ff12 0def
000000f0: f90f fd01 f501 e6f4 f8fc 0ff5 0204 06fd
0.24759653 0.16506435 0.4201638 0.30011702 0.3601404 0.1200468 -0.075029254 -0.022508776
0.022508776 0.10504095 0.067526326 -0.17256728 0.0900351 0.0900351 -0.075029254 0.0
0.067526326 -0.15005851 0.097538024 0.10504095 -0.1200468 -0.0900351 -0.14255558 0.18757313
0.0300117 -0.1200468 -0.0600234 0.04501755 0.01500585 -0.01500585 0.11254387 -0.1200468
0.11254387 0.1200468 0.037514627 -0.0900351 -0.0900351 0.097538024 0.0600234 0.007502925
0.067526326 -0.14255558 -0.0300117 0.14255558 0.04501755 -0.097538024 -0.0600234 -0.082532175
-0.075029254 -0.12754972 0.067526326 0.19507605 -0.13505265 -0.0900351 -0.007502925 0.01500585
0.097538024 -0.067526326 -0.022508776 0.0600234 0.082532175 -0.04501755 -0.0600234 0.0600234
-0.052520476 0.067526326 0.01500585 0.082532175 0.082532175 0.1800702 0.067526326 -0.1200468
-0.037514627 0.1200468 0.037514627 -0.097538024 0.15005851 0.22508775 0.15756142 -0.007502925
-0.007502925 0.16506435 -0.022508776 0.10504095 -0.17256728 0.12754972 0.037514627 0.007502925
-0.075029254 0.15005851 -0.1200468 0.075029254 0.12754972 0.04501755 -0.0300117 -0.1200468
0.16506435 0.0600234 -0.15005851 0.18757313 0.2100819 0.0900351 -0.01500585 0.0600234
0.10504095 -0.17256728 0.0600234 0.0 -0.0600234 0.11254387 0.22508775 0.24759653
-0.1200468 0.23259068 0.10504095 -0.0300117 -0.01500585 -0.11254387 0.097538024 0.0600234
-0.007502925 -0.11254387 0.0 0.04501755 0.052520476 0.097538024 -0.11254387 -0.052520476
-0.14255558 0.14255558 0.082532175 0.0 -0.15005851 0.007502925 -0.022508776 0.052520476
0.04501755 0.052520476 -0.052520476 0.0600234 -0.052520476 0.15005851 -0.097538024 0.12754972
-0.075029254 0.037514627 -0.037514627 0.13505265 -0.022508776 0.037514627 0.10504095 -0.14255558
0.11254387 -0.11254387 -0.082532175 -0.0600234 -0.04501755 0.075029254 -0.0600234 0.007502925
-0.082532175 -0.0600234 0.037514627 0.0 0.12754972 0.11254387 0.0900351 0.04501755
0.067526326 -0.037514627 0.097538024 0.04501755 0.052520476 0.01500585 0.067526326 0.01500585
0.1200468 0.2400936 0.0 0.12754972 -0.0600234 0.23259068 -0.10504095 -0.0600234
-0.01500585 0.0 0.075029254 -0.0600234 -0.022508776 0.04501755 0.11254387 0.037514627
-0.04501755 0.12754972 -0.097538024 0.01500585 -0.022508776 -0.067526326 0.097538024 0.13505265
0.067526326 0.1200468 0.0600234 0.0900351 -0.11254387 0.0900351 -0.082532175 0.082532175
-0.01500585 -0.0900351 0.082532175 0.0600234 -0.022508776 -0.14255558 -0.11254387 -0.097538024
-0.0300117 -0.12754972 0.097538024 -0.04501755 -0.052520476 -0.0900351 -0.16506435 -0.0300117
0.04501755 0.022508776 -0.11254387 -0.13505265 -0.007502925 -0.007502925 0.01500585 0.1200468
0.052520476 -0.04501755 -0.075029254 0.082532175 -0.007502925 0.13505265 0.097538024 -0.12754972
-0.052520476 0.11254387 -0.022508776 0.007502925 -0.082532175 0.007502925 -0.19507605 -0.0900351
-0.0600234 -0.0300117 0.11254387 -0.082532175 0.01500585 0.0300117 0.04501755 -0.022508776

sequential/lstm_1/while/lstm_cell/BiasAdd/ReadVariableOp f4 [128]
00000000: 68b0 b3bc c3d1 623d 2e5d 473d e47b 033c
00000010: c695 bf3d f20d 463d 82c7 b63d e015 2b3b
00000020: c8a3 773d 7db1 bb3c 71e0 353d 8d4c 60bc
00000030: a2c6 c63a 1960 843d 9bf3 b83b b3fb 86bc
00000040: 16d6 c53c 8958 ca3c 19a8 63bc 01fb 393d
00000050: 81a1 173d fa0c 983d 2ed1 863d 69ac b2bc
00000060: d781 4bbc 756c 0ebd e42e ecbb a499 a73d
00000070: 4902 82bc 4a50 68bc a64a d3bc 7918 883d
00000080: 1693 7a3f 2a17 823f 5d08 853f fc1c 7d3f
00000090: 1110 673f 8d2a 843f 4153 813f 29ad 813f
000000a0: ad9a 863f f703 843f ffc0 833f a9af 7d3f
000000b0: 6b79 803f 148e 6f3f 5636 803f 91ef 7a3f
000000c0: 9007 813f 409d 813f 7499 7d3f 27db 823f
000000d0: 9369 803f 5f9c 833f f5f1 873f 57c5 783f
000000e0: 47e2 7c3f 9da0 743f cb98 7d3f 36a5 833f
000000f0: 6394 653f e96e 7d3f 1079 7a3f 2f53 853f
00000100: d530 0939 dabe 173d 8efb 513d 55b6 093d
00000110: 4cb6 0fbc 739a 383d 943e 693d b6d2 e7bb
00000120: baa9 863d 8bb1 223c 64e5 4e3d 7509 b4bc
00000130: 11a9 31bc 6ad9 f3bb e263 b03c e0a5 a4bc
00000140: 317e 923c 72d0 d03c ce3a 46bc 1963 0d3d
00000150: a583 913c e339 663d 793c 643d d81e 03bd
00000160: 1739 79bc 636f cbbc 7172 e13b faae 8d3d
00000170: ef98 d5bc cefa 3abc e80b ffbc 6ce0 973c
00000180: ce0a babc 80f7 2f3d 2f89 343d 2fed f13b
00000190: 4f5f c73d 9cac 403d 0472 823d 2ee5 0f3b
000001a0: 3c52 6a3d a9e1 ab3c cb83 f43c 050c 5ebc
000001b0: 1920 493b 2144 8d3d ad32 093c c8bf 86bc
000001c0: 4e71 743c 8c96 bc3c ad08 68bc c3d1 9a3c
000001d0: 8de8 d63c 5719 7c3d 322d 833d 511e 90bc
000001e0: ee48 4bbc df53 0fbd 03ea c5bb 5ebc 9a3d
000001f0: b2ab 92bc dcfe 61bc 2bbf d6bc 6661 783d
-0.021934703 0.055375826 0.048672847 0.008025143 0.09354739 0.048353143 0.08924772 0.0026105568
0.06045893 0.022911781 0.044403497 -0.013690126 0.0015165398 0.06463642 0.0056442744 -0.016477441
0.024149936 0.02470042 -0.013895058 0.04540539 0.037019257 0.0742435 0.065828666 -0.021810727
-0.012421093 -0.0347714 -0.0072077382 0.081836015 -0.01587023 -0.014179299 -0.025792431 0.06645293
0.97880685 1.0163319 1.0393177 0.9887235 0.9025889 1.0325485 1.0103532 1.0130969
1.0515953 1.031371 1.0293273 0.9909616 1.0037054 0.9357617 1.0016582 0.980218
1.0080433 1.0126114 0.99062276 1.022313 1.0032219 1.0282096 1.0620714 0.97176117
0.9878277 0.95557576 0.9906127 1.0284793 0.89679545 0.9899736 0.97840977 1.0416011
0.0001308353 0.037047245 0.051265292 0.03362115 -0.00877149 0.04506917 0.056944445 -0.0070746792
0.065753415 0.009930025 0.050511733 -0.021977166 -0.010843531 -0.0074416893 0.021532003 -0.020098627
0.017882438 0.02549002 -0.012098981 0.034518335 0.017762968 0.05620755 0.055721734 -0.032011837
-0.015211365 -0.024833387 0.0068800976 0.0691814 -0.026073901 -0.011412336 -0.031133607 0.01853963
-0.02271023 0.042960644 0.04407614 0.007383011 0.097349755 0.047039613 0.06369403 0.002195667
0.05720733 0.020981627 0.029848 -0.01355267 0.0030689298 0.0689776 0.008373898 -0.01644887
0.014919592 0.023021005 -0.014162225 0.01889885 0.026233936 0.061547603 0.06405105 -0.017592581
-0.0124075245 -0.034992095 -0.0060398593 0.075554594 -0.017904136 -0.013793673 -0.026214203 0.06063976

sequential/lstm_1/while/lstm_cell/MatMul_11 i1 [128, 32] scale=0.003248905 zero_point=0
00000000: c30a 2e0c 1a05 15f5 ee0a 11cc ddd4 f1eb
00000010: 01eb 0f19 d1e8 fd21 04e3 fbc4 0a46 e80d
00000020: ec11 e9ef 1e3e 110c 0118 0f1c fb1e efff
00000030: 2af2 3804 1f21 04e8 bcd9 fff4 1202 27e8
00000040: 1e23 f2eb 280d 1d0a 0820 eded f712 021f
00000050: 2231 2302 4224 2b26 13f3 0e04 d6e7 e8ed
00000060: 001e 15d9 0736 e4fb e0ff f144 0c06 2e1a
00000070: e212 bfee e032 dee3 d208 37c6 b7fb 11ee
00000080: fa1d 22ec fef0 31d1 ff14 2214 23dc ab14
00000090: 1353 d54b 0031 26d2 02e3 ee5b ebf2 0446
000000a0: 0618 1003 d204 f1bd fbe6 fe09 f701 c017
000000b0: 2404 093b f228 36e2 31f8 2446 ed2a 0118
000000c0: ef1c 4d2a 0e4a e9ef 0d1d 06fe 3332 1219
000000d0: 173d 121f 04fe daef 021e 27f8 1f39 fcee
000000e0: e9d2 e341 043d 1125 ebe6 f302 1e08 00d5
000000f0: 0358 0bf1 31ec f7f9 f9e5 d90c d21a f9cc
-0.19818321 0.03248905 0.14944963 0.03898686 0.08447153 0.016244525 0.06822701 -0.035737954
-0.058480293 0.03248905 0.055231385 -0.16894306 -0.11371168 -0.14295182 -0.048733577 -0.06822701
0.003248905 -0.06822701 0.048733577 0.08122262 -0.15269853 -0.07797372 -0.009746715 0.10721387
0.01299562 -0.09421825 -0.016244525 -0.19493431 0.03248905 0.22742335 -0.07797372 0.042235766
-0.0649781 0.055231385 -0.074724816 -0.055231385 0.097467154 0.20143211 0.055231385 0.03898686
0.003248905 0.07797372 0.048733577 0.09096934 -0.016244525 0.097467154 -0.055231385 -0.003248905
0.13645402 -0.04548467 0.18193868 0.01299562 0.100716054 0.10721387 0.01299562 -0.07797372
-0.22092554 -0.1267073 -0.003248905 -0.03898686 0.058480293 0.00649781 0.1267073 -0.07797372
0.097467154 0.11371168 -0.04548467 -0.06822701 0.1299562 0.042235766 0.09421825 0.03248905
0.02599124 0.10396496 -0.061729196 -0.061729196 -0.029240146 0.058480293 0.00649781 0.100716054
0.11046277 0.15919635 0.11371168 0.00649781 0.21442774 0.116960585 0.13970292 0.12345839
0.061729196 -0.042235766 0.04548467 0.01299562 -0.13645402 -0.08122262 -0.07797372 -0.061729196
0.0 0.097467154 0.06822701 -0.1267073 0.022742335 0.17544088 -0.09096934 -0.016244525
-0.10396496 -0.003248905 -0.048733577 0.22092554 0.03898686 0.01949343 0.14944963 0.08447153
-0.097467154 0.058480293 -0.21117882 -0.058480293 -0.10396496 0.16244525 -0.11046277 -0.09421825
-0.14944963 0.02599124 0.17868978 -0.1884365 -0.23717007 -0.016244525 0.055231385 -0.058480293
-0.01949343 0.09421825 0.11046277 -0.0649781 -0.00649781 -0.05198248 0.15919635 -0.15269853
-0.003248905 0.0649781 0.11046277 0.0649781 0.11371168 -0.116960585 -0.27615693 0.0649781
0.061729196 0.26965913 -0.13970292 0.24366789 0.0 0.15919635 0.12345839 -0.14944963
0.00649781 -0.09421825 -0.058480293 0.29565036 -0.06822701 -0.04548467 0.01299562 0.22742335
0.01949343 0.07797372 0.05198248 0.009746715 -0.14944963 0.01299562 -0.048733577 -0.21767664
-0.016244525 -0.08447153 -0.00649781 0.029240146 -0.029240146 0.003248905 -0.20792992 0.074724816
0.116960585 0.01299562 0.029240146 0.1916854 -0.04548467 0.1299562 0.17544088 -0.097467154
0.15919635 -0.02599124 0.116960585 0.22742335 -0.061729196 0.13645402 0.003248905 0.07797372
-0.055231385 0.09096934 0.2501657 0.13645402 0.04548467 0.24041897 -0.074724816 -0.055231385
0.042235766 0.09421825 0.01949343 -0.00649781 0.16569416 0.16244525 0.058480293 0.08122262
0.074724816 0.19818321 0.058480293 0.100716054 0.01299562 -0.00649781 -0.12345839 -0.055231385
0.00649781 0.097467154 0.1267073 -0.02599124 0.100716054 0.1851876 -0.01299562 -0.058480293
-0.074724816 -0.14944963 -0.09421825 0.21117882 0.01299562 0.19818321 0.055231385 0.120209485
-0.06822701 -0.08447153 -0.042235766 0.00649781 0.097467154 0.02599124 0.0 -0.13970292
0.009746715 0.28590363 0.035737954 -0.048733577 0.15919635 -0.0649781 -0.029240146 -0.022742335
-0.022742335 -0.08772044 -0.1267073 0.03898686 -0.14944963 0.08447153 -0.022742335 -0.16894306

sequential/lstm_1/while/lstm_cell/MatMul i1 [128, 64] scale=0.006101273 zero_point=0
00000000: e916 15e7 e6e4 ea0d eae0 fd01 ee0d 0a06
00000010: e9fb f401 0e0e 1903 08e8 e513 ec16 13f7
00000020: fdf8 e91d f8e3 030e f5ff 0917 18fb f8fe
00000030: f0eb 0903 0105 17f9 ebf0 0afe 19fc 19f5
00000040: d821 f117 0522 f61c f913 da0f 101f eb05
00000050: fff3 220b e8fd 0a07 f920 0c04 1dff f720
00000060: ec23 1a09 ea22 f9fd f9ed 0d0b 0203 f603
00000070: f00a 0217 e20f 00e9 001a 1911 150c f9fa
00000080: fa15 02f9 1904 effe ef02 ebec 0815 f008
00000090: f20c 05ec fceb 1b0c 1312 ebe8 1c0e 07f6
000000a0: ea0d eef8 e919 0922 20fb eedd efef ff0c
000000b0: 11f1 d3f2 f0f7 e7eb 2304 1919 ee04 0ae9
000000c0: d8e9 f7f1 0d12 dfed 16ff eef0 13e5 f31e
000000d0: f80b ff14 edef fb0a e2f6 06ec eaed 0ae7
000000e0: 0cf5 ee17 0e1b e324 1203 f220 f4f2 14e8
000000f0: 1305 ea01 e3e0 d906 0ae5 0edd 17e7 1408
-0.14032927 0.134228 0.12812674 -0.15253183 -0.1586331 -0.17083564 -0.134228 0.07931655
-0.134228 -0.19524074 -0.018303819 0.006101273 -0.109822914 0.07931655 0.06101273 0.036607638
-0.14032927 -0.030506365 -0.073215276 0.006101273 0.08541782 0.08541782 0.15253183 0.018303819
0.048810184 -0.14643055 -0.16473436 0.11592419 -0.12202546 0.134228 0.11592419 -0.054911457
-0.018303819 -0.048810184 -0.14032927 0.17693692 -0.048810184 -0.17693692 0.018303819 0.08541782
-0.067114 -0.006101273 0.054911457 0.14032927 0.14643055 -0.030506365 -0.048810184 -0.012202546
-0.09762037 -0.12812674 0.054911457 0.018303819 0.006101273 0.030506365 0.14032927 -0.04270891
-0.12812674 -0.09762037 0.06101273 -0.012202546 0.15253183 -0.024405092 0.15253183 -0.067114
-0.24405092 0.20134202 -0.091519095 0.14032927 0.030506365 0.20744328 -0.06101273 0.17083564
-0.04270891 0.11592419 -0.23184837 0.091519095 0.09762037 0.18913946 -0.12812674 0.030506365
-0.006101273 -0.07931655 0.20744328 0.067114 -0.14643055 -0.018303819 0.06101273 0.04270891
-0.04270891 0.19524074 0.073215276 0.024405092 0.17693692 -0.006101273 -0.054911457 0.19524074
-0.12202546 0.21354455 0.1586331 0.054911457 -0.134228 0.20744328 -0.04270891 -0.018303819
-0.04270891 -0.11592419 0.07931655 0.067114 0.012202546 0.018303819 -0.06101273 0.018303819
-0.09762037 0.06101273 0.012202546 0.14032927 -0.18303819 0.091519095 0.0 -0.14032927
0.0 0.1586331 0.15253183 0.10372164 0.12812674 0.073215276 -0.04270891 -0.036607638
-0.036607638 0.12812674 0.012202546 -0.04270891 0.15253183 0.024405092 -0.10372164 -0.012202546
-0.10372164 0.012202546 -0.12812674 -0.12202546 0.048810184 0.12812674 -0.09762037 0.048810184
-0.08541782 0.073215276 0.030506365 -0.12202546 -0.024405092 -0.12812674 0.16473436 0.073215276
0.11592419 0.109822914 -0.12812674 -0.14643055 0.17083564 0.08541782 0.04270891 -0.06101273
-0.134228 0.07931655 -0.109822914 -0.048810184 -0.14032927 0.15253183 0.054911457 0.20744328
0.19524074 -0.030506365 -0.109822914 -0.21354455 -0.10372164 -0.10372164 -0.006101273 0.073215276
0.10372164 -0.091519095 -0.2745573 -0.08541782 -0.09762037 -0.054911457 -0.15253183 -0.12812674
0.21354455 0.024405092 0.15253183 0.15253183 -0.109822914 0.024405092 0.06101273 -0.14032927
-0.24405092 -0.14032927 -0.054911457 -0.091519095 0.07931655 0.109822914 -0.20134202 -0.11592419
0.134228 -0.006101273 -0.109822914 -0.09762037 0.11592419 -0.16473436 -0.07931655 0.18303819
-0.048810184 0.067114 -0.006101273 0.12202546 -0.11592419 -0.10372164 -0.030506365 0.06101273
-0.18303819 -0.06101273 0.036607638 -0.12202546 -0.134228 -0.11592419 0.06101273 -0.15253183
0.073215276 -0.067114 -0.109822914 0.14032927 0.08541782 0.16473436 -0.17693692 0.21964583
0.109822914 0.018303819 -0.08541782 0.19524074 -0.073215276 -0.08541782 0.12202546 -0.14643055
0.11592419 0.030506365 -0.134228 0.006101273 -0.17693692 -0.19524074 -0.23794964 0.036607638
0.06101273 -0.16473436 0.08541782 -0.21354455 0.14032927 -0.15253183 0.12202546 0.048810184
