backend/nfc_hospital_system/ml_models/hospital_lstm.tflite (tflite, 149080 bytes, 9 tensors)

arith.constant3 f4 [1, 16]
-0.06637402 0.23468292 -0.48182943 0.1287833 -0.069741994 -0.26956937 0.53662664 -0.45738092
-0.14499317 -0.06377603 -0.31067285 0.5305248 -0.1370688 -0.26993203 0.050343815 -0.13009511
00000000: 1aef 87bd b850 703e 59b2 f6be c5df 033e
00000010: e4d4 8ebd ff04 8abe 5d60 093f d52d eabe
00000020: 1779 14be 029d 82bd 8310 9fbe 79d0 073f
00000030: c35b 0cbe 8834 8abe 5135 4e3d a737 05be

arith.constant4 f4 [16, 32]
-0.24379171 0.030080054 0.33067584 0.037823886 0.18835938 0.11816696 0.18835247 0.33705032
0.23124045 0.27960235 -0.2137775 0.26571187 -0.30810538 -0.09125315 -0.10764403 -0.19505037
0.12135316 0.19576268 0.34136242 0.3403276 -0.30430892 -0.026998991 0.33013973 0.317085
-0.14715187 -0.26801848 -0.16329238 -0.3265933 0.052280188 -0.12469099 -0.02269842 -0.07961366
-0.19227447 0.18955751 0.06780637 0.1494583 -0.063485876 -0.2232585 0.30223724 -0.10060436
0.040723875 0.10894188 -0.34265718 -0.25375935 0.07217273 0.28157645 -0.15253323 0.121146135
-0.0041004736 0.09881085 0.29161802 -0.26317823 0.02323476 0.1232424 -0.3036243 -0.006869351
-0.17425826 0.26515222 0.2776987 0.29446524 0.08638837 -0.0637825 0.09565925 0.1623495
-0.34585673 0.27083495 0.08142065 -0.10489511 -0.29514113 0.25146472 -0.22871251 -0.29661986
-0.14683948 -0.27652845 -0.06511736 0.019328212 -0.30227625 0.1432446 -0.19077015 -0.25797653
0.06810309 0.07322896 0.31783098 -0.13663475 0.02825805 -0.026868368 0.21201336 -0.17591682
0.25295973 0.2709713 -0.24935764 0.2401296 0.038203515 0.10344016 -0.18373604 0.12386779
0.09028432 0.24349344 -0.23085435 -0.19485809 -0.083974965 0.31092733 -0.33105484 0.2427261
0.12943405 0.08593103 -0.15322699 -0.3462465 -0.12671305 0.13630196 0.16128875 -0.017898044
0.23794626 0.046647973 -0.24959384 0.21956357 0.027767403 -0.29405436 -0.13051207 0.22713682
0.15305567 -0.14043319 0.058367845 -0.13480222 -0.05586918 -0.25815982 -0.277838 0.20017767
0.16489209 -0.1489418 0.2957495 -0.2879592 0.029233845 -0.23687857 -0.05539237 0.1623263
-0.3192647 0.28042483 0.07998345 -0.15317917 -0.26493 0.027364371 0.22885603 -0.15991855
0.0034772847 -0.18810338 0.045361217 -0.27536777 -0.20293623 -0.26272357 -0.20819238 0.015794637
-0.23264161 -0.2703832 0.0442576 -0.08518352 0.1160131 0.31304944 -0.105505444 0.2678358
-0.16015387 0.12688014 0.25716525 -0.21417956 0.15274376 -0.07474323 0.28565022 -0.26002732
-0.13843685 0.05984925 0.0011239887 -0.060480233 0.12504238 -0.01254824 0.22522594 0.24098255
0.04727341 -0.28197578 -0.2788115 -0.06426281 -0.3482935 0.010826471 0.17646778 -0.08706857
0.2953626 0.037641156 0.21527512 -0.349753 0.14358036 0.33433092 -0.26588473 -0.29112378
-0.32923496 -0.21884045 0.008523138 -0.025039691 0.019490777 -0.27987316 -0.15861657 0.23393084
0.13616261 0.30891985 0.36069655 -0.07603735 0.074571274 0.1695383 -0.2267243 -0.17831367
-0.28624532 0.0043084444 0.10577486 0.13094084 -0.25661117 -0.2637827 0.29566023 -0.27615255
-0.13661708 0.24691491 -0.06251642 -0.19147879 0.22011124 -0.2011049 0.2392893 0.109419346
-0.0013046735 0.02486692 0.16837344 0.10119024 -0.088549584 -0.22857803 0.21507299 0.1092096
0.24548683 -0.34031215 -0.2997371 -0.002658309 0.30734193 -0.06482051 0.040274233 -0.2391961
0.072408706 -0.011990076 0.23178247 0.043743312 -0.31655362 0.08703006 -0.008187672 0.13788593
0.0711666 -0.018010585 -0.29691797 -0.22032481 -0.11765427 0.040830858 0.23530497 -0.17932399
00000000: 89a4 79be 726a f63c 584e a93e 38ed 1a3d
00000010: 48e1 403e 8501 f23d 78df 403e dc91 ac3e
00000020: 4cca 6c3e 0a28 8f3e 7de8 5abe 630b 883e
00000030: fdbf 9dbe eee2 babd 7974 dcbd 49bb 47be
00000040: 0188 f83d 0376 483e 0ec7 ae3e 6b3f ae3e
00000050: 61ce 9bbe fd2c ddbc 1308 a93e f758 a23e
00000060: fbae 16be b839 89be 1e36 27be 3d37 a7be
00000070: c023 563d fd5d ffbd 09f2 b9bc 7d0c a3bd
00000080: 99e3 44be 5d1b 423e 11de 8a3d 990b 193e
00000090: e204 82bd e09d 64be d7be 9a3e a909 cebd
000000a0: 14ce 263d ec1c df3d c370 afbe bfec 81be
000000b0: 4ccf 933d ca2a 903e ac31 1cbe 771b f83d
000000c0: 445d 86bb 585d ca3d f54e 953e 4cbf 86be
000000d0: d356 be3c 8366 fc3d a574 9bbe 4b18 e1bb
000000e0: c270 32be 08c2 873e 862e 8e3e 26c4 963e
000000f0: 63ec b03d 66a0 82bd ffe8 c33d f33e 263e
00000100: 2214 b1be e1aa 8a3e dfbf a63d 3fd3 d6bd
00000110: bd1c 97be fcbf 803e 9d33 6abe 8fde 97be
00000120: 175d 16be 2395 8dbe 405c 85bd 3356 9e3c
00000130: f4c3 9abe b6ae 123e 4059 43be 8015 84be
00000140: a279 8b3d 11f9 953d beba a23e fbe9 0bbe
00000150: 6d7d e73c 0d1b dcbc 081a 593e 8a23 34be
00000160: f083 813e c0bc 8a3e 9c57 7fbe 89e4 753e
00000170: 4a7b 1c3d 6fd8 d33d 4d25 3cbe 65ae fd3d
00000180: fce6 b83d 5856 793e 1565 6cbe e188 47be
00000190: 11fb abbd de31 9f3e 0580 a9be 318d 783e
000001a0: 5c8a 043e 9cfc af3d 89e7 1cbe 3947 b1be
000001b0: 11c1 01be be92 0b3e e128 253e eb9e 92bc
000001c0: 2fa8 733e f211 3f3d 8795 7fbe 46d5 603e
000001d0: 7778 e33c 4b8e 96be f5a4 05be 8e96 683e
000001e0: a0ba 1c3e b8cd 0fbe 1f13 6f3d 9809 0abe
000001f0: 15d7 64bd 862d 84be c840 8ebe 60fb 4c3e
00000200: 79d9 283e 3384 18be 7a6c 973e 636f 93be
00000210: d17b ef3c 4c90 72be 1ce3 62bd de38 263e
00000220: aa76 a3be d893 8f3e 5dce a33d 00db 1cbe
00000230: e8a4 87be 3f2b e03c 3c59 6a3e b0c1 23be
00000240: 28e3 633b 2c9e 40be afcc 393d 01fd 8cbe
00000250: 84ce 4fbe b483 86be 6230 55be c163 813c
00000260: 9a39 6ebe ab6f 8abe 7547 353d b374 aebd
00000270: 4798 ed3d 0448 a03e 3d13 d8bd c621 893e
00000280: 60ff 23be deec 013e 2aab 833e e351 5bbe
00000290: dc68 1c3e fb12 99bd bf40 923e 4d22 85be
000002a0: 64c2 0dbe 7d24 753d cd52 933a 1fba 77bd
000002b0: 1c0b 003e 2297 4dbc a1a1 663e 21c4 763e
000002c0: c3a1 413d 215f 90be 62c0 8ebe 389c 83bd
000002d0: 8753 b2be 8361 313c f8b3 343e 0251 b2bd
000002e0: c439 973e 9d2d 1a3d 1571 5c3e d312 b3be
000002f0: bb06 133e 6c2d ab3e 0b22 88be 2d0e 95be
00000300: 7c91 a8be b617 60be a2a4 0b3c 0a20 cdbc
00000310: 1fab 9f3c 894b 8fbe 626c 22be 918b 6f3e
00000320: 366e 0b3e be2a 9e3e 38ad b83e 78b9 9bbd
00000330: d3b8 983d 739b 2d3e 6a2a 68be dc97 36be
00000340: bf8e 92be da2d 8d3b 7da0 d83d 5b15 063e
00000350: 8a62 83be 870e 87be c760 973e de63 8dbe
00000360: 59e5 0bbe 43d7 7c3e 9c08 80bd 0413 44be
00000370: d764 613e 71ee 4dbe 4108 753e 4017 e03d
00000380: 9401 abba b6b5 cb3c 166a 2c3e d43c cf3d
00000390: 7c59 b5bd 5c10 6abe 183c 5c3e 48a9 df3d
000003a0: e660 7b3e 653d aebe 2477 99be 0637 2ebb
000003b0: ec5b 9d3e 9ec0 84bd 98f6 243d d3ef 74be
000003c0: 044b 943d 0672 44bc 6258 6d3e 302c 333d
000003d0: 5113 a2be d13c b23d 9625 06bc f831 0d3e
000003e0: cbbf 913d ef8a 93bc a205 98be d49c 61be
000003f0: b9f4 f0bd 423e 273d c9f3 703e b5a0 37be

arith.constant6 f4 [16]
-0.04633733 0.06438698 -0.060472332 0.061744753 -0.0571822 -0.046385203 -0.045619886 -0.04256214
-0.046057995 -0.035362896 -0.053349473 -0.008686332 -0.055261753 -0.061718784 0.004856276 -0.034812044
00000000: 36cc 3dbd 52dd 833d d6b1 77bd 11e8 7c3d
00000010: e237 6abd 69fe 3dbd ebdb 3abd a355 2ebd
00000020: 4fa7 3cbd afd8 10bd fa84 5abd 1e51 0ebc
00000030: 265a 62bd d6cc 7cbd 6521 9f3b 1397 0ebd

arith.constant20 f4 [256, 11]
-0.08312219 -0.06403552 0.21299051 -0.009634162 0.20350084 0.24124433 0.4792856 0.11754647
-0.0603109 -0.017887482 -0.24759768 -0.15645064 -0.03152608 0.13843599 0.014852942 0.0015469622
0.061311834 0.030148458 -0.13896821 -0.044240378 0.09377265 -0.076184355 -0.053344585 -0.14320293
-0.051618047 -0.040343907 -0.0463602 -0.06807059 -0.14838971 -0.015470384 -0.035010897 -0.23271634
-0.0771235 -0.021095565 -0.04911947 0.120915554 -0.04291803 -0.27567738 -0.010162136 -0.1231561
-0.04859594 -0.042152133 -0.03615404 -0.028154017 -0.047721528 -0.046673153 -0.107975096 -0.13780597
-0.037709337 0.10628315 -0.113267645 0.22917233 0.17394873 -0.13822335 -0.10178252 -0.11948646
0.05612091 0.07356178 -0.16256826 -0.059912566 -0.042777576 0.13605787 -0.18760377 0.12557895
0.14695998 -0.12296283 -0.1584337 0.026424052 -0.08397374 -0.1463722 -0.13313986 -0.11215938
-0.09973057 0.08243562 -0.0018288351 0.079020716 -0.06684453 0.08137269 0.06863042 -0.115996405
-0.02574942 -0.06120473 0.11282346 0.037226256 -0.03877282 -0.003362311 0.070484154 0.13023603
0.06897021 0.025998313 -0.111776754 0.03197429 0.1081581 0.07081226 0.11203784 -0.101303235
-0.015801387 0.12058333 -0.04188794 0.047442503 0.0027660439 -0.035712574 -0.10635958 -0.13595739
-0.024747206 -0.08076893 0.115932494 0.26821986 0.062940165 -0.058974136 -0.03868191 -0.032767195
0.06979699 -0.17320569 0.0013387196 -0.24116133 0.014574933 -0.07670295 0.17390913 -0.106540635
-0.23859662 0.07148839 -0.0658119 0.10566323 0.090329 -0.06298037 -0.02516158 0.092968814
0.016955614 -0.14984335 0.029144958 -0.14607528 -0.026538363 0.08999237 -0.1291616 -0.10091323
0.029685052 -0.11288615 -0.11185914 -0.0721818 0.053199477 0.014148396 -0.07556572 0.06442315
-0.09510109 0.03461826 -0.03094494 0.053773623 -0.08340083 -0.027094819 0.12919746 -0.007172203
0.118957974 -0.13901404 -0.08035362 -0.14685795 0.08471478 -0.07136335 -0.09644632 -0.06705633
0.24508175 0.23435962 0.062281907 -0.01635896 -0.07101739 -0.11707876 -0.037393425 -0.04026308
-0.29585984 -0.2977186 0.22710219 0.23054108 0.23416212 -0.07667522 -0.11924226 -0.005751147
-0.13585845 -0.1643762 -0.034922108 -0.023306565 0.03852538 0.13104914 0.01519703 0.12284571
-0.11270773 -0.12759484 0.05306074 -0.065776974 -0.021991607 -0.01947504 -0.1789969 -0.023607599
0.22924149 0.09842551 0.08967 0.055313416 0.105170466 -0.00070819334 -0.03116117 -0.15467976
-0.04281278 0.08261463 -0.06608741 0.14981513 0.12867853 0.06481425 0.07703374 -0.05189293
-0.1177025 -0.11013879 0.13089494 0.05417658 -0.13293658 -0.16274604 0.0192784 -0.14401956
-0.018171541 0.007999339 0.043786786 0.029328063 -0.12734221 -0.116622955 -0.10784166 -0.10102416
0.032917105 -0.10858505 -0.15223794 -0.049937725 -0.08294411 0.022741247 0.051556483 -0.10090504
-0.109888084 -0.045256346 -0.15570702 0.053805556 0.01382886 -0.18707599 -0.07394591 -0.09467651
-0.033616755 -0.10805145 -0.11994529 0.010535102 -0.09805139 -0.12642798 -0.06672939 -0.16936086
0.025862765 -0.08666579 0.03623318 -0.015822643 0.051547315 -0.025441304 -0.06196409 -0.10684192
00000000: f73b aabd 0e25 83bd 2f1a 5a3e 9bd8 1dbc
00000010: 8662 503e c108 773e ec64 f53e 34bc f03d
00000020: 9008 77bd c588 92bc 3f8a 7dbe 9934 20be
00000030: 7e21 01bd 2ac2 0d3e c159 733c 70c3 ca3a
00000040: 1e22 7b3d e6f9 f63c af4d 0ebe 6635 35bd
00000050: e00b c03d 8b06 9cbd da7f 5abd caa3 12be
00000060: 726d 53bd a73f 25bd 31e4 3dbd 9868 8bbd
00000070: 79f3 17be 7e77 7dbc 9667 0fbd 314d 6ebe
00000080: edf2 9dbd 9bd0 acbc 7f31 49bd 93a2 f73d
00000090: d1ca 2fbd 9625 8dbe 167f 26bc 4439 fcbd
000000a0: 890c 47bd b7a7 2cbd 4216 14bd 41a3 e6bc
000000b0: a677 43bd 592c 3fbd 0c22 ddbd 021d 0dbe
000000c0: 1b75 1abd fbaa d93d def8 e7bd 27ac 6a3e
000000d0: 9e1f 323e 6c8a 0dbe 5b73 d0bd 51b5 f4bd
000000e0: 0adf 653d 8fa7 963d 4b78 26be e166 75bd
000000f0: 8a37 2fbd c152 0b3e 341b 40be c597 003e
00000100: ad7c 163e f0d3 fbbd 723c 22be 4177 d83c
00000110: 6dfa abbd 98e2 15be d155 08be d1b3 e5bd
00000120: 8b3f ccbd 02d4 a83d 86b5 efba 9dd5 a13d
00000130: c9e5 88bd baa6 a63d 1b8e 8c3d 868f edbd
00000140: 73f0 d2bc d0b1 7abd fc0f e73d 8f7a 183d
00000150: 40d0 1ebd 385a 5cbb ff59 903d 985c 053e
00000160: 4140 8d3d 6afa d43c 36eb e4bd 79f7 023d
00000170: fe81 dd3d 0506 913d 1874 e53d 1278 cfbd
00000180: e971 81bc 65f4 f63d b092 2bbd 1253 423d
00000190: 8446 353b 5947 12bd 0dd3 d9bd 6a38 0bbe
000001a0: a7ba cabc 2e6a a5bd 046e ed3d 1d54 893e
000001b0: c6e6 803d dd8e 71bd ec70 1ebd e536 06bd
000001c0: b9f1 8e3d d55c 31be fa77 af3a fff2 76be
000001d0: b3cb 6e3c 7016 9dbd 3c15 323e fa31 dabd
000001e0: ac52 74be 8168 923d 64c8 86bd f765 d83d
000001f0: 69fe b83d dafb 80bd a81f cebc 6f66 be3d
00000200: 80e6 8a3c 8970 19be 68c1 ee3c c294 15be
00000210: fb66 d9bc eb4d b83d f042 04be 98ab cebd
00000220: 112e f33c db30 e7bd 6816 e5bd 0dd4 93bd
00000230: b2e7 593d adce 673c 33c2 9abd 49f0 833d
00000240: 5cc4 c2bd e0cb 0d3d 3e80 fdbc bb41 5c3d
00000250: 0ece aabd f4f5 ddbc 574c 043e cd04 ebbb
00000260: 3da0 f33d b259 0ebe 7090 a4bd ee61 16be
00000270: f17e ad3d f326 92bd a685 c5bd d454 89bd
00000280: b6f6 7a3e f8fb 6f3e 501b 7f3d 3a03 86bc
00000290: 9171 91bd fdc6 efbd d929 19bd e6ea 24bd
000002a0: f17a 97be 936e 98be 7a8d 683e f612 6c3e
000002b0: 32c8 6f3e e607 9dbd 4935 f4bd 1e74 bcbb
000002c0: 7a1e 0bbe 3c52 28be 7c0a 0fbd 69ed bebc
000002d0: cacc 1d3d bf31 063e f7fc 783c 8896 fb3d
000002e0: 4fd3 e6bd 39a8 02be 3856 593d 14b6 86bd
000002f0: be27 b4bc 1e8a 9fbc f74a 37be b964 c1bc
00000300: 48be 6a3e 5093 c93d e8a4 b73d 5290 623d
00000310: 9d63 d73d 0da6 39ba b645 ffbc 5f64 1ebe
00000320: 745c 2fbd dc31 a93d d658 87bd 2369 193e
00000330: 4ec4 033e 55bd 843d dec3 9d3d ae8d 54bd
00000340: 020e f1bd 7290 e1bd 5309 063e 43e8 5d3d
00000350: 8720 08be e6a6 26be bced 9d3c dd79 13be
00000360: 7cdc 94bc a90f 033c c659 333d 6841 f03c
00000370: ff65 02be 04d8 eebd 17dc dcbd c1e5 cebd
00000380: 16d4 063d d761 debd 43e4 1bbe 808b 4cbd
00000390: 9ade a9bd da4b ba3c e42c 533d 4da7 cebd
000003a0: 010d e1bd b85e 39bd a971 1fbe 3763 5c3d
000003b0: 7192 623c d990 3fbe f470 97bd c2e5 c1bd
000003c0: b9b1 09bd 144a ddbd e0a5 f5bd 6c9b 2c3c
000003d0: 2bcf c8bd 5676 01be 6ba9 88bd ef6c 2dbe
000003e0: 26de d33c d57d b1bd 3e69 143d 7d9e 81bc
000003f0: 4723 533d 486a d0bc 0fce 7dbd f0cf dabd

arith.constant21 f4 [256, 64]
-0.024593238 0.08149324 0.18238619 -0.084631205 -0.10738569 0.19153132 0.12720567 0.13524324
0.11719007 0.012555576 0.15846123 0.003704048 0.03857937 0.14515658 0.080023475 -0.15167032
0.19889948 0.10422438 0.027067766 -0.03742688 0.14610036 0.06301994 0.10179367 0.12480114
-0.0302142 0.08164016 -0.0643099 -0.06368265 -0.07683168 -0.0061676987 0.08105681 0.07090057
-0.042433318 -0.18650599 0.10463874 0.11694254 -0.020939918 -0.06527348 0.008242701 0.12498478
0.09593818 -0.05763779 -0.16809335 0.09822683 -0.023216907 -0.09899824 -0.17588109 0.0107449405
0.06446305 0.077399775 -0.020767134 -0.18391159 -0.0850271 0.09795389 -0.056220256 0.120513335
0.05905893 0.078524716 -0.10180355 0.04148355 0.15013383 0.027073108 -0.021784002 0.073090106
-0.10279993 -0.047927186 -0.06325904 -0.005530796 0.10467837 0.038838577 -0.10287589 0.24758251
-0.01935622 0.1084686 0.047948338 0.0307887 -0.038108885 0.084958516 0.14148508 -0.052633014
0.16067497 -0.025245436 0.081006005 -0.058265347 0.052672654 0.034907993 0.11137653 -0.09375934
0.13252735 0.15253533 -0.072970524 0.03345113 0.027120968 0.003774658 0.0062701586 -0.07589335
0.09952644 -0.09072703 0.13470489 -0.001980552 -0.12056487 0.15615518 -0.09154614 -0.009324852
0.10675135 -0.046283636 0.025429064 -0.012275196 -0.11110561 -0.16656575 0.1690843 -0.046215292
0.16592674 0.09760354 0.008959187 -0.08166829 -0.11755129 0.013601854 -0.0146354595 -0.11380952
0.195474 0.018099582 -0.0016971164 0.10874218 0.07145999 0.08917644 0.06596532 -0.041034944
-0.033820257 -0.00012650329 -0.07912524 0.068759724 -0.015494895 0.08859706 -0.08434141 0.18679634
0.0745546 0.002675959 0.035069093 -0.05975819 -0.0895396 0.029561099 -0.08103079 0.045479883
0.000516945 -0.0034469177 0.082559995 -0.0020754617 -0.04661914 0.01416938 -0.04751 0.062894255
0.035591964 -0.08008421 0.044035297 -0.018240992 0.016269853 0.0013320135 -0.021957528 0.0030445275
-0.12288719 0.067469545 0.06360721 0.033193737 0.050830968 0.09243806 -0.026115801 -0.07400586
0.14479901 0.006546923 0.054582108 -0.08874463 -0.031476475 -0.091572426 0.006008046 -0.0360958
0.016750606 -0.04100647 0.024448555 0.030679826 -0.05206275 0.12956797 0.025784256 -0.018686483
0.036383312 -0.08279509 -0.07527554 0.07348552 -0.04096294 0.005206186 0.10498219 0.05048495
0.049876392 0.058719903 -0.036550686 -0.08148867 -0.09532936 0.0034643004 -0.19247258 0.10988843
0.058427677 -0.01093403 0.103733234 0.016812334 -0.022688549 0.11120566 0.17349653 -0.10594857
0.045082834 0.17210802 -0.09985117 0.037926298 0.059669025 -0.04682917 -0.07185435 -0.04332133
0.04190132 0.077201694 -0.0060178502 0.07166138 0.08645356 -0.003166244 -0.016552156 0.01906329
-0.029110136 0.023093557 0.02316451 0.046506926 -0.12517835 -0.006024447 0.012393091 0.15325299
-0.03871085 0.08395965 -0.042606566 -0.05158831 0.011583695 0.056161802 0.024026878 0.050057985
-0.026575232 0.046033338 -0.101076216 -0.13112646 -0.08239099 0.08997977 -0.004946483 0.018708508
0.08310753 0.07161183 -0.059673265 0.073833786 -0.095505886 0.15216409 -0.015080217 0.19455819
00000000: c277 c9bc eee5 a63d 72c3 3a3e 2053 adbd
00000010: 07ed dbbd c920 443e 3442 023e 347d 0a3e
00000020: 5901 f03d e7b5 4d3c a943 223e 9dbf 723b
00000030: 6705 1e3d eda3 143e 59e3 a33d 774f 1bbe
00000040: 4eac 4b3e 9773 d53d 38bd dd3c ee4c 19bd
00000050: 559b 153e 9910 813d 3379 d03d bd97 ff3d
00000060: c583 f7bc f532 a73d e9b4 83bd 0d6c 82bd
00000070: ee59 9dbd 681a cabb 1d01 a63d 5134 913d
00000080: 8fce 2dbd 6dfb 3ebe d64c d63d 927f ef3d
00000090: 318a abbc 1aae 85bd 650c 073c 05f8 ff3d
000000a0: 3d7b c43d 9a15 6cbd aa20 2cbe 262b c93d
000000b0: 6231 bebc 97bf cabd 2c1a 34be 8c0b 303c
000000c0: 3405 843d c683 9e3d d61f aabc 5253 3cbe
000000d0: b022 aebd 0d9c c83d 3647 66bd b2cf f63d
000000e0: c7e7 713d 91d1 a03d 617e d0bd a8ea 293d
000000f0: afbc 193e 6cc8 dd3c 5d74 b2bc 44b0 953d
00000100: c588 d2bd 4c4f 44bd f58d 81bd ae3b b5bb
00000110: 9d61 d63d 3315 1f3d 98b0 d2bd 4586 7d3e
00000120: ef90 9ebc c924 de3d 7a65 443d 9538 fc3c
00000130: 1018 1cbd bbfe ad3d 77e1 103e b795 57bd
00000140: fb87 243e 84cf cebc 7ae6 a53d a5a7 6ebd
00000150: 48bf 573d affb 0e3d 6119 e43d e604 c0bd
00000160: 40b5 073e 3932 1c3e 9271 95bd 0d04 093d
00000170: cb2c de3c 4160 773b e775 cd3b f96d 9bbd
00000180: 85d4 cb3d 18cf b9bd 14f0 093e 26cc 01bb
00000190: b7ea f6bd 25e7 1f3e 8b7c bbbd 44c7 18bc
000001a0: 74a0 da3d e993 3dbd 9d50 d03c e71d 49bc
000001b0: 578b e3bd 3690 2abe 6f24 2d3e 3f4c 3dbd
000001c0: b3e8 293e 5de4 c73d 8ec9 123c b441 a7bd
000001d0: bbbe f0bd 50da 5e3c 91c9 6fbc f714 e9bd
000001e0: 562a 483e 9345 943c c771 deba 38b4 de3d
000001f0: 9e59 923d 23a2 b63d d318 873d 4214 28bd
00000200: 1c87 0abd f8a5 04b9 6a0c a2bd e6d1 8c3d
00000210: 4dde 7dbc 6072 b53d 30bb acbd 8a47 3f3e
00000220: 15b0 983d 245f 2f3b 9ca4 0f3d 01c5 74bd
00000230: 8a60 b7bd 1e2a f23c 79f3 a5bd 1d49 3a3d
00000240: 9783 073a afe5 61bb 3715 a93d 7804 08bb
00000250: b6f3 3ebd b026 683c d999 42bd b4ce 803d
00000260: e1c8 113d 3103 a4bd 5b5e 343d 226e 95bc
00000270: 5b48 853c f596 ae3a 46e0 b3bc b286 473b
00000280: 47ac fbbd 792d 8a3d 7f44 823d 28f6 073d
00000290: 2234 503d 2a50 bd3d cef0 d5bc 6290 97bd
000002a0: 3146 143e 9287 d63b 7d91 5f3d bfbf b5bd
000002b0: 7aed 00bd 538a bbbd 25df c43b 31d9 13bd
000002c0: 9138 893c 66f6 27bd 5648 c83c 4254 fb3c
000002d0: c03f 55bd 77ad 043e 8139 d33c 6514 99bc
000002e0: ab06 153d 7990 a9bd 102a 9abd 947f 963d
000002f0: c1c8 27bd a798 aa3b e700 d73d 4fc9 4e3d
00000300: 304b 4c3d 4884 703d 2cb6 15bd 88e3 a6bd
00000310: 0a3c c3bd 5109 633b 8817 45be 2f0d e13d
00000320: dc51 6f3d a524 33bc 1772 d43d 05ba 893c
00000330: 56dd b9bc cbbf e33d 13a9 313e 90fb d8bd
00000340: c7a8 383d 163d 303e c57e ccbd 9b58 1b3d
00000350: 8267 743d f2cf 3fbd 6028 93bd b571 31bd
00000360: b8a0 2b3d ec1b 9e3d 6331 c5bb 34c3 923d
00000370: 900e b13d c280 4fbb 6398 87bc 9e2a 9c3c
00000380: 6178 eebc b32e bd3c 80c3 bd3c 0c7e 3e3d
00000390: c12e 00be b968 c5bb 640c 4b3c 5aee 1c3e
000003a0: 458f 1ebd 09f3 ab3d 3984 2ebd 444e 53bd
000003b0: 8ac9 3d3c eb09 663d 04d4 c43c 9a09 4d3d
000003c0: 4db4 d9bc 748d 3c3d 0c01 cfbd 0446 06be
000003d0: 9bbc a8bd 5047 b83d 1b16 a2bb 9642 993c
000003e0: 4834 aa3d 39a9 923d f46b 74bd 2b36 973d
000003f0: 9798 c3bd e7d0 1b3e 0413 77bc 433a 473e

sequential_1_1/lstm_1/while/lstm_cell_1/add_1/ReadVariableOp f4 [256]
0.053350467 -0.035712667 -0.036121316 -0.04663015 -0.037364747 0.0111807175 -0.027100524 -0.026340779
-0.010857098 -0.021451818 -0.051220883 -0.02188112 -0.015253715 -0.005005768 0.0012440928 0.013001966
-0.03203689 -0.02661987 0.010169151 -0.019098788 -0.041942947 -0.012498506 -0.037008695 0.011096452
-0.02808664 -0.038775355 -0.026680922 -0.039866723 -0.0498944 -0.01605745 -0.017601574 -0.02017804
-0.0078006806 -0.02369888 -0.023774572 -0.045680154 -0.02628575 -0.0146114575 -0.053940132 -0.025450291
-0.02570118 -0.019125374 -0.057195604 -0.05771625 -0.042934097 -0.03399057 -0.016422085 -0.05555945
-0.02067854 -0.0108519755 -0.03447272 -0.024234971 -0.046245635 -0.050237935 -0.019546464 -0.055890877
-0.057606764 -0.03630387 -0.01207846 -0.028125685 -0.009809812 -0.008986757 -0.01490665 0.014566291
0.96837056 0.97792953 0.97065824 0.95472336 0.9611256 0.91440576 0.9795709 0.9707739
0.98327357 0.96663433 0.9526372 0.97497874 0.98199433 0.9988226 0.9837338 0.9284736
0.971929 0.96652174 1.0254786 0.97562844 0.96514547 0.98414904 0.9323591 0.9433749
0.95702714 0.9590571 0.9733274 0.9740608 0.96606857 0.9650428 0.9608438 0.98616904
0.96588635 0.9822752 0.9625071 0.94577986 0.8906092 0.969188 1.02622 0.98753256
0.9617464 1.008352 0.93855745 0.9467136 0.955544 0.96453863 0.9805938 0.9564082
0.985528 0.9916646 0.97524786 0.92366105 0.95912 0.972234 0.9833103 0.95581263
0.9393323 0.96298426 1.0102779 0.94876325 0.982702 0.9906654 0.9830678 0.9256045
-0.0017381795 -0.008787542 -0.02063619 -0.0016261255 -0.01918991 0.005513053 -0.0065022917 -0.012018605
0.007130183 -0.025436243 -0.0046952567 0.007693912 -0.0095350295 0.0028278304 -0.015329803 -0.0030847979
-0.012789353 0.0094294 0.0068008034 0.017901324 0.00622691 0.013503194 0.0025321164 0.02577674
0.021205544 0.021142783 -0.019130837 0.013768295 -0.0048020817 0.010267373 -0.008273524 -0.007629977
0.01312252 -0.013593643 0.014752191 0.0114567485 0.0024698013 0.018580392 0.015485358 0.01156389
0.015018465 -0.009302394 -0.004415683 0.013163986 0.0038961016 -0.0005884439 0.0057740426 -0.0055045276
0.0026067859 0.023031173 -0.032575153 0.014770959 -0.008745264 0.020277735 -0.016299346 -0.0060042003
-0.013092275 0.016579 -0.0007609819 -0.015006318 0.0055501256 0.012999665 0.022385677 0.007479792
0.06012419 -0.035853263 -0.03983818 -0.045099515 -0.038265634 0.01198848 -0.027573993 -0.027511803
-0.013070272 -0.024321718 -0.05202199 -0.023903048 -0.015815288 -0.002829542 0.0042858603 0.015156307
-0.030312309 -0.025041508 0.008980497 -0.018708963 -0.039331112 -0.013007793 -0.039354824 0.012194815
-0.02832835 -0.038941834 -0.026767084 -0.041326765 -0.05238751 -0.014947925 -0.017044479 -0.019959925
-0.0053993813 -0.028118843 -0.020996949 -0.046920873 -0.024266582 -0.015400756 -0.056991864 -0.027781826
-0.026230605 -0.009048816 -0.056873657 -0.055367388 -0.04372349 -0.03251604 -0.016980907 -0.05418679
-0.023180956 -0.0112973815 -0.035831433 -0.021835243 -0.049657375 -0.049836222 -0.019600568 -0.058562294
-0.0576565 -0.035787437 -0.010054399 -0.022382135 -0.010261111 -0.010093919 -0.014763176 0.021620186
00000000: 0586 5a3d 7247 12bd f2f3 13bd 42ff 3ebd
00000010: c70b 19bd 542f 373c eb01 debc 9ec8 d7bc
00000020: f8e1 31bc b9bb afbc fdcc 51bd 0940 b3bc
00000030: b8ea 79bc 6d07 a4bb d410 a33a 3306 553c
00000040: 1d39 03bd ea11 dabc 839c 263c 1075 9cbc
00000050: 5ecc 2bbd 89c6 4cbc 6e96 17bd e5cd 353c
00000060: f415 e6bc e8d2 1ebd f391 dabc 4a4b 23bd
00000070: 125e 4cbd ea8a 83bc 2d31 90bc 6b4c a5bc
00000080: da9c ffbb 2724 c2bc e4c2 c2bc 1d1b 3bbd
00000090: 3755 d7bc e564 6fbc 54f0 5cbd 217d d0bc
000000a0: 488b d2bc d1ac 9cbc f045 6abd e067 6cbd
000000b0: aadb 2fbd b239 0bbd 9c87 86bc 4e92 63bd
000000c0: 0b66 a9bc 7ccc 31bc 4433 0dbd 6b88 c6bc
000000d0: 106c 3dbd 4bc6 4dbd e81f a0bc d5ed 64bd
000000e0: 12f5 6bbd 5eb3 14bd bce4 45bc d667 e6bc
000000f0: 55b9 20bc 313d 13bc 063b 74bc 74a7 6e3c
00000100: 22e7 773f 9759 7a3f 0f7d 783f c068 743f
00000110: 540c 763f 7f16 6a3f 29c5 7a3f a384 783f
00000120: d1b7 7b3f 5975 773f 08e0 733f 3598 793f
00000130: fb63 7b3f d7b2 7f3f fad5 7b3f 72b0 6d3f
00000140: 57d0 783f f86d 773f e242 833f c9c2 793f
00000150: c613 773f 31f1 7b3f 16af 6e3f 0481 713f
00000160: bbff 743f c484 753f fc2b 793f 0c5c 793f
00000170: 4550 773f 0c0d 773f dcf9 753f 9375 7c3f
00000180: 5444 773f 6376 7b3f de66 763f a11e 723f
00000190: f7fe 633f b41c 783f 2d5b 833f efce 7c3f
000001a0: 0335 763f ae11 813f 4d45 703f d35b 723f
000001b0: 889e 743f 01ec 763f 3208 7b3f 2bd7 743f
000001c0: 904b 7c3f bbdd 7d3f d8a9 793f 0d75 6c3f
000001d0: e388 753f 54e4 783f 39ba 7b3f 23b0 743f
000001e0: 1578 703f 2386 763f c950 813f 26e2 723f
000001f0: 5c92 7b3f 3f9c 7d3f 55aa 7b3f 6bf4 6c3f
00000200: a0d3 e3ba 9ff9 0fbc 3a0d a9bc b823 d5ba
00000210: 2834 9dbc d7a6 b43b 2d11 d5bb afe9 44bc
00000220: 4fa4 e93b ab5f d0bc abda 99bb 361d fc3b
00000230: d038 1cbc 1f53 393b db29 7bbc 522a 4abb
00000240: 6f8a 51bc c57d 1a3c 46d9 de3b cca5 923c
00000250: 1b0b cc3b 803c 5d3c ddf1 253b be29 d33c
00000260: 40b7 ad3c a133 ad3c 46b8 9cbc 6a94 613c
00000270: c85a 9dbb 7c38 283c ad8d 07bc e304 fabb
00000280: d7ff 563c dfb7 5ebc 2cb3 713c 16b5 3b3c
00000290: 64dc 213b e835 983c 4db6 7d3c 7876 3d3c
000002a0: 0210 763c 1269 18bc 6fb1 90bb c2ad 573c
000002b0: bd55 7f3b cd41 1aba 2e34 bd3b 535f b4bb
000002c0: 9cd6 2a3b dfab bc3c 866d 05bd e401 723c
000002d0: 4c48 0fbc 7e1d a63c 3586 85bc e2be c4bb
000002e0: fb80 56bc afd0 873c a17c 47ba 0fdd 75bc
000002f0: d4dd b53b 8cfc 543c 2b62 b73c 0b19 f53b
00000300: c844 763d dfda 12bd 5c2d 23bd 45ba 38bd
00000310: 6dbc 1cbd 546b 443c dbe2 e1bc 6f60 e1bc
00000320: b224 56bc 573e c7bc 0315 55bd 53d0 c3bc
00000330: 108f 81bc d66f 39bb 6770 8c3b 2952 783c
00000340: 8551 f8bc d923 cdbc ef22 133c 8a43 99bc
00000350: a919 21bd a31e 55bc 8632 21bd c3cc 473c
00000360: db10 e8bc 7981 1fbd a546 dbbc 4146 29bd
00000370: 4994 56bd 24e8 74bc dda0 8bbc ff82 a3bc
00000380: 4bed b0bb 7d59 e6bc cb01 acbc 1a30 40bd
00000390: b6ca c6bc 7453 7cbc 4d70 69bd b696 e3bc
000003a0: 91e1 d6bc 7c41 14bc 5af4 68bd eac8 62bd
000003b0: 6717 33bd 8a2f 05bd 8b1b 8bbc f8f2 5dbd
000003c0: fde5 bdbc a718 39bc fbc3 12bd d3df b2bc
000003d0: 8865 4bbd 1121 4cbd 5f91 a0bc 04df 6fbd
000003e0: 3929 6cbd d995 12bd 35bb 24bc bd5a b7bc
000003f0: 381e 28bc f760 25bc 40e1 71bc d11c b13c

arith.constant25 f4 [128, 64]
-0.014028332 0.09719993 -0.10563139 0.009584609 0.030081643 0.16357495 0.15609922 0.07873494
-0.0670292 0.055849355 -0.08005805 0.03064539 -0.09488046 0.07532525 -0.00872274 -0.2004274
-0.06475789 0.041193716 -0.15807042 0.1577339 -0.13220936 -0.03073182 0.11055049 -0.08740414
-0.009532601 0.16763592 0.20975107 -0.15378709 -0.019235156 0.08889251 -0.19047861 -0.022046996
-0.02457291 0.13333263 0.09846754 0.026700923 0.07952472 -0.023234058 -0.029451305 0.04162228
0.00052808074 -0.11678683 -0.21768725 -0.062511116 -0.07969324 0.17766888 0.22495559 0.14776015
-0.13498853 0.006726947 -0.011151848 -0.13634996 -0.047506113 -0.015948772 0.027004465 0.10167036
0.20494652 -0.14872316 -0.1736572 -0.11846371 0.13588701 0.023272023 0.09146967 0.16160648
-0.023174454 -0.01790712 -0.009235518 0.054304313 -0.062022183 -0.022823658 -0.10373786 0.111504935
-0.031573348 0.016604926 0.022896772 -0.05981771 -0.07108901 0.13681288 -0.03432891 -0.18525192
-0.04006369 -0.0061065843 0.11542898 -0.14493525 0.013393582 0.06312604 -0.1390182 0.18339454
0.20553774 0.05364618 -0.15073662 -0.13263287 -0.16034949 -0.07177665 0.046870768 0.037757788
0.13676092 -0.06602003 0.052110124 -0.044900097 -0.14014754 0.084184736 0.025751283 -0.14367655
0.09261685 0.023122966 -0.196268 0.017268613 -0.1156025 0.117087975 0.18284428 -0.07786632
-0.03207843 0.17872293 0.12618269 0.13358442 -0.010471759 0.013898605 -0.15521671 0.056071594
0.19623505 -0.15193081 -0.09061371 0.10526648 0.12787032 -0.09401006 -0.14444415 0.062933795
-0.15566584 0.0031065794 0.0935833 -0.05653738 0.029558862 0.06891086 0.038610615 0.110552385
0.063275576 -0.072393574 -0.04683885 -0.11208624 0.021615624 -0.09269777 -0.04686429 0.1313917
0.023791134 0.1095393 -0.18686375 -0.04039117 -0.12924144 -0.0816994 0.16134836 -0.011628693
0.10395038 0.05857965 -0.1342113 -0.0978286 -0.059430916 -0.044831652 -0.120157 -0.042833515
0.010535828 0.1168941 0.16936718 0.028490938 -0.08558388 0.012807682 -0.20258579 -0.18905348
-0.1250674 -0.052410524 0.18926878 -0.12350577 -0.06611815 -0.11521556 0.12637068 -0.050572157
-0.07237299 0.11378141 -0.116161935 0.08332492 0.115009755 0.061739113 -0.12130616 0.16203842
0.12625532 -0.094188675 -0.15719497 -0.030908395 -0.14655459 0.11318696 0.051536214 -0.12222762
0.08199269 -0.038406532 0.06494501 -0.04888526 0.12957484 0.15203963 0.1121954 0.11729807
0.027848784 0.09242359 -0.058351062 0.13431683 0.12431705 -0.12407564 -0.07367717 0.06843209
-0.053598568 0.13145389 -0.07515974 0.048940185 -0.14753261 -0.10242043 0.17245808 -0.071627855
-0.02847766 0.0042701014 -0.17267516 0.16374023 -0.1705907 0.06514638 -0.06634414 0.08207095
0.07061106 0.11729338 -0.082074344 0.03998802 0.15446125 -0.073763184 -0.2527179 0.04426154
-0.11476867 -0.10371541 -0.15006042 0.0026165748 0.1547901 -0.08835417 0.05940931 0.08517782
0.11739392 -0.086146384 -0.17232665 -0.057461437 -0.1145984 0.18389729 0.061960604 0.10182402
-0.089731246 -0.043274734 -0.1664858 0.07135761 -0.08848965 0.0054073967 -0.04373125 0.03633896
00000000: 17d7 65bc c210 c73d 4555 d8bd c408 1d3c
00000010: c76d f63c 3180 273e 79d8 1f3e c93f a13d
00000020: 9b46 89bd 4bc2 643d 7af5 a3bd 0a0c fb3c
00000030: b050 c2bd 2044 9a3d d3e9 0ebc d73c 4dbe
00000040: c99f 84bd beba 283d 36dd 21be ff84 213e
00000050: e461 07be 4cc1 fbbc 4c68 e23d f100 b3bd
00000060: a02e 1cbc c0a8 2b3e fcc8 563e 5d7a 1dbe
00000070: 0c93 9dbc 470d b63d d30c 43be e79b b4bc
00000080: 214d c9bc 5988 083e 5aa9 c93d e5bb da3c
00000090: dbdd a23d 5a55 bebc dd43 f1bc 207c 2a3d
000000a0: e66e 0a3a ef2d efbd 68e9 5ebe d405 80bd
000000b0: 3636 a3bd d5ee 353e c25a 663e 704e 173e
000000c0: 6f3a 0abe b96d dc3b 3eb6 36bc 539f 0bbe
000000d0: c595 42bd 00a7 82bc 7838 dd3c 8d38 d03d
000000e0: 80dd 513e e24a 18be 31d3 31be 1a9d f2bd
000000f0: f725 0b3e f8a4 be3c 7354 bb3d 2b7c 253e
00000100: 5ad8 bdbc f4b1 92bc 9250 17bc 336e 5e3d
00000110: f90a 7ebd aef8 babc 8474 d4bd b35c e43d
00000120: 0e53 01bd 0e07 883c 0392 bb3c 6a03 75bd
00000130: 1d97 91bd ad18 0c3e 799c 0cbd aeb2 3dbe
00000140: d319 24bd be19 c8bb 0766 ec3d e869 14be
00000150: c170 5b3c 3a48 813d c95a 0ebe c7cb 3b3e
00000160: 7c78 523e 19bc 5b3d b35a 1abe e9d0 07be
00000170: a832 24be a3ff 92bd 90fb 3f3d e9a7 1a3d
00000180: 0e0b 0c3e 8235 87bd 6d71 553d 2ae9 37bd
00000190: d682 0fbe 0c69 ac3d 5bf4 d23c f21f 13be
000001a0: e7ad bd3d 606c bd3c 7bfa 48be e876 8d3c
000001b0: 01c1 ecbd d2cb ef3d 883b 3b3e 6178 9fbd
000001c0: ac64 03bd 2503 373e 0936 013e 5bca 083e
000001d0: be91 2bbc f9b6 633c 21f1 1ebe 54ab 653d
000001e0: d7f1 483e c093 1bbe ae93 b9bd f495 d73d
000001f0: 70f0 023e 5988 c0bd 2be9 13be 6fe3 803d
00000200: de66 1fbe c197 4b3b 9aa8 bf3d bd93 67bd
00000210: 6d25 f23c 2321 8d3d 2a26 1e3d 4a69 e23d
00000220: a096 813d 1543 94bd 18da 3fbd 788d e5bd
00000230: 4013 b13c 54d8 bdbd c5f4 3fbd 8c8b 063e
00000240: a0e5 c23c 2456 e03d 3659 3fbe 3671 25bd
00000250: de57 04be 0452 a7bd 8138 253e 4686 3ebc
00000260: f0e3 d43d 37f1 6f3d b06e 09be 5c5a c8bd
00000270: d56d 73bd 65a1 37bd e014 f6bd 3272 2fbd
00000280: 779e 2c3c 2d66 ef3d 976e 2d3e d465 e93c
00000290: 9a46 afbd 50d7 513c a672 4fbe 3c97 41be
000002a0: ab11 00be 6bac 56bd adcf 413e 98f0 fcbd
000002b0: f468 87bd 23f6 ebbd 5167 013e c024 4fbd
000002c0: 4a38 94bd 3a06 e93d 4fe6 edbd 41a6 aa3d
000002d0: 3c8a eb3d 27e2 7c3d 5d6f f8bd 66ed 253e
000002e0: 1349 013e fee5 c0bd b8f7 20be 9a33 fdbc
000002f0: 6812 16be 91ce e73d a317 533d 7952 fabd
00000300: c9eb a73d 2b50 1dbd e401 853d e93b 48bd
00000310: 44af 043e 47b0 1b3e b4c6 e53d f839 f03d
00000320: 2223 e43c 9448 bd3d 8601 6fbd 5a8a 093e
00000330: f099 fe3d 5f1b febd 0ee4 96bd 2026 8c3d
00000340: 2c8a 5bbd d99b 063e 5aed 99bd 8175 483d
00000350: ca12 17be cdc1 d1bd da98 303e a0b1 92bd
00000360: fb49 e9bc 35ec 8b3b c2d1 30be 85ab 273e
00000370: 54af 2ebe 776b 853d 70df 87bd d014 a83d
00000380: 889c 903d 8337 f03d 9816 a8bd 7aca 233d
00000390: 172b 1e3e 2711 97bd 3e64 81be 974b 353d
000003a0: d60b ebbd bf68 d4bd 70a9 19be d77a 2b3b
000003b0: 4c81 1e3e 08f3 b4bd 2d57 733d b571 ae3d
000003c0: 396c f03d 846d b0bd 6676 30be af5c 6bbd
000003d0: 91b2 eabd 924f 3c3e 67ca 7d3d 1d89 d03d
000003e0: 04c5 b7bd d940 31bd 417b 2abe f023 923d
000003f0: 103a b5bd 8830 b13b 8a1f 33bd 29d8 143d

arith.constant26 f4 [128, 32]
-0.10321077 0.033608392 0.15768223 -0.0997283 0.030602735 0.0063935546 -0.08188784 0.040529974
-0.022756089 0.029081067 -0.07706243 0.12539753 0.09731634 0.032007374 -0.10688957 -0.14127783
-0.07498956 -0.2170506 0.148376 -0.14723757 -0.077546984 -0.11043608 0.0024236094 -0.07348398
0.026123537 -0.034979712 -0.053904068 -0.025623426 0.13481617 -0.016097335 0.032466903 -0.0037655449
-0.08338514 0.09130314 -0.064447194 -0.0030100981 -0.012094554 -0.12452461 0.07742869 -0.15793815
0.075964205 -0.02684699 -0.0734669 -0.029879479 0.038741883 -0.07285727 0.06493634 0.036430094
-0.06874911 -0.13898769 -0.08835115 0.009596927 -0.1154763 0.064995766 0.067304574 -0.085206464
0.16183853 -0.20383249 -0.08562141 0.056758445 0.09129927 0.067948274 -0.056728978 -0.018700318
0.093985535 -0.020957187 0.06572178 0.11839434 -0.067134865 0.097670145 -0.00348861 0.03868534
-0.03617367 0.15491433 0.06809033 0.0029168602 0.0103855 0.031816825 -0.12566966 -0.10151356
0.012088605 0.02845036 0.09785425 -0.032307222 -0.03828552 0.12565258 0.00043518256 0.0785885
-0.18266024 0.1577122 -0.016257849 -0.19453484 0.10957868 -0.021236476 -0.047319483 -0.14947264
-0.18120204 0.038653336 -0.07701674 0.1201704 0.1033629 0.020375105 0.007377748 0.1049365
0.059590347 0.13288128 -0.16318332 0.16750391 0.05041366 0.05737144 0.123377085 -0.042224273
-0.10777421 0.033140343 -0.09892673 -0.024352051 -0.09650185 0.1855269 0.077425554 0.04201193
-0.02464792 -0.046783548 -0.1118575 -0.15746596 0.098887205 0.112137176 -0.07801935 0.0859491
0.08172853 0.08802837 -0.067843206 -0.047907364 0.14277671 0.20671386 -0.059648715 -0.024779033
0.049925245 -0.06155121 0.05100314 0.06644017 -0.13264355 -0.103492945 0.020742856 0.13393621
-0.1366774 -0.10885496 0.04785147 0.0007013757 -0.03504797 -0.094361246 0.11830742 -0.12569188
-0.014494995 -0.050968166 0.06799017 0.012435287 -0.014964849 0.11251488 -0.00086083193 -0.2722339
0.10843639 0.11148829 -0.0206705 -0.103924185 0.12549572 0.21168171 -0.10350555 0.10946424
-0.065709464 -0.07233548 0.1574819 0.08151809 0.030821301 -0.028089054 -0.020059278 -0.18817256
-0.033080973 -0.20979504 0.027649462 0.16766782 -0.09562384 0.22059926 -0.054334298 -0.0823399
0.13899286 -0.015272712 -0.00027154165 0.070946194 0.23602055 0.13412914 -0.06411861 0.068032496
0.043224305 0.044312797 -0.04988858 -0.12323959 0.09851744 0.06685872 0.09069805 -0.09027534
-0.14180039 -0.036018454 -0.062261943 -0.056456693 -0.12895712 -0.037340716 0.025510363 0.09458542
-0.11483552 0.07595293 0.038078915 0.0047405455 -0.0920107 0.11757422 -0.024331842 -0.009970646
-0.01866764 0.09629641 -0.001004125 -0.14935009 0.14021456 0.08011877 0.017316379 0.010433775
0.059409667 0.11924049 0.026960652 -0.1284949 0.15690863 -0.088230275 0.000810042 -0.09431505
-0.02858038 -0.2656219 -0.07377681 0.10785702 -0.087394096 0.030507997 -0.04241429 -0.1485635
0.08426752 -0.014396698 0.034974534 0.11846634 0.09959023 0.10617305 -0.091027424 0.090355136
-0.05672828 -0.01467375 -0.11284908 -0.043702222 0.05431188 0.0833587 -0.08240035 -0.0762674
00000000: 2b60 d3bd f4a8 093d 7377 213e 5a3e ccbd
00000010: 96b2 fa3c 0681 d13b d0b4 a7bd c202 263d
00000020: fa6a babc 6b3b ee3c e8d2 9dbd 3668 003e
00000030: ca4d c73d 2a1a 033d ebe8 dabd 23ab 10be
00000040: 2094 99bd 8342 5ebe e1ef 173e 72c5 16be
00000050: f4d0 9ebd 502c e2bd 6bd5 1e3b c57e 96bd
00000060: 0701 d63c e346 0fbd 83ca 5cbd 38e8 d1bc
00000070: 400d 0a3e 8fde 83bc 04fc 043d 5cc7 76bb
00000080: d4c5 aabd 24fd ba3d e4fc 83bd 1145 45bb
00000090: 3c28 46bc c206 ffbd ef92 9e3d 8aba 21be
000000a0: 1f93 9b3d 38ee dbbc d075 96bd cfc5 f4bc
000000b0: cfaf 1e3d 3136 95bd 58fd 843d b937 153d
000000c0: 55cc 8cbd ca52 0ebe 73f1 b4bd 6e3c 1d3c
000000d0: d77e ecbd 801c 853d fbd6 893d ba80 aebd
000000e0: 00b9 253e 77b9 50be 475a afbd 8b7b 683d
000000f0: 1dfb ba3d 7728 8b3d a55c 68bd 6931 99bc
00000100: 7d7b c03d 68ae abbc 2499 863d bb78 f23d
00000110: 017e 89bd 4907 c83d 2aa1 64bb 8574 1e3d
00000120: d82a 14bd dda1 1e3e f172 8b3d cb28 3f3b
00000130: f227 2a3c 5c52 023d 8caf 00be 57e6 cfbd
00000140: 490f 463c bb10 e93c cf67 c83d 9454 04bd
00000150: 47d1 1cbd 12ab 003e 3729 e439 02f3 a03d
00000160: 490b 3bbe 4f7f 213e 2e2f 85bc 2434 47be
00000170: c96a e03d 1ef8 adbc 13d2 41bd 5b0f 19be
00000180: 078d 39be f652 1e3d f4ba 9dbd e61b f63d
00000190: eeaf d33d b1e9 a63c 09c1 f13b f3e8 d63d
000001a0: 0215 743d 0812 083e 8719 27be 2586 2b3e
000001b0: 8e7e 4e3d 51fe 6a3d 20ad fc3d 5cf3 2cbd
000001c0: bab8 dcbd 2bbe 073d 199a cabd f47d c7bc
000001d0: c3a2 c5bd c4fa 3d3e 4a91 9e3d b414 2c3d
000001e0: 6fea c9bc 1ba0 3fbd 8c15 e5bd c23e 21be
000001f0: 6085 ca3d 2da8 e53d 9cc8 9fbd 1506 b03d
00000200: 4a61 a73d 3848 b43d 61f1 8abd 833a 44bd
00000210: 0f34 123e ccac 533e 3652 74bd 66fd cabc
00000220: 6a7e 4c3d 1f1d 7cbd abe8 503d c911 883d
00000230: b6d3 07be 1cf4 d3bd ecec a93c 9326 093e
00000240: 29f5 0bbe 59ef debd e7ff 433d 87dc 373a
00000250: 768e 0fbd 7840 c1bd 294b f23d 5fb5 00be
00000260: 6a7c 6dbc ffc3 50bd 6e3e 8b3d 60bd 4b3c
00000270: 202f 75bc 346e e63d 74a9 61ba 3e62 8bbe
00000280: e613 de3d f953 e43d 2e55 a9bc 34d6 d4bd
00000290: f381 003e 17c3 583e b8fa d3bd ca2e e03d
000002a0: af92 86bd a024 94bd ef42 213e f5f2 a63d
000002b0: f47c fc3c 041b e6bc 5b53 a4bc 4fb0 40be
000002c0: ea7f 07bd 83d4 56be 2081 e23c 1db1 2b3e
000002d0: 6fd6 c3bd c6e4 613e a48d 5ebd d2a1 a8bd
000002e0: 2554 0e3e 663a 7abc b45d 8eb9 3d4c 913d
000002f0: 5faf 713e 2659 093e 9e50 83bd 9f54 8b3d
00000300: f80b 313d 5681 353d f857 4cbd 0a65 fcbd
00000310: 83c3 c93d 39ed 883d e6bf b93d 47e2 b8bd
00000320: 1f34 11be 1688 13bd 6106 7fbd 223f 67bd
00000330: 560d 04be 94f2 18bd 1cfb d03c 00b6 c13d
00000340: e32e ebbd 368d 9b3d a3f8 1b3d 9456 9b3b
00000350: 1b70 bcbd c1ca f03d 9253 c7bc ec5b 23bc
00000360: e1ec 98bc 0d37 c53d d89c 83ba 3bef 18be
00000370: 6894 0f3e 4f15 a43d 14db 8d3c 6df2 2a3c
00000380: 8d57 733d 5c34 f43d 96dc dc3c 2b94 03be
00000390: a8ac 203e 13b2 b4bd 0059 543a 4028 c1bd
000003a0: 6721 eabc 98ff 87be 4c18 97bd 24e4 dc3d
000003b0: adfb b2bd e8eb f93c 9bba 2dbd 0821 18be
000003c0: 7394 ac3d 21e0 6bbc 7541 0f3d 7b9e f23d
000003d0: f6f5 cb3d 4271 d93d 966c babd 1d0c b93d
000003e0: ea5b 68bd 2b6a 70bc 6b1d e7bd 1a01 33bd
000003f0: 2276 5e3d f7b7 aa3d 84c1 a8bd 1532 9cbd

sequential_1_1/lstm_1_2/while/lstm_cell_1/add_1/ReadVariableOp f4 [128]
-0.053680822 -0.046598203 -0.014520898 -0.042602085 -0.03667054 -0.084018454 -0.029498449 -0.064344436
-0.04296584 -0.044627942 -0.042934276 -0.047122426 -0.018288035 -0.028579747 -0.06819854 -0.027853576
-0.060455814 -0.05586582 -0.05965829 -0.034249566 -0.00849087 -0.041981794 -0.042331386 -0.0686186
-0.042145867 -0.044149082 -0.044412557 -0.075450845 -0.04883974 -0.043854967 -0.053406756 -0.10837844
0.9290627 0.8735039 0.98949295 0.9843539 0.943592 0.90915024 0.9718512 0.94045043
0.94021535 0.95136046 0.9262247 0.89143157 0.98140347 0.9539313 0.9526028 0.9587111
0.9606847 0.95224917 0.9525812 0.941176 0.99102914 0.94940716 0.93784016 0.9561322
0.9618388 0.9387843 0.93309253 0.91535497 0.954527 0.95993686 0.9490496 0.90880346
0.009904632 0.0055670403 -0.024653884 0.0073897084 -0.0071011633 4.9254395e-05 -0.010273826 -0.00033667206
-0.0006211259 0.0027366509 -0.0059686275 -0.0014680362 -0.008493696 -0.005655165 -0.010234722 0.0084439125
0.009571379 0.0053855493 -0.004067426 0.005463574 0.016976483 -0.005046765 -0.005017769 -0.00704775
-0.028019436 0.004667233 0.008961344 0.01519353 0.009916815 0.0054645175 0.01168093 0.0046478854
-0.051563885 -0.042534813 -0.013949095 -0.04200978 -0.038074 -0.0842824 -0.028929446 -0.06251291
-0.04291387 -0.043104913 -0.04372723 -0.049150977 -0.017521355 -0.02690008 -0.06992874 -0.029823696
-0.061997022 -0.053708557 -0.05723983 -0.0402295 -0.0087061925 -0.03996739 -0.04089032 -0.06639957
-0.042241618 -0.04727423 -0.0468895 -0.075362526 -0.045119904 -0.041435283 -0.05170092 -0.1081559
00000000: 6ce0 5bbd c2dd 3ebd 10e9 6dbc 867f 2ebd
00000010: d933 16bd de11 acbd bba6 f1bc 04c7 83bd
00000020: f3fc 2fbd cacb 36bd dadb 2fbd 7203 41bd
00000030: cad0 95bc 1320 eabc adab 8bbd 2f2d e4bc
00000040: 84a0 77bd 8fd3 64bd 405c 74bd 4649 0cbd
00000050: 4a1d 0bbc 1af5 2bbd ad63 2dbd e987 8cbd
00000060: 25a1 2cbd abd5 34bd f1e9 35bd f985 9abd
00000070: 2e0c 48bd 44a1 33bd 0bc1 5abd 84f5 ddbd
00000080: 0ed7 6d3f f49d 5f3f 694f 7d3f 9efe 7b3f
00000090: 3f8f 713f 12be 683f 3ecb 783f 5cc1 703f
000000a0: f4b1 703f 5c8c 733f 101d 6d3f dc34 643f
000000b0: 423d 7b3f d734 743f c7dd 733f 176e 753f
000000c0: 6fef 753f 9ac6 733f 5ddc 733f e9f0 703f
000000d0: 16b4 7d3f 590c 733f 4b16 703f 14c5 743f
000000e0: 113b 763f 2b54 703f 27df 6e3f b454 6a3f
000000f0: e25b 743f 6cbe 753f eaf4 723f 58a7 683f
00000100: 0a47 223c b86b b63b f1f6 c9bc 5e25 f23b
00000110: e0b0 e8bb 8196 4e38 8d53 28bc 5c83 b0b9
00000120: 0ed3 22ba 6259 333b 7a94 c3bb 1f6b c0ba
00000130: 2529 0bbc f64e b9bb 89af 27bc 5658 0a3c
00000140: 46d1 1c3c 4379 b03b 0b48 85bb c807 b33b
00000150: 4412 8b3c 555f a5bb 196c a4bb d0f0 e6bb
00000160: 0489 e5bc 97ef 983b 9ad2 123c 49ee 783c
00000170: 237a 223c b20f b33b 5f61 3f3c 4a4d 983b
00000180: a734 53bd fc38 2ebd bf8a 64bc 7212 2cbd
00000190: 7cf3 1bbd 409c acbd 72fd ecbc c506 80bd
000001a0: 74c6 2fbd c78e 30bd 531b 33bd 8952 49bd
000001b0: f288 8fbc 8e5d dcbc cd36 8fbd d350 f4bc
000001c0: 97f0 7dbd 81fd 5bbd 5074 6abd b0c7 24bd
000001d0: 6ba4 0ebc d9b4 23bd 9c7c 27bd 7ffc 87bd
000001e0: 8c05 2dbd 9fa2 41bd 340f 40bd ab57 9abd
000001f0: a6cf 38bd 0bb8 29bd 58c4 53bd d780 ddbd
