backend/nfc_hospital_system/ml_models/hospital_lstm.tflite (tflite, 143672 bytes, 5 tensors)

arith.constant1 f4 [1, 16]
-0.18958513 -0.028406272 -0.24598616 0.14938816 -0.023459075 0.32333225 -0.40561965 -0.011187398
0.15529121 0.48826563 0.513839 0.37314868 0.30051404 0.18811831 -0.07325672 0.123602256
00000000: 9b22 42be 45b4 e8bc cce3 7bbe 36f9 183e
00000010: 3f2d c0bc ce8b a53e 61ad cfbe 594b 37bc
00000020: a904 1f3e f4fd f93e f48a 033f 580d bf3e
00000030: fadc 993e 16a2 403e 9f07 96bd 2e23 fd3d

arith.constant2 f4 [16, 32]
0.039303806 -0.029256288 -0.1453041 -0.22936791 -0.16980013 -0.042731635 0.32478318 0.16416691
0.050622042 -0.14936602 -0.16077006 -0.36377004 0.017501988 0.1313091 -0.09224026 0.13312021
0.31988484 -0.22314289 0.18470104 0.36301604 0.03810843 0.17435645 0.31682062 -0.20670635
0.17996031 0.2212445 0.24300398 0.3385363 0.26855588 0.25872397 0.36192447 -0.28902262
0.27028117 -0.3764635 0.34149456 0.14051415 0.029980216 0.10860193 0.19129287 0.16138102
0.23927575 0.24725264 -0.14618038 0.053074557 -0.13146801 0.2838204 0.21445937 -0.28376108
-0.25071147 -0.33167467 0.06958233 0.01314505 -0.06617322 -0.17287983 -0.23759598 -0.05869777
0.3182562 -0.0127895195 -0.25707003 -0.079949476 0.0027840978 -0.19343372 -0.053490482 0.0059159156
-0.25301078 0.33632448 -0.03617375 0.08479428 0.18440476 -0.31322044 -0.16523 -0.18205234
0.33891684 0.20335314 -0.25897303 0.21473122 -0.2352055 -0.23102456 0.027571542 -0.35840157
0.046479363 0.182507 0.21031024 -0.109671265 -0.17092673 -0.07304253 -0.29506546 0.34160063
0.27277455 -0.3290761 0.26279724 -0.3416623 0.29141024 -0.12243457 -0.33732694 -0.20943394
0.32142517 -0.24423414 0.28117403 -0.25398228 0.02716517 -0.17173624 -0.2214047 0.24587032
0.12565309 0.30578366 0.12662303 -0.2817769 -0.14594896 0.30086625 -0.07583416 -0.25764558
0.08541918 -0.14067326 0.201872 0.09583552 -0.10769273 -0.0016006267 -0.06934957 -0.17021564
0.17573744 -0.18494856 0.12506042 0.30392155 -0.27039647 0.36917642 -0.124388 -0.18932667
-0.00045449386 -0.13171278 0.26038298 -0.24398941 0.037764564 -0.24025075 -0.15053485 -0.22234873
-0.09996488 0.09314081 0.36611682 -0.36739162 0.28627262 0.11652227 -0.20803308 0.15884134
0.28822348 0.18394071 0.060139395 -0.17159769 0.2477838 0.090109654 0.20499016 0.17970432
-0.15636393 -0.24685869 0.1699374 0.18850063 -0.26618332 -0.22460182 -0.19549279 0.12830679
-0.051181596 -0.12841442 0.3450222 -0.02984539 0.28598443 -0.08546553 0.3189723 -0.2929701
-0.18721724 0.16229308 -0.11452872 -0.31629542 0.115354225 -0.20123567 0.22986704 0.2930154
0.08369597 0.19092298 -0.34110123 -0.017740477 0.29178038 -0.04484851 0.13791244 -0.2520149
-0.14896172 0.042532362 -0.27469945 0.33556557 0.2302561 0.15345666 0.19407512 -0.30157372
-0.19171238 -0.14132339 0.027479142 0.052759692 0.06472944 0.060686473 0.28433475 -0.02436858
-0.062921785 -0.19011734 -0.27299273 0.19521008 0.3103099 -0.3403378 0.33679804 0.22562814
0.2868964 -0.2255934 -0.3306425 -0.24700557 -0.28324267 -0.27114695 -0.21304922 -0.17565803
-0.2854324 -0.08845888 -0.02009258 0.30748 0.0009123606 0.2654243 0.12375279 -0.035613667
-0.17462061 0.14000906 0.19050662 -0.17042714 -0.027828813 -0.1412714 -0.29493004 0.03055221
-0.14351438 -0.08041906 -0.22281747 0.2563391 0.3269553 0.22815342 0.32719865 -0.25470737
0.13431536 0.11625227 0.016838128 -0.15770154 0.082553536 -0.25740677 0.175637 0.2750703
0.348337 0.34422287 0.070747666 0.03887126 -0.33237353 -0.34161326 0.2646856 0.28773823
00000000: 07fd 203d e2aa efbc 99ca 14be 6cdf 6abe
00000010: 16e0 2dbe 5e07 2fbd fb49 a63e 5f1b 283e
00000020: 0f59 4f3d 68f3 18be e8a0 24be 1140 babe
00000030: 5460 8f3c e575 063e 76e8 bcbd aa50 083e
00000040: f2c7 a33e 927f 64be 4522 3d3e 3ddd b93e
00000050: 9617 1c3d 7f8a 323e 5036 a23e d4aa 53be
00000060: 8447 383e eb8d 623e 09d6 783e a154 ad3e
00000070: 2880 893e 7877 843e 2a4e b93e c6fa 93be
00000080: 4b62 8a3e d3bf c0be 60d8 ae3e f1e2 0f3e
00000090: 1299 f53c b06a de3d 47e2 433e 1141 253e
000000a0: b404 753e cc2f 7d3e 4fb0 15be b564 593d
000000b0: 8d9f 06be e850 913e 3d9b 5b3e 2249 91be
000000c0: 415d 80be 43d1 a9be 2e81 8e3d 565e 573c
000000d0: d385 87bd 6907 31be 5c4c 73be 136d 70bd
000000e0: 7af2 a23e 228b 51bc af9e 83be 8dbc a3bd
000000f0: 6975 363b 7d13 46be d618 5bbd 4cda c13b
00000100: a18a 81be b932 ac3e ed2a 14bd a0a8 ad3d
00000110: 9ad4 3c3e 6e5e a0be 0e32 29be ee6b 3abe
00000120: 8286 ad3e ce3b 503e 1d98 84be 80e2 5b3e
00000130: b6d9 70be b491 6cbe b7dd e13c 6980 b7be
00000140: 2561 3e3d 1de3 3a3e 915b 573e 549b e0bd
00000150: 6b07 2fbe 5297 95bd d212 97be 47e6 ae3e
00000160: 1ba9 8b3e aa7c a8be 5c8d 863e 5cee aebe
00000170: b933 953e fabe fabd 1eb6 acbe da75 56be
00000180: d791 a43e 8418 7abe 0bf6 8f3e f709 82be
00000190: 7e89 de3c a0db 2fbe eab7 62be 6ec5 7b3e
000001a0: 34ab 003e ad8f 9c3e 78a9 013e 1045 90be
000001b0: a573 15be 240b 9a3e f14e 9bbd 1fea 83be
000001c0: 40f0 ae3d a70c 10be 89b7 4e3e 6a45 c43d
000001d0: 028e dcbd 1fcc d1ba 2607 8ebd 024d 2ebe
000001e0: 84f4 333e 2863 3dbe d70f 003e 9b9b 9b3e
000001f0: 6871 8abe b104 bd3e 23bf febd dade 41be
00000200: 2249 eeb9 b7df 06be eb50 853e 5cd8 79be
00000210: 04af 1a3d 4b04 76be cf25 1abe 63af 63be
00000220: 63ba ccbd 9cc0 be3d aa73 bb3e c11a bcbe
00000230: 5392 923e 3aa3 ee3d a006 55be 4ea7 223e
00000240: 0792 933e f45a 3c3e ba54 763d 4eb7 2fbe
00000250: 09bb 7d3e 698b b83d f1e8 513e 6904 383e
00000260: de1d 20be 86c8 7cbe 1204 2e3e 4f06 413e
00000270: 2e49 88be 05fe 65be 432f 48be db62 033e
00000280: cba3 51bd 127f 03be c0a6 b03e 527e f4bc
00000290: 8d6c 923e 8d08 afbd 5650 a33e 2d00 96be
000002a0: e0b5 3fbe 2830 263e 098e eabd 79f1 a1be
000002b0: d63e ec3d b910 4ebe 4462 6b3e 1d06 963e
000002c0: cb68 ab3d 5081 433e d2a4 aebe 7a54 91bc
000002d0: 3d64 953e 12b3 37bd eb38 0d3e 1908 81be
000002e0: 6c89 18be 6a36 2e3d 68a5 8cbe 40cf ab3e
000002f0: 41c8 6b3e be23 1d3e a1bb 463e df67 9abe
00000300: 4050 44be 14b7 10be f01b e13c 8c1a 583d
00000310: de90 843d 6192 783d 5394 913e 9ea0 c7bc
00000320: 23dd 80bd 1fae 42be b4c5 8bbe 27e5 473e
00000330: f0e0 9e3e c240 aebe cb70 ac3e 100b 673e
00000340: 16e4 923e f501 67be f949 a9be 07ef 7cbe
00000350: 2f05 91be c6d3 8abe 9329 5abe b3df 33be
00000360: 3224 92be ee29 b5bd 3299 a4bc 056e 9d3e
00000370: 7c2b 6f3a b2e5 873e 1a72 fd3d a3df 11bd
00000380: bfcf 32be 895e 0f3e 2b14 433e 7484 2ebe
00000390: 40f9 e3bc 73a9 10be 1201 97be a148 fa3c
000003a0: 6ff5 12be c0b2 a4bd 432a 64be e13e 833e
000003b0: af66 a73e 0da1 693e 9586 a73e 0169 82be
000003c0: f789 093e ac15 ee3d 1df0 893c 837c 21be
000003d0: d411 a93d d2ca 83be 30da 333e 04d6 8c3e
000003e0: 3a59 b23e fb3d b03e 27e4 903d 7837 1f3d
000003f0: dd2c aabe efe7 aebe df84 873e 6d52 933e

arith.constant3 f4 [12544]
-0.12805772 -0.12795155 -0.08141025 -0.10659818 -0.1699478 0.048709843 -0.011037207 0.05837805
0.02922473 0.010766438 0.14444053 0.16271691 0.09767823 0.14355609 -0.14647806 -9.460782e-05
-0.03439454 -0.032193124 -0.13206357 -0.15955037 -0.039907735 -0.034694813 -0.071398355 -0.13486575
-0.15125509 0.1623953 0.109622195 -0.122991435 -0.019446347 0.09212697 -0.12361221 -0.08918412
0.009892311 -0.17259474 0.13163716 -0.03129162 -0.056138273 -0.034925174 0.04176677 0.06708826
-0.10977899 -0.09519909 -0.15920424 -0.04923994 -0.11953176 0.08823577 0.1368631 -0.0069393767
0.14766915 0.018191697 -0.13807796 0.08203424 -0.10248589 0.031852253 0.12282888 -0.082713485
0.11282324 -0.00018389909 -0.09549307 -0.1113299 -0.00806969 0.030427743 0.08324764 -0.09890754
0.12001466 0.1906696 0.022096876 0.13684475 0.07203631 -0.017121447 0.02712808 0.06414394
0.12631054 0.03867942 0.0013259385 -0.05545207 0.014996165 -0.11984147 0.08332557 -0.083374105
-0.17323719 0.114265166 0.20062147 0.012995534 -0.005695932 -0.103885785 0.18190816 -0.005382527
-0.044670302 -0.03065838 0.0022740706 0.05617815 -0.17133935 -0.103369735 0.10143668 -0.06597422
0.06416835 0.1934441 -0.19975449 0.09097088 0.18550035 -0.072319105 0.09898922 0.09413363
-0.14808415 -0.08431987 0.074131615 -0.1260123 -0.14711875 0.032507606 0.017227927 0.11970461
-0.11804342 0.04487757 -0.09336779 0.2046659 -0.028885601 -0.01813835 -0.13102904 0.17062117
-0.0028868297 0.19275753 -0.0076615703 -0.09161891 0.07147982 0.18775178 -0.07315036 0.13408662
-0.12603554 0.096261725 0.17884286 0.19211814 -0.038114604 0.090141274 -0.16197719 0.07060067
-0.084914856 0.07918589 -0.07823911 0.18887842 -0.008170835 -0.036483016 -0.13338028 0.04321959
-0.1305738 -0.02946518 0.033655733 -0.09820026 0.11751745 -0.01790917 -0.0026321013 -0.050826088
-0.07690794 0.08083723 -0.00091318967 0.03896145 0.146143 -0.14031634 -0.07214306 0.15864311
-0.0056059784 -0.14958532 -0.062307958 -0.12591493 -0.17792897 -0.006905256 -0.14195922 0.10900857
0.17754738 -0.12166514 0.1658459 0.09057037 0.1512326 -0.020785125 -0.072911486 0.12655237
0.15976866 -0.14148033 -0.118312664 -0.1332969 0.08783879 -0.18507086 0.13451447 -0.034438293
0.076541945 0.073841654 -0.119906716 0.07216305 -0.09827229 0.14551362 -0.11044447 -0.06869954
-0.15943035 -0.05337535 -0.062747255 0.10999331 -0.09595543 0.07265817 -0.07985275 0.040586498
-0.04267974 0.05751175 -0.082271926 0.013328694 -0.12338408 0.012672755 -0.083721206 0.08751817
0.10644423 0.07068818 -0.0839916 -0.20038244 0.0822365 -0.13451451 -0.03161377 0.18226847
0.11709606 -0.030957922 0.113711625 0.007926512 0.0005801274 -0.09484777 0.05848457 0.053775918
-0.10231529 -0.08205302 -0.090501636 0.15292807 0.15847145 0.121215634 -0.06803572 0.10503596
0.14983176 0.12608486 0.005280703 0.010601432 0.18377991 -0.08523844 -0.06465287 -0.1592196
0.08089985 -0.100959204 0.052608054 0.03023555 0.10344907 -0.07288952 0.06281612 -0.061195843
0.039840512 -0.14177825 -0.051443595 -0.005229243 -0.0065287845 0.067030005 -0.09033646 -0.16797692
00000000: 9021 03be bb05 03be 6bba a6bd 2650 dabd
00000010: cc06 2ebe f983 473d 67d5 34bc d21d 6f3d
00000020: b368 ef3c b765 303c 38e8 133e 439f 263e
00000030: 860b c83d 5e00 133e 58fe 15be 3068 c6b8
00000040: 4ae1 0cbd f0dc 03bd ac3b 07be 2c61 23be
00000050: 4b76 23bd 261c 0ebd 4d39 92bd 3f1a 0abe
00000060: 9de2 1abe f44a 263e 9a81 e03d efe2 fbbd
00000070: f24d 9fbc 11ad bc3d 6628 fdbd 2aa6 b6bd
00000080: 5c13 223c adbc 30be e4cb 063e a42b 00bd
00000090: 3ff1 65bd b30d 0fbd a213 2b3d 9265 893d
000000a0: cfd3 e0bd bef7 c2bd 7006 23be d2af 49bd
000000b0: 11cd f4bd f5b4 b43d d725 0c3e b663 e3bb
000000c0: 9536 173e c106 953c 4f64 0dbe 9101 a83d
000000d0: 1fe4 d1bd 8277 023d b58d fb3d b065 a9bd
000000e0: df0f e73d 09d5 40b9 df91 c3bd ee00 e4bd
000000f0: bc36 04bc 9a43 f93c bd7d aa3d 0990 cabd
00000100: 3fca f53d e43e 433e 8204 b53c 0821 0c3e
00000110: c687 933d 4742 8cbc b53b de3c e65d 833d
00000120: 8d57 013e 506e 1e3d 1dcb ad3a b621 63bd
00000130: 7ab2 753c 726f f5bd 99a6 aa3d 0bc0 aabd
00000140: 1765 31be db03 ea3d b76f 4d3e 38eb 543c
00000150: f1a4 babb 12c2 d4bd 2246 3a3e e95f b0bb
00000160: 35f8 36bd 4827 fbbc 9308 153b 0f1b 663d
00000170: 9573 2fbe 83b3 d3bd 09be cf3d 7e1d 87bd
00000180: b26a 833d 3616 463e 718c 4cbe f14e ba3d
00000190: cef3 3d3e 0a1c 94bd dcba ca3d 22c9 c03d
000001a0: 5fa3 17be e5af acbd 51d2 973d 5e09 01be
000001b0: 4ca6 16be b226 053d 9521 8d3c b127 f53d
000001c0: c0c0 f1bd 8bd1 373d 9d37 bfbd f093 513e
000001d0: 7fa1 ecbc e196 94bc 7a2c 06be 51b7 2e3e
000001e0: f730 3dbb 3b62 453e e90d fbbb b2a2 bbbd
000001f0: 0364 923d 0142 403e dbcf 95bd 014e 093e
00000200: 760f 01be de24 c53d 9522 373e 9eba 443e
00000210: 0f1e 1cbd fd9b b83d 59dd 25be 1697 903d
00000220: d7e7 adbd 362c a23d d43b a0bd 5869 413e
00000230: f7de 05bc 376f 15bd d794 08be 0607 313d
00000240: 23b5 05be f660 f1bc 98da 093d 381d c9bd
00000250: fdac f03d 40b6 92bc 557f 2cbb 042f 50bd
00000260: e981 9dbd fd8d a53d 1f63 6fba 0b96 1f3d
00000270: 83a6 153e 16af 0fbe bebf 93bd 5773 223e
00000280: 5bb2 b7bb e52c 19be a136 7fbd d8ef 00be
00000290: 0333 36be 7c45 e2bb c25d 11be e33f df3d
000002a0: fbce 353e 932b f9bd 82d3 293e f57c b93d
000002b0: b8dc 1a3e 9145 aabc 9e52 95bd f296 013e
000002c0: 659a 233e 38e0 10be e94d f2bd fc7e 08be
000002d0: d3e4 b33d 3783 3dbe 29be 093e 2b0f 0dbd
000002e0: 06c2 9c3d 4b3a 973d a791 f5bd 39ca 933d
000002f0: fb42 c9bd 8601 153e b630 e2bd 58b2 8cbd
00000300: b641 23be 1ca0 5abd a281 80bd 2c44 e13d
00000310: 4884 c4bd cecd 943d d789 a3bd 073e 263d
00000320: f3d0 2ebd 7191 6b3d 2f7e a8bd 9860 5a3c
00000330: cbb0 fcbd 63a1 4f3c 0676 abbd ba3c b33d
00000340: 6fff d93d f7c4 903d ca03 acbd 0e31 4dbe
00000350: 9c6b a83d 2cbe 09be 717d 01bd 96a4 3a3e
00000360: 0fd0 ef3d 789b fdbc a4e1 e83d 33de 013c
00000370: b113 183a 8c3f c2bd 848d 6f3d 2344 5c3d
00000380: ae8a d1bd 6a0b a8bd ec58 b9bd 2d99 1c3e
00000390: 5746 223e e73f f83d 5056 8bbd 181d d73d
000003a0: 7f6d 193e 641c 013e bf09 ad3b a1b1 2d3c
000003b0: cd30 3c3e 7e91 aebd b968 84bd 760a 23be
000003c0: d2ae a53d b3c3 cebd 8b7b 573d 8bb0 f73c
000003d0: 1bdd d33d 1a47 95bd bda5 803d 7ea8 7abd
000003e0: ce2f 233d 512e 11be 85b6 52bd 125a abbb
000003f0: 6aef d5bb 0747 893d 5202 b9bd 2402 2cbe

arith.constant4 f4 [21248]
-0.14985691 0.01555459 0.08786179 -0.022562865 0.031790562 -9.468579e-05 0.09320768 -0.06530372
0.019106278 -0.08915371 -0.03200729 -0.14467305 -0.08811796 -0.08586338 0.035912447 0.06423761
-0.13521826 0.044085387 -0.034778297 0.09367835 0.050636154 0.108915575 0.01637186 0.079969265
0.09323438 -0.09102916 0.014884475 -0.1189218 -0.14334531 -0.140395 0.0003907128 -0.13586581
0.08666448 -0.013787732 0.1196361 0.11588388 0.12785195 -0.021683577 -0.031590953 -0.12905434
-0.15874897 0.039840963 -0.010717542 -0.096911795 -0.0046648844 0.068683565 0.08919295 0.05955713
0.07309496 0.011564612 0.11966955 -0.15967329 0.1003587 -0.16202345 -0.06725869 0.016683502
-0.15763062 0.09713344 -0.1002576 0.0013265205 -0.05341934 0.13837916 -0.10880874 -0.14466047
-0.093793504 0.054967105 0.09604754 -0.083543606 0.053652488 0.064353794 0.012822755 -0.007839947
0.10770642 -0.1480708 -0.018530594 -0.036770508 -0.059376344 -0.113543145 -0.033496507 -0.0921218
-0.015352195 -0.14362283 -0.014690031 0.12325242 0.10858897 -0.15318821 -0.059051655 0.053413164
-0.06493734 0.007176684 -0.123844355 0.036464468 0.106465176 0.06717059 -0.041684784 -0.123386644
0.051201895 -0.096471064 -0.10771205 -0.032934986 0.015649809 0.13545841 0.11764939 0.057461105
0.105022304 0.12711348 -0.04383194 -0.032641888 -0.027154598 -0.10594564 0.094437815 0.14994079
-0.14085667 -0.0062677083 -0.07687492 -0.026987752 -0.12855674 -0.047303498 -0.073152885 -0.092600964
0.006428569 0.022915853 -0.07784365 -0.14691153 -0.11861703 0.080193795 0.1023564 0.09134824
0.037032858 -0.12377324 0.0022052939 -0.10510048 0.035232168 0.079414815 -0.14967394 0.053715166
-0.061216757 0.13277799 0.112885185 0.06507797 -0.08173274 0.11032875 -0.083643466 0.1172669
-0.14872327 -0.07474459 0.046971485 -0.13142219 0.11467025 -0.07577394 -0.1627059 0.021343451
-0.11205054 0.11101077 -0.08239492 0.10750917 -0.036526807 0.04455245 0.089822374 -0.06882539
-0.04305886 0.07076575 -0.04842778 -0.000364624 0.072987154 -0.01532041 -0.0009074778 -0.044233214
0.099689506 0.019899327 0.029977739 0.10152681 0.11240195 0.018144727 0.08690908 0.06252628
-0.08704276 -0.0739742 0.016939908 -0.05281879 -0.009306002 -0.08337225 -0.021092981 -0.12049009
-0.12000028 0.109191366 0.036293875 0.009749745 -0.15561458 0.07379353 -0.030979522 0.03018829
0.12667418 -0.06537987 -0.00030125477 -0.05729876 -0.14874893 0.03855122 -0.09733525 -0.10089991
0.009052196 -0.09073581 -0.117019355 0.04057402 0.10758875 -0.044720523 0.050135635 -0.13530228
0.053889453 0.08923753 0.12562625 -0.055330522 -0.0028747562 0.024826713 -0.0909611 -0.03865337
0.15161684 -0.0677748 0.062094238 -0.14137349 -0.06836537 -0.07479084 0.0062854807 0.03853382
-0.11819366 0.08288006 -0.10384264 0.04805117 -0.09708922 0.0068597766 -0.035657417 0.0074251564
-0.0024665352 -0.056507885 -0.014531901 0.13894539 0.010956129 -0.0016667529 0.1138768 -0.07440978
-0.110895686 -0.13955088 0.12411045 0.021759367 -0.13484387 0.032208163 -0.08775564 -0.1318293
-0.07482171 -0.12639901 0.076586746 0.07117026 -0.13141917 0.030127581 -0.13415128 -0.021614647
00000000: 1774 19be aed8 7e3c e2f0 b33d c2d5 b8bc
00000010: d236 023d 0c92 c6b8 abe3 be3d f5bd 85bd
00000020: c584 9c3c 3896 b6bd 131a 03bd 2c25 14be
00000030: 3077 b4bd 24d9 afbd ee18 133d 028f 833d
00000040: a876 0abe e192 343d b073 0ebd 6fda bf3d
00000050: db67 4f3d 210f df3d 471e 863c edc6 a33d
00000060: abf1 be3d 7f6d babd 03de 733c 468d f3bd
00000070: 1dc9 12be b5c3 0fbe 96d8 cc39 6820 0bbe
00000080: 267d b13d f1e5 61bc c603 f53d 8754 ed3d
00000090: 9feb 023e c2a1 b1bc 8465 01bd d226 04be
000000a0: 178f 22be 4730 233d a198 2fbc b179 c6bd
000000b0: e3db 98bb f8a9 8c3d cbaa b63d 2df2 733d
000000c0: cfb2 953d 8079 3d3c 4f15 f53d 6581 23be
000000d0: dd88 cd3d 7ae9 25be edbe 89bd d7ab 883c
000000e0: ec69 21be e6ed c63d db53 cdbd a4de ad3a
000000f0: 3dce 5abd 44b3 0d3e 1ed7 debd e021 14be
00000100: cf16 c0bd 3025 613d 93b4 c43d e918 abbd
00000110: b6c2 5b3d eccb 833d 8816 523c 1f73 00bc
00000120: 2f95 dc3d df9f 17be 79cd 97bc ac9c 16bd
00000130: 9c34 73bd 4f89 e8bd a233 09bd 5baa bcbd
00000140: c687 7bbc dd11 13be 75ae 70bc c46b fc3d
00000150: e563 de3d 5fdd 1cbe 26e0 71bd c3c7 5a3d
00000160: defd 84bd 642a eb3b 1ca2 fdbd c45b 153d
00000170: 6a0a da3d bc90 893d aabd 2abd 23b2 fcbd
00000180: 14b9 513d 9f92 c5bd 2398 dcbd d6e6 06bd
00000190: 0734 803c 9cb5 0a3e 2af2 f03d 565c 6b3d
000001a0: ef15 d73d 092a 023e 1f89 33bd 80b3 05bd
000001b0: 5273 debc 07fa d8bd 9d68 c13d 148a 193e
000001c0: bb3c 10be 5961 cdbb 9970 9dbd 6b15 ddbc
000001d0: 61a4 03be 50c1 41bd 2ed1 95bd 93a5 bdbd
000001e0: bfa6 d23b 07ba bb3c 7e6c 9fbd fa6f 16be
000001f0: 7ced f2bd a53c a43d 3ba0 d13d c914 bb3d
00000200: c4af 173d d37c fdbd b186 103b ec3e d7bd
00000210: 9b4f 103d 3ca4 a23d 2044 19be 6f04 5c3d
00000220: 6cbe 7abd f4f6 073e 5930 e73d 9947 853d
00000230: 7f63 a7bd 0af4 e13d 444d abbd a129 f03d
00000240: ea4a 18be b113 99bd 2c65 403d 8a93 06be
00000250: 3cd8 ea3d 5e2f 9bbd 609c 26be 76d8 ae3c
00000260: c17a e5bd 9d59 e33d abbe a8bd c52d dc3d
00000270: 229d 15bd a17c 363d cbf4 b73d 53f4 8cbd
00000280: 7d5e 30bd a2ed 903d 355c 46bd 012b bfb9
00000290: 4a7a 953d 7502 7bbc cee3 6dba e32d 35bd
000002a0: 032a cc3d ea03 a33c e093 f53c 4aed cf3d
000002b0: fe32 e63d 40a4 943c 63fd b13d c70d 803d
000002c0: 7943 b2bd c97f 97bd 90c5 8a3c 8458 58bd
000002d0: 3478 18bc 12bf aabd 30cb acbc 82c3 f6bd
000002e0: b5c2 f5bd b99f df3d e3a8 143d 65bd 1f3c
000002f0: 6e59 1fbe 1021 973d c4c8 fdbc 6f4d f73c
00000300: e0b6 013e e2e5 85bd bbf1 9db9 1bb2 6abd
00000310: a451 18be e2e7 1d3d b457 c7bd 9da4 cebd
00000320: a94f 143c b2d3 b9bd d8a7 efbd f230 263d
00000330: 7e57 dc3d de2c 37bd 065b 4d3d ae8c 0abe
00000340: 30bb 5c3d 2bc2 b63d 2ba4 003e 42a2 62bd
00000350: 6866 3cbb 6461 cb3c d049 babd ff52 1ebd
00000360: 7241 1b3e 84cd 8abd 8756 7e3d 36c4 10be
00000370: 2503 8cbd f12b 99bd 6ff6 cd3b a4d5 1d3d
00000380: 850f f2bd 05bd a93d 73ab d4bd 4ed1 443d
00000390: b7d6 c6bd fac7 e03b 830d 12bd ba4e f33b
000003a0: 98a5 21bb d074 67bd 3617 6ebc b347 0e3e
000003b0: 5681 333c f276 daba 3d38 e93d 2864 98bd
000003c0: 471d e3bd 6de6 0ebe 9f2d fe3d b340 b23c
000003d0: 8314 0abe b5ec 033d 3bb9 b3bd 43fe 06be
000003e0: 203c 99bd be6e 01be 83d9 9c3d b7c1 913d
000003f0: bf92 06be 1ece f63c f45e 09be 3311 b1bc

arith.constant6 f4 [16]
-0.029450078 -0.028019382 -0.034188792 0.015530142 -0.028883265 0.044057682 -0.035355713 -0.037097286
0.04422636 0.0451554 0.009121419 0.053175993 0.017205473 0.036613453 -0.039506603 0.026881972
00000000: 4a41 f1bc e788 e5bc 8c09 0cbd 2372 7e3c
00000010: 999c ecbc d475 343d 27d1 10bd 53f3 17bd
00000020: b326 353d def4 383d 0172 153c 12cf 593d
00000030: 7ef2 8c3c fdf7 153d add1 21bd 9537 dc3c
